Assets/Trained_with_all/PlayerAgent_BehaviorCloning/PlayerAgent_0.onnx (onnx, 79314 bytes, 8 tensors)

network_body._body_endoder.seq_layers.0.weight f4 [128, 8]
000000 a3 03 14 be e7 5f 17 bd c4 ff 1e bf e7 25 6b 3e
       -0.14454512 -0.036956694 -0.6210902 0.22963677
000010 24 9f 46 3f b0 98 4f be e6 91 66 3e b4 5e 3b be
       0.7758658 -0.2027309 0.22516593 -0.18297845
000020 bc 64 26 be 31 9a 85 be f9 88 d4 bc 3f 02 0f be
       -0.16249365 -0.260942 -0.02594422 -0.139657
000030 6b 26 0a 3e 07 64 8a bd 08 1b e2 be dd bd 1a 3f
       0.13491218 -0.0675736 -0.44161248 0.6044596
000040 e0 6d d7 bc 01 40 41 3f 80 c3 7d be 78 87 14 bf
       -0.02629751 0.7548829 -0.24781609 -0.5801921
000050 92 ea 4d 3e 16 f9 97 be 2b 05 31 3e 5d 35 c8 3e
       0.20109013 -0.29682225 0.17287128 0.39103213
000060 25 e3 b0 be 45 40 d4 3c 51 c2 36 be 0f 9b b9 be
       -0.34548298 0.025909552 -0.17847563 -0.36251113
000070 e0 9c 79 bd 75 2c 8a 3e 3b 6c 22 3d d0 c9 24 3f
       -0.060940623 0.26987043 0.039653998 0.6437044
000080 42 f1 af bd 4b 3e a9 3e 1d 3e 86 3d 0a ca fb 3e
       -0.08590938 0.33055338 0.06554816 0.4917758
000090 0d cb 83 3e 3f f4 12 3f 9f 07 48 3d 17 8e cf 3d
       0.25740853 0.5740394 0.048835393 0.10134523
0000a0 84 a2 ac 3e 7a 01 9e be 7c bd 1a 3e 24 32 8f be
       0.3371774 -0.30860502 0.15111345 -0.27967942
0000b0 e5 b3 23 3f 90 fc e0 bd 14 40 ba 3c 45 db ba 3e
       0.6394637 -0.109856725 0.022735633 0.36495414
0000c0 75 a4 3b be 25 c9 58 3f 40 76 36 3e a6 03 cb bd
       -0.18324454 0.8468192 0.17818546 -0.09912805
0000d0 76 17 83 be 71 61 ff 3c 94 42 15 be d4 81 27 3f
       -0.25603837 0.031174393 -0.14576179 0.65432477
0000e0 e9 1f b5 3d f8 39 b9 be 9e a8 9d 3e 19 3d 10 3f
       0.08843977 -0.3617704 0.30792707 0.5634323
0000f0 e3 91 a3 3e 67 a2 b2 3e 3b cd 06 be b8 31 52 bf
       0.3194724 0.34889528 -0.13164227 -0.82107115
000100 9d 19 fd bd 43 fd da be 7e 3d c3 bc 6f ec 10 3d
       -0.12358401 -0.42771348 -0.023833033 0.03538173
000110 7d c9 76 3e bc 21 c8 3e ac 4d ea be d3 bc 2c 3e
       0.24100299 0.39088237 -0.45762384 0.16868906
000120 f2 08 a9 3e 33 fb a2 bd 5d 38 c9 3e f4 4a ea be
       0.33014637 -0.07958069 0.39300814 -0.4576031
000130 e4 6b 04 bf b4 87 2c 3f f4 50 28 3e 54 ac 0c 3e
       -0.5172713 0.67394567 0.16437131 0.13737613
000140 2c 80 c0 3e 7c 69 47 be d1 da a2 3e db 2b 08 bf
       0.37597787 -0.19473833 0.3180757 -0.5319192
000150 3d 0d 07 3e ef 02 37 3f 71 7e c8 bd 95 00 a3 3e
       0.13188644 0.7148885 -0.09789742 0.31836382
000160 6e 6a 26 bf a0 42 4b 3b 9c 6b b2 be 68 49 35 3f
       -0.6500615 0.0031015053 -0.34847724 0.70815134
000170 80 c2 2f bf af 39 42 3e 22 b6 90 3d 02 e4 73 3e
       -0.6865616 0.18967317 0.07065989 0.23817447
000180 44 d0 8a be 07 45 00 3e 34 b8 a1 be f0 ab 39 3f
       -0.2711202 0.12526332 -0.31585848 0.7252798
000190 67 96 11 be 6c 76 53 be 65 ed 70 3d 67 52 8b be
       -0.1421753 -0.20650643 0.058820147 -0.27211305
0001a0 61 8d 1a 3f c4 74 96 bd 28 39 7b be 39 11 d4 be
       0.6037198 -0.0734649 -0.24533522 -0.4141939
0001b0 39 fc 89 3e 93 a2 63 be 83 8d 54 bd 4d 4c c3 3e
       0.26950243 -0.22229986 -0.05189277 0.3814415
0001c0 0a f5 b5 be 2f 7f 29 3e df 82 01 3f 60 3a 6c bc
       -0.35538512 0.16552423 0.5059032 -0.014418215
0001d0 7c 3c 61 3c 65 33 96 3d 82 8e 38 3e cf 4a a5 3d
       0.013747331 0.073340215 0.18023112 0.08070909
0001e0 9b 0a 9d 3b 3a 81 a1 3e 8e 20 e9 3d 96 69 54 3e
       0.004792524 0.31543905 0.113831624 0.20743403
0001f0 ed 05 75 be 01 9b 7e bd a0 38 f0 be 0b 34 91 be
       -0.23928042 -0.062159542 -0.469182 -0.28360018
000200 64 cd aa 3e 58 0d 7e bd f2 d9 78 be fa 94 73 3e
       0.33359826 -0.062024444 -0.2430189 0.23787299
000210 33 47 95 3e 09 21 0e 3e 00 e3 c2 3d c3 6d 23 bf
       0.29155883 0.1387979 0.09515953 -0.6383936
000220 b0 74 07 bd 25 b9 86 bd ef dd b4 bc ac 6f 35 3f
       -0.033070266 -0.06578282 -0.022078482 0.7087352
000230 fe 27 19 3e 41 0b 00 3e 79 e1 60 bd d8 4a f8 be
       0.14956662 0.12504293 -0.054902527 -0.484946
000240 62 56 25 3f ff 0c 9d 3e 1a 73 b6 3d 88 8d 03 3e
       0.64584935 0.30673978 0.08908673 0.12846959
000250 ee 79 02 3e 27 89 44 bf d6 b5 13 3f 45 f7 a9 3e
       0.12741825 -0.7677178 0.57699335 0.33196464
000260 be 3a d8 bd 72 ce 8a be ce e9 85 3e 28 af 99 3d
       -0.10558079 -0.2711063 0.2615494 0.075041115
000270 b9 58 82 3e c4 80 38 3e 45 bd d0 3e fe da 8b 3e
       0.25458315 0.1801787 0.407694 0.27315515
000280 39 7f 76 be 95 c8 64 3e a9 ef e4 3e d8 54 3e be
       -0.24071969 0.22342141 0.44714096 -0.18587053
000290 f5 ff eb be 4d bd d7 be 54 64 af 3e e0 a2 1d 3f
       -0.46093717 -0.42136613 0.34256232 0.6157665
0002a0 10 6f 57 3e 29 85 0d bd cf 3d 52 bc 76 67 a3 bd
       0.2103846 -0.03455082 -0.012832119 -0.07978718
0002b0 43 ca 36 3e 1e 95 ca 3e a9 cf be 3d 68 b1 8e 3e
       0.17850594 0.39566892 0.09316952 0.27869725
0002c0 87 66 e8 3e 60 5c a5 3e cf fa 22 3e fa 99 f9 be
       0.45390722 0.3229704 0.15915988 -0.48750287
0002d0 5b 3b f4 3d 8a 4c e1 3c 65 90 a1 be ab 6c 97 be
       0.11925384 0.027502317 -0.31555477 -0.29575095
0002e0 3e 8f a8 3d fa 9f 4c be 14 83 33 3e 01 aa bc 3e
       0.08230446 -0.19982901 0.17530471 0.36848453
0002f0 21 09 b0 3e 1a 78 94 be 87 31 01 3f db c2 ca 3d
       0.34381965 -0.2899788 0.504662 0.09900447
000300 8f 6c dc be dc 53 0f 3e 7e ad df bc 54 54 0b 3e
       -0.43051574 0.13996834 -0.027304407 0.13606387
000310 18 d3 a6 3e ad b5 aa 3e 49 f7 9d 3d 66 35 0f 3f
       0.32582927 0.33341733 0.077131815 0.55940855
000320 f8 aa 43 3c 1e 96 09 be 86 5d 9d be 38 38 f8 3e
       0.011942618 -0.13436171 -0.30735415 0.48480392
000330 aa 3b 0d be b2 b1 00 be b0 e1 95 be 5a ff 7f 3e
       -0.13792291 -0.12567785 -0.29273748 0.24999753
000340 f9 68 26 bd 81 b4 dc be 47 60 96 be 4b dd 65 bd
       -0.040627453 -0.43106464 -0.2937033 -0.056119245
000350 3f 5c cb 3e 7a ce b4 3e 1c cc 06 3f de 6d 73 be
       0.39718816 0.3531378 0.52655196 -0.2377238
000360 6c 8b 35 3f 9f c3 31 3e 90 96 57 be 36 cb e0 3e
       0.70915866 0.1735978 -0.21053529 0.43905038
000370 a2 d7 36 bf c3 94 0c 3e 9d d7 b6 bd 76 94 a2 bd
       -0.7142278 0.13728623 -0.08927844 -0.07938473
000380 ac 97 32 bf 2e af cc be ea fc 09 bf f1 97 ea 3e
       -0.6976268 -0.39977401 -0.5390154 0.45819047
000390 a7 6c d2 3d a2 e3 b4 3e 3a db 9b be 31 7a ba 3e
       0.1027463 0.3532992 -0.30440694 0.3642135
0003a0 dd d7 8c 3e a6 60 56 be 4e fb da be d4 b4 6f 3e
       0.2750844 -0.20935306 -0.42769855 0.23408824
0003b0 de 87 6b 3f 9d 45 0f be 4a 12 aa 3e 31 49 c5 3e
       0.9200419 -0.13991399 0.33217078 0.38532403
0003c0 6d 1c 8d bd 1a ba 11 be 60 a7 f7 3d 7c 4f 5c be
       -0.068901874 -0.14231148 0.12092471 -0.21514696
0003d0 cb 0b 19 bf 0d 11 d4 3c c4 d3 38 bf 61 3d 5c 3f
       -0.5978362 0.025887037 -0.7219813 0.86031157
0003e0 35 de fa 3d 87 56 1f 3f 83 f6 96 3e 24 e0 0c be
       0.12249414 0.62241405 0.2948495 -0.13757378
0003f0 4d 60 eb be b9 c8 33 be 1d c2 b6 be bc 3b b9 bc
       -0.4597191 -0.17557038 -0.35694972 -0.022611491

network_body._body_endoder.seq_layers.0.bias f4 [128]
000000 f9 4b bb 3c fc f8 bf bc a6 84 61 3b da e2 01 3d
       0.022863375 -0.023434155 0.003441134 0.031710483
000010 89 ba b5 bc 81 54 33 bc c3 54 08 bd df bb 75 bd
       -0.022183673 -0.01094544 -0.03328396 -0.05999362
000020 b4 95 a4 bb 56 75 b7 3b ca 3b 60 bd 0e 71 1f 3d
       -0.005022729 0.0055987043 -0.05474452 0.038926177
000030 92 21 87 bd 2f 77 04 bc d4 7c bb bc 40 59 c5 3c
       -0.065982 -0.008085056 -0.022886671 0.02409041
000040 71 d7 93 3a 45 7e 9c bd cc c3 27 bd cf ac b0 bc
       0.0011279417 -0.076412715 -0.04095821 -0.021566777
000050 34 14 85 bc 2c da aa bd 22 b3 7f bc 41 a9 8c 3c
       -0.016244985 -0.08342394 -0.015606673 0.01717055
000060 21 6e 19 bd d2 62 41 bb 6d 15 c3 3d 30 ce 61 bd
       -0.037458543 -0.0029508364 0.09525571 -0.055128276
000070 fe 07 c1 bc 4f 3f 02 3d 81 72 10 3d b1 4c 68 bc
       -0.023563381 0.031798657 0.03526545 -0.014178441
000080 63 59 c0 3c 46 4f ef bc 1d 95 f5 bc 8d 3b df bb
       0.023480123 -0.029212605 -0.02997833 -0.006812519
000090 57 96 46 3b 30 3f 61 bc 8c 1a 59 bc 4d cb d8 bc
       0.0030302012 -0.013747975 -0.013250958 -0.026464129
0000a0 d7 51 aa bb 75 26 db 3c 8d 46 7c bd 2c 51 f9 3b
       -0.0051977444 0.026751736 -0.06159072 0.0076085534
0000b0 f9 96 25 bd 9a f5 a9 3b 1b f8 1b bd 01 bf d0 3b
       -0.040427182 0.0051867487 -0.03807841 0.0063704257
0000c0 06 cc b3 bc 8d 23 71 bc 71 ec 8d 3b c0 57 43 bd
       -0.021947872 -0.014717949 0.0043311645 -0.047691107
0000d0 5a c9 16 bb 96 17 90 bc 4a 64 d8 bc fd f8 0f bd
       -0.0023008198 -0.017589372 -0.026415009 -0.035149563
0000e0 5c 34 d8 3a 2b 10 d7 bb d8 55 2f 3c 4f 3e 14 bd
       0.0016495096 -0.0065632067 0.010701619 -0.036192235
0000f0 ee d0 f0 bb 00 5b 6c 3c 73 76 04 3c 3f 5b 1f bd
       -0.007349125 0.014425993 0.008084881 -0.03890538
000100 6e fc 78 bd fe 63 9b 3c 71 b9 38 3c 1c a0 31 3d
       -0.06078761 0.018968578 0.011274681 0.043365583
000110 ca 9d 1e bd fc 04 0f 3c b3 7c 01 ba 23 08 f6 bb
       -0.038724698 0.008729216 -0.0004939541 -0.007508294
000120 e4 b2 6f 3d d7 c3 f4 3c fb 6e 71 bd 5f c9 be 3b
       0.058520213 0.02987854 -0.05894373 0.005822345
000130 3d 30 49 bd 69 6d 21 3c 7c a8 0a ba 33 6d 49 bd
       -0.04911827 0.009852746 -0.00052893884 -0.049176406
000140 b4 28 11 bc a5 82 de 3b 07 32 90 bd e3 8a 82 bc
       -0.008859802 0.0067904764 -0.07040792 -0.015935367
000150 3f f5 2d bd 22 33 50 bd 84 9c 24 bc 22 b8 8f 3a
       -0.042470213 -0.050830014 -0.010047082 0.001096491
000160 24 3d fc bd c4 ff 0e 3b 5b f3 65 bd 7a 79 4e 3c
       -0.12316349 0.0021819929 -0.056140285 0.012602204
000170 3e ac bd 3c 89 1d 57 3b 52 22 53 3c 72 b8 e9 bb
       0.02315342 0.0032824 0.012886601 -0.0071325833
000180 ca 3d 02 bc 35 67 2d bd 2d 66 cc bc 77 91 46 bd
       -0.007949302 -0.042334754 -0.024951065 -0.04847857
000190 9f 7a dd bc 80 a0 6a bc bb 48 0f bd 25 d9 0d bd
       -0.02703601 -0.014320493 -0.03498147 -0.034630913
0001a0 0e 7c a6 bd 3c 85 1c bd 3c ea b0 bc 5e b7 6e bd
       -0.0812913 -0.038213 -0.021596067 -0.05828034
0001b0 9f 2f 1a bd 7b 04 78 bd 18 de ba bc d9 a6 d9 ba
       -0.03764307 -0.060551148 -0.02281098 -0.0016605511
0001c0 96 37 99 3d 20 04 43 3d c6 37 3c 3b b3 b2 a5 bc
       0.07481305 0.047611356 0.0028719767 -0.020226812
0001d0 a3 fb ef bc 8b 1b 3e bd 1f 0c f5 3b 44 1a 00 3d
       -0.029294794 -0.046412986 0.0074782516 0.03127505
0001e0 31 c4 90 3d ca 46 92 ba ac 9f d1 3d d8 ff 78 bc
       0.070686705 -0.0011160013 0.10235533 -0.015197717
0001f0 fb da 16 3c 87 70 c5 3c dd dc 9a bc 4d 30 d7 bd
       0.009207482 0.024101509 -0.018904144 -0.105072595

network_body._body_endoder.seq_layers.2.weight f4 [128, 128]
000000 78 98 fe 3c 62 6b 97 3d fb 01 4d be 9e 3c 8e bd
       0.031078562 0.073935285 -0.20020287 -0.069451556
000010 09 35 02 3d c0 6b 16 be 3c f4 22 3d 4f 4b 9b 3d
       0.03178886 -0.14689541 0.0397837 0.07582723
000020 77 da c8 bc 9a 38 ec bd 3e 33 e1 3d f1 e2 1c be
       -0.024518235 -0.115342334 0.10996102 -0.15320946
000030 52 18 64 bd d6 c1 2c 3e a5 43 b0 3d d0 ff 1f be
       -0.055687256 0.16870818 0.08606652 -0.15624928
000040 1e 69 c4 3d 4a 93 a9 3d 3d 97 1d 3e 43 42 1c be
       0.09590362 0.08280046 0.15389724 -0.15259652
000050 56 91 11 be 12 5f c1 3c c8 97 50 bd f8 7e 50 3d
       -0.14215598 0.023604903 -0.050926 0.050902337
000060 b3 b1 fe bd 1c 46 89 3c ae fb 25 bd a9 cf 8b 3b
       -0.12436237 0.016757064 -0.040523224 0.0042666984
000070 5a fa 9f bb 9f f7 92 3d 6e 2e 00 3d 5a 8c b5 bc
       -0.004882139 0.07176136 0.03129428 -0.022161651
000080 df 05 15 be 5a 31 f5 3c f3 f8 0d 3d fe f5 c2 3c
       -0.14553021 0.02993076 0.034661245 0.023798939
000090 17 ca 31 be 5a a3 03 3c f2 2d 94 3d 3c c5 f2 bb
       -0.17362247 0.0080345515 0.07235326 -0.007408766
0000a0 cf 2a dc bd 89 e1 7f bd 00 95 ea 3d 2e d0 95 3b
       -0.107503526 -0.062470946 0.11454201 0.004571936
0000b0 e4 bb 8f be fd 4a 98 3d 2a 1b 95 3c ca f0 b5 3c
       -0.28073037 0.07436178 0.01820143 0.022209544
0000c0 ed cf 23 3e 4c fc 0b 3c 43 8d 23 bd 64 b8 52 bd
       0.15997286 0.008544039 -0.03992964 -0.05144538
0000d0 dd 85 f4 bd 17 af 10 3e af f4 b3 3b a0 8e 29 bb
       -0.11939595 0.14129291 0.005491815 -0.0025872365
0000e0 cb e4 a0 bc fb 3c 33 bd 45 be 5a bd 75 64 69 3d
       -0.019640347 -0.043759327 -0.05340411 0.05698057
0000f0 f6 45 36 bd 67 50 fd bc ef fe 09 3e 75 57 b7 bd
       -0.044500314 -0.030922128 0.13476156 -0.08952228
000100 e2 a9 90 3d 23 16 85 bc c8 28 04 bd a0 1e 8b bd
       0.070636526 -0.016245907 -0.032265455 -0.06792951
000110 ed b7 87 3c ad 38 cd bd d4 0d b9 3b 67 27 dc bd
       0.016567195 -0.10020576 0.0056474004 -0.10749703
000120 1a 6c 6c bd 4f 67 40 3c 39 8a 10 3e a6 bb e4 bd
       -0.05772028 0.011743381 0.14115228 -0.111686036
000130 d6 05 31 3d bd cc 52 bd 25 e5 42 3d ab 30 9c 3c
       0.043218456 -0.051464785 0.04758181 0.019066175
000140 14 69 ee bc 68 85 c6 3c b9 f5 a7 bd 3d 16 fd 3b
       -0.02910284 0.024233535 -0.08201165 0.0077235983
000150 d2 5c 0e bd e3 b0 b4 bc e9 8f df 3d b9 d7 a7 bd
       -0.03475649 -0.022057002 0.109161206 -0.08195443
000160 39 ea 2a be a5 bb 0a 3e fb a2 25 3b bf a5 87 3d
       -0.16690911 0.13548143 0.0025274146 0.066234104
000170 d6 c1 8f 3d 94 d7 2c 3e ed 47 07 be 24 9a b6 bd
       0.07019393 0.16879112 -0.13211031 -0.08916119
000180 5d cd 74 bc d3 03 f3 bc 75 5d 3b 3d 8f bb 42 bd
       -0.014941541 -0.02966491 0.045743424 -0.04754215
000190 fe 87 a9 bc f4 0f 24 bd 62 35 44 be 61 fe ab bd
       -0.020694729 -0.040054277 -0.19160989 -0.08398128
0001a0 c1 af 51 3d 0d c2 a9 bc e9 91 78 be 53 89 9e 3d
       0.051193003 -0.020722413 -0.2427441 0.07741036
0001b0 a0 30 bb 3b a5 55 27 3d 69 b2 08 3e 62 44 b0 bd
       0.0057125837 0.04085316 0.13349308 -0.08606793
0001c0 73 6c 4d bd f5 71 30 3e 9e 57 3c bd 54 24 b7 bd
       -0.050152253 0.17230971 -0.045981996 -0.08942476
0001d0 cb 4d c3 3c c5 4d ea bd 87 14 88 bd 59 a2 17 3d
       0.023840806 -0.114406146 -0.0664454 0.03702006
0001e0 6b 82 9a bc d8 51 81 3c 93 be 5f bc 1d e1 2e be
       -0.018861016 0.015786096 -0.013656276 -0.17078061
0001f0 33 b7 25 3e 67 ac a4 3d ce 86 48 3d f6 02 d5 bd
       0.16183166 0.08040696 0.048956685 -0.104009554
000200 9e f6 58 bb 92 97 17 3e 65 25 8f 3d 1e 49 2b 3c
       -0.003310598 0.14803913 0.06989554 0.010454444
000210 e4 36 d3 bc 26 05 cd 3c 88 a6 e7 bd 21 63 46 3d
       -0.02578301 0.025026869 -0.1131106 0.04843438
000220 47 19 85 bd 9b 4a 9f 3d 95 03 d7 bd ea c9 32 3d
       -0.06498962 0.07777902 -0.1049873 0.04364959
000230 d5 04 dc bd 59 98 16 3d b9 24 7a 3c bb b5 09 3e
       -0.10743109 0.036766384 0.015267544 0.13448231
000240 80 08 7b 3d c2 8f d6 bc 33 4d ce 3d 01 a6 d2 3b
       0.061287403 -0.026191596 0.10073318 0.0064284806
000250 27 ce 99 bc df 9e 15 be e2 56 b3 bd a3 42 15 bd
       -0.018775059 -0.14611386 -0.08756806 -0.036440503
000260 57 db 49 bd f5 2b b1 3d 4b 75 f2 3d a4 32 9c 3d
       -0.049281444 0.08650962 0.11838778 0.076268464
000270 d8 96 97 bd 2a 1a 5e be bc cb 1c be 3b 6d 3c bb
       -0.07401818 -0.21689668 -0.15312093 -0.002875163
000280 34 36 08 3d 70 bc c6 bb 42 c3 85 3d 21 a3 a0 3d
       0.033254817 -0.006064944 0.06531383 0.07843614
000290 f0 c9 9d bd ee 7c af bd 4d 5a 8c 3b 33 e5 5a bd
       -0.07704532 -0.0856875 0.0042832256 -0.053441238
0002a0 d4 80 2f 3d 2a 23 45 3e 61 57 86 3d 1e f4 4d bd
       0.04284747 0.19251695 0.06559635 -0.050281636
0002b0 e8 ae b0 bd 5e a6 36 be 2e 7d c0 3c b6 ba eb bd
       -0.08627111 -0.17836902 0.02349719 -0.11510222
0002c0 4a 4b 80 bd 2f 69 1b bd 8f 8f 0c bc a0 db 34 be
       -0.0626436 -0.037942108 -0.008579149 -0.17661905
0002d0 de a6 f6 bd 18 16 98 3d 65 be 84 bc 37 70 17 3c
       -0.12043546 0.07426089 -0.016204068 0.009243063
0002e0 e8 40 12 be 33 13 5f bd 1e fa 35 be b6 1c 16 be
       -0.14282572 -0.05446167 -0.17771193 -0.1465939
0002f0 98 02 2b be 83 0d a6 3d 5c 53 01 3e db fe 06 bd
       -0.16700208 0.08108046 0.12629455 -0.032957893
000300 e8 d9 3c bd 00 17 f5 3c 68 d4 cc 3d 33 df a0 3c
       -0.04610625 0.029918194 0.10001451 0.01963768
000310 06 d4 b0 bd 88 63 22 bd 06 8f 0a bd b2 c9 28 3e
       -0.0863419 -0.0396457 -0.033827804 0.1648319
000320 a6 7c 31 3e de fc 39 3e 67 a0 06 3e 82 21 64 3d
       0.17332706 0.18162867 0.13147126 0.055696018
000330 fc 49 51 be 80 9a 16 3d 72 28 ab 3d e8 46 46 3d
       -0.20438379 0.036768436 0.08357324 0.048407465
000340 40 c3 de 3c df 33 1b 3e 2b ba ce 3d c8 e4 c4 bd
       0.027192712 0.15156506 0.100941025 -0.09613949
000350 29 96 92 bd 63 02 92 bd 99 d4 82 bd 22 e5 0f 3e
       -0.07157547 -0.071293615 -0.06388206 0.14052251
000360 98 05 29 3d e5 9d d0 39 82 92 3a 3e bc a2 b8 3d
       0.0412651 0.00039790492 0.18219951 0.09015414
000370 41 f6 c8 bd f4 4c de 3d 81 03 eb bd 5a e1 2d 3c
       -0.09812594 0.108545214 -0.11475278 0.01061281
000380 f5 4d 3b be bc f2 57 3c 2d 33 a1 bd 86 e6 a8 3d
       -0.18291457 0.013180431 -0.07871089 0.08247094
000390 ec 16 b2 3d 3b 30 a3 3c 1b c8 a6 bd bf bd 30 3d
       0.08695778 0.019920459 -0.08143636 0.043149706
0003a0 ac 1f d6 bc 6f 5d 88 bd 98 1e 47 bd 43 a3 3a bd
       -0.02613815 -0.06658446 -0.04861316 -0.045565855
0003b0 1c 53 bd bd 11 b6 b4 bd a9 c4 36 bd bd 38 2b be
       -0.092443675 -0.08823789 -0.044621143 -0.16720863
0003c0 02 48 8b 3e af b8 4a 3e a2 75 e9 3c 8d cd b6 bd
       0.27203375 0.19797014 0.028498475 -0.089259245
0003d0 9d f1 b7 3d cf c6 99 3b c1 f5 ef 3c 51 62 aa 3a
       0.08981631 0.0046928893 0.02929199 0.0012999271
0003e0 f6 c9 8f 3d f1 32 f0 bc b7 ea b0 3d 77 79 68 bd
       0.07020943 -0.029321166 0.08638518 -0.056756463
0003f0 79 17 2a bc ae 2f 8d bc e3 47 1f 3e cc 61 f0 bd
       -0.010381573 -0.01723465 0.15554766 -0.11737403

network_body._body_endoder.seq_layers.2.bias f4 [128]
000000 f6 38 f4 bc 69 c8 a3 3b 60 1e 99 3c 69 a8 27 bd
       -0.029812317 0.004998256 0.018691242 -0.040932093
000010 cc f4 a9 bc 8b 48 1d 3d bd fe a1 bc a9 f0 41 bc
       -0.020746611 0.03839926 -0.019774789 -0.011837163
000020 ec ee a8 b9 77 c9 97 bc ce 9d c8 bc 03 a8 2c bd
       -0.00032221468 -0.018528683 -0.02448931 -0.042152416
000030 c2 d9 ce bc f4 d9 38 bd ad a0 da bc a4 c5 9e bc
       -0.02525032 -0.04512973 -0.026687944 -0.019381352
000040 af 2b 15 bc 45 dc ff bc c7 99 25 bb fb e8 25 bd
       -0.009104653 -0.031232962 -0.002526866 -0.04050539
000050 b4 46 29 bd 81 ec 83 bc da f7 7a 3c 68 38 3e bd
       -0.041327193 -0.016103985 0.0153178815 -0.046440512
000060 56 fc 1a bd 14 c2 22 bc bf 29 d3 bc d4 a0 de 39
       -0.037838303 -0.009933967 -0.025776742 0.00042462966
000070 89 4f b3 bc fe de eb bc a3 80 d9 3b 5f 2e c0 b7
       -0.021888511 -0.028792854 0.006637649 -2.2909777e-05
000080 98 8b 61 3c ae f7 b4 bc ae a2 64 bb fd 9a 25 3c
       0.013766192 -0.02209076 -0.0034887004 0.010107753
000090 9e f5 79 bd 72 66 0d bd 1c 9d c2 bc fe cf d8 bc
       -0.061025254 -0.034521528 -0.023756556 -0.026466366
0000a0 ff d1 9f bc 7e fa aa bc b0 6e 8c b7 79 5c 32 bd
       -0.019509314 -0.020871397 -1.6740843e-05 -0.04354522
0000b0 dc 22 9b 3b 1c 9b a2 bc e6 bc 10 bb c0 54 0c bb
       0.00473438 -0.019849353 -0.0022085248 -0.002141282
0000c0 16 15 ef bc 78 fe 48 3c b0 3b ee bc fe 41 12 bc
       -0.02918486 0.012267701 -0.029081196 -0.008926867
0000d0 1e 31 51 bd 9b 89 a7 bc fc 7e 4c bc 97 dd 58 bd
       -0.051072232 -0.020451358 -0.012481447 -0.0529457
0000e0 d5 a0 37 3d 1f f6 cc ba 83 ad 1a bc 7f 9e d1 bc
       0.044831116 -0.0015637315 -0.0094407825 -0.025588272
0000f0 37 42 96 bc c4 db 2e bd 79 dc 94 bc 02 19 a2 bc
       -0.01834212 -0.042690054 -0.018171536 -0.019787315
000100 32 7a 28 bb b5 44 e5 3b 59 c7 72 bc 0d 3a 2e 3d
       -0.00257076 0.006996716 -0.014818036 0.04253583
000110 87 d2 3a bd 18 d1 43 bd fa 80 df 3b fe da 45 bc
       -0.04561093 -0.04780683 0.006820795 -0.012076138
000120 a2 9e 05 bd b5 05 97 bc 7d 61 ba bc 26 83 4a 3b
       -0.032621987 -0.018435339 -0.022751564 0.0030900924
000130 2e 18 e6 bc f9 7c 30 3d 4b 8e c8 bb d1 a3 0c 3d
       -0.028087702 0.043087933 -0.0061204783 0.034335915
000140 ab 64 fa 3c 19 5c e4 bb 4d 33 68 3c f4 5e 96 3c
       0.03056558 -0.0069689867 0.014172387 0.018355824
000150 e9 13 e4 bb 63 c5 73 bc 3a 59 41 bd 36 87 cb bc
       -0.0069603813 -0.014878604 -0.047204234 -0.024844747
000160 9c cb bf 3c 0e 3e 27 bd 7b fd 04 bd 77 d1 4c bd
       0.023412518 -0.040830664 -0.0324683 -0.05000445
000170 bb 7e ab bc 7b 2b 86 bc 02 b3 8c bd b4 78 0b 3c
       -0.020934453 -0.016378155 -0.068700805 0.008512665
000180 b0 9b 0b bd 89 3d a8 bc 08 b9 33 bc b6 06 f1 bb
       -0.034084022 -0.020537155 -0.010969408 -0.0073555363
000190 d1 0c ee ba 35 52 d6 bc c8 cb 0c bd ad 98 26 bd
       -0.0018161779 -0.026162246 -0.03437403 -0.040672947
0001a0 88 0f 08 bd c1 17 7c bd a9 92 25 bd b2 c9 a2 bb
       -0.033217937 -0.06154609 -0.04042307 -0.0049678916
0001b0 9d b1 93 bb cd 2c 2c bd 67 8d 47 bd aa f2 4d bd
       -0.004507257 -0.042034913 -0.048718836 -0.05028025
0001c0 16 07 d5 3c dd a9 e8 bc 93 4b 9a bc cf 5f 63 bc
       0.026004355 -0.02840131 -0.018834865 -0.013877823
0001d0 7c 2a 0e 3b a5 cf 0a bd 92 be 0b 3c f6 08 e1 bc
       0.0021692803 -0.03388943 0.008529322 -0.027470093
0001e0 e5 b1 3c bd a0 0d 16 bd f5 6c 09 bc fa 41 18 bd
       -0.04606809 -0.036634088 -0.008387794 -0.037172295
0001f0 06 c2 07 3b b3 0f 4f bd c3 a3 2b bd 6d f4 9b 3a
       0.0020715012 -0.05055208 -0.041904222 0.0011898406

action_model._continuous_distribution.log_sigma f4 [1, 2]
000000 60 94 5f be 32 1a 3a be
       -0.21833944 -0.18174055

action_model._continuous_distribution.mu.weight f4 [2, 128]
000000 4a 6c 1a 3c 65 89 ac bb f2 03 4d 3d 21 0b 61 bd
       0.009425232 -0.005265402 0.05005259 -0.054942254
000010 c5 64 b7 bd 9f d6 6c bd b6 8d 94 bc 4d 07 9c bc
       -0.08954767 -0.057821866 -0.01813398 -0.01904645
000020 ce f9 3e 3c bf 94 e0 bc 7c b2 01 ba 55 89 21 3c
       0.011656238 -0.027414678 -0.0004947556 0.009859403
000030 46 37 98 bc f1 ad 9e bb 9b 58 50 bb 63 22 a6 3c
       -0.018581044 -0.004842513 -0.0031791094 0.020280069
000040 9e 25 e3 bc 38 73 b2 bb d4 e6 43 3c b0 d0 2b bc
       -0.027727898 -0.005445864 0.011956889 -0.010486767
000050 dd 43 a9 3b fd fb 39 3c 9e 48 34 bc ac 13 86 3b
       0.0051655606 0.011351583 -0.011003641 0.0040917005
000060 02 1c 1e 3d 05 5f 24 3c cd be 84 bc dd cb e4 bc
       0.03860093 0.01003242 -0.016204262 -0.02792924
000070 7f e6 71 bc 46 c7 c9 3b ea 0b 35 bc 6c ee b0 3b
       -0.014764427 0.0061577884 -0.011050204 0.005399516
000080 17 cb 55 3c a9 13 79 3c ca 1c 5d 3c ad 6e 91 3c
       0.013048909 0.015202441 0.013495633 0.01775297
000090 04 10 f9 bb 05 4c ce bc 2e 21 5d bc c5 25 ff 3b
       -0.007600786 -0.025182733 -0.01349668 0.007786485
0000a0 30 79 d2 ba c0 a3 26 bc e4 a0 bb bc 94 38 61 bc
       -0.0016057845 -0.010170877 -0.022903867 -0.013746399
0000b0 cb 8e 65 b9 3a 26 90 bc 0b ec 6d 3c dd d7 21 3d
       -0.00021892336 -0.017596353 0.014521609 0.039512504
0000c0 8e e3 9e bb 89 35 e5 3b 38 ec 2a bc 36 7f 57 bc
       -0.004848904 0.0069949073 -0.0104322955 -0.013152888
0000d0 2d d7 bd 3a 5d 2d ce 3c 5b 0c 23 3d 06 11 39 3c
       0.0014483683 0.025168115 0.039806705 0.011295563
0000e0 47 e0 15 3d 55 51 b6 3b 58 3a d8 bb 20 ee 18 3b
       0.03659084 0.0055638948 -0.006598752 0.0023335293
0000f0 be fd 46 3c d4 24 66 ba e4 33 d2 3c fb 74 f8 ba
       0.012145458 -0.00087792915 0.025659509 -0.0018955761
000100 79 dd f1 ba 45 89 73 bc 0b d1 8d 3a f7 b8 c0 3c
       -0.0018452845 -0.014864271 0.0010819746 0.023525698
000110 c0 41 20 bc 2b dd 98 bb ec c4 20 bd a2 9b 57 bc
       -0.009781301 -0.004665037 -0.0392503 -0.013159664
000120 17 ee a7 3b d7 8f bb 3a ba 7b fd bb 7c 5d 92 3a
       0.005124818 0.0014309835 -0.0077356966 0.0011166777
000130 58 45 e7 3c e6 27 0d bd d2 bb c0 bc b1 98 d6 3b
       0.028231308 -0.03446188 -0.02352706 0.006548964
000140 98 de 03 3d a1 34 80 3b d3 08 e1 bc 77 50 4d 3b
       0.032194704 0.003912524 -0.027470028 0.0031328478
000150 b0 71 a8 3c 49 67 7a bb 0d d1 21 bd ea 7f 86 bb
       0.020562023 -0.0038208535 -0.039506007 -0.004104604
000160 e8 03 cf 3b b0 4c 2b 3b 74 40 0f bb fc 19 f8 bc
       0.0063176043 0.0026138239 -0.0021858485 -0.030285828
000170 8a 2a 1f bb 5f e7 10 3c 1d 0b 9f ba 7b a1 77 bd
       -0.002428683 0.008844226 -0.0012134049 -0.060456734
000180 fb b3 9e 39 16 8b 93 bc 9f d7 0d 3c df 74 11 bb
       0.00030270204 -0.018010657 0.008657365 -0.0022194905
000190 fa 8a f0 3c 26 75 f1 bb de 3e 9c bb 8f 72 0e bc
       0.029363144 -0.0073687015 -0.0047682365 -0.008694305
0001a0 e8 41 97 3a 45 2f 5a bc 27 5b 25 3d e0 e7 a5 bc
       0.0011540027 -0.013316934 0.040370133 -0.020252168
0001b0 7c 6f 32 3c 5e a2 24 bc 26 39 b7 3b 0a 32 3b 3a
       0.010890838 -0.010048477 0.0055915294 0.000714094
0001c0 77 e6 48 3c f5 be f2 bb d7 80 8a 3c ef 54 60 3c
       0.012261978 -0.0074080178 0.016907139 0.013692125
0001d0 87 a7 30 ba 99 3a 91 3b 65 ef fa 3b 21 3a a8 3c
       -0.00067388307 0.004432034 0.0076579326 0.02053553
0001e0 a8 af a6 bc 55 cd 9d bc a1 72 de bc 41 02 01 3c
       -0.020347431 -0.019262949 -0.027154269 0.0078740725
0001f0 59 ac 1f bd 8d 76 99 bb 93 bb 5b bc 87 9c 74 3c
       -0.038982723 -0.004683322 -0.01341142 0.014929897
000200 2b fb e4 3b fc ea 0e bd 4c 3f 7f 3a d9 63 e7 3c
       0.0069879494 -0.034892067 0.000973691 0.028245853
000210 f4 0d 2e ba 23 c6 24 bc d4 13 ce 3b 79 9c 4e 3d
       -0.00066396524 -0.010057005 0.006288985 0.050442193
000220 be 19 19 3d 00 d9 92 bc 29 4f cb bb f8 17 10 3c
       0.037378065 -0.01792574 -0.006204505 0.008794777
000230 98 f9 ba 3a 10 72 1d bb 61 d7 dd 3b 97 f8 3d bc
       0.0014265059 -0.0024024285 0.00677006 -0.011594913
000240 81 10 9f 3b 09 34 6a 3c 30 c5 96 bc 1a 20 b5 3b
       0.0048542623 0.014294633 -0.018404573 0.0055275084
000250 2b 1f dc bb 35 9c 16 3c 21 72 2b 3c 14 77 74 3c
       -0.0067175827 0.009192516 0.010464222 0.014920969
000260 e1 9e 3c bc 2d a6 2e 3c 36 e8 37 bc 10 01 f9 3c
       -0.011512489 0.010659737 -0.011224797 0.030396014
000270 d4 9c bb bc 52 17 80 3c 94 31 93 bc 56 0f 96 bc
       -0.02290193 0.01563612 -0.017967977 -0.01831786
000280 b5 a7 ee bc 62 ec e3 bc ed c1 13 3c f0 71 08 3d
       -0.029132703 -0.027822677 0.0090184035 0.033311784
000290 8a 3e 45 3b 9b b8 27 3c 6d c7 02 3c 76 40 51 3c
       0.003009709 0.0102368845 0.007982117 0.012771716
0002a0 43 6f 19 bb 8a 92 c2 bc a1 eb 0f 3c bd c2 d7 3b
       -0.0023412264 -0.023751516 0.008784206 0.006584494
0002b0 fd e7 31 bd bc 5c 9d bc 09 e8 a0 bc 7d 40 7f bc
       -0.043434132 -0.019209258 -0.019641893 -0.01557934
0002c0 9a b5 b3 bb 33 1d 3d bc e2 06 b0 bb e8 52 2e 3c
       -0.005484295 -0.011542606 -0.0053719142 0.010639884
0002d0 3b c1 0e 3c 4d 8a e5 3b a3 49 c7 bc 84 a0 04 3b
       0.008713062 0.007005012 -0.024327105 0.0020237276
0002e0 21 a7 9e bc 23 6b c8 bb 1c 87 5b bd 48 7b 8f bb
       -0.019366803 -0.0061162873 -0.053595647 -0.00437871
0002f0 26 92 00 3c c0 68 f8 3c 03 fd 25 bc c8 d9 be 3b
       0.0078473445 0.030323386 -0.0101311235 0.0058243014
000300 d0 28 98 3c c1 7f a5 3d 15 f0 07 3c 38 18 4a 3d
       0.018574148 0.08081008 0.008296986 0.049339503
000310 bc e9 53 3c 46 e0 51 bb b4 e5 17 bc 57 dd 07 bc
       0.012934145 -0.0032024547 -0.009271074 -0.008292518
000320 7f bc f9 bb fc 72 c1 3c bb 12 b2 bc 30 c7 23 3c
       -0.0076213474 0.0236144 -0.021737447 0.0099962205
000330 7a ec 89 bb 84 2c 79 bd 47 c0 64 3d 22 e7 3d bd
       -0.0042090984 -0.06083347 0.055847432 -0.046363004
000340 28 fd 8f 3c 61 03 2c 3c 3c ac 7d bc 5a cd 46 3d
       0.017576769 0.0104988525 -0.015482958 0.048535682
000350 ae 02 a7 3c 69 23 8c bc 52 69 2f bc d0 a2 45 bb
       0.02038702 -0.017106729 -0.010706263 -0.0030156858
000360 8e 54 72 3c 7c 76 d3 3b 6d 0f ba 3b 62 a1 06 3e
       0.014790667 0.0064533334 0.0056781084 0.131475
000370 2c 8d db bb 16 c1 58 3d 99 09 24 bb cd af 01 bd
       -0.0067001786 0.052918516 -0.0025030135 -0.031661797
000380 cb c2 57 3b d1 d3 ad 39 49 58 b1 3b 34 a1 80 3b
       0.0032922502 0.00033154947 0.0054121357 0.003925467
000390 f5 8f 48 3b 52 41 29 3c c2 6c 09 3c a6 d8 36 3c
       0.0030603383 0.010330515 0.008387746 0.011160051
0003a0 aa 25 b3 ba 28 ce 76 3c c5 c9 5a 3d dc c1 aa 3b
       -0.0013667841 0.0150638 0.05341508 0.005211098
0003b0 b7 46 4e bc 4d b3 2d 3c bd 56 9d 3c 58 0a 45 3b
       -0.012590102 0.010601831 0.0192064 0.003006598
0003c0 c7 44 3b bd 7d a2 cc 3a 23 7e db bb 09 31 13 bc
       -0.045719888 0.001561239 -0.0066983863 -0.008983859
0003d0 fc ef e9 3c be d7 ce 3b 4a a5 01 3d 72 98 0d bc
       0.028556816 0.0063123396 0.031651773 -0.008642303
0003e0 98 8c 52 3b 51 be 17 bc 94 85 61 3c 7b 55 8a 3b
       0.0032127257 -0.009261684 0.013764758 0.004221616
0003f0 26 d2 2e 3c e8 b7 94 3b 98 f7 2d 3c b9 79 80 bc
       0.0106702205 0.004538525 0.010618113 -0.015683042

action_model._continuous_distribution.mu.bias f4 [2]
000000 75 43 81 3c 03 56 be bc
       0.015779236 -0.023234373

action_model._discrete_distribution.branches.0.weight f4 [1, 128]
000000 20 80 41 3b e3 68 c8 39 d4 7b 2a 3c 49 0d af 3a
       0.0029525831 0.0003822512 0.0104054995 0.00133554
000010 88 2f ab bb 91 1b 8e bc 84 a6 23 bb 18 8c b7 bb
       -0.005224172 -0.017347129 -0.0024971077 -0.0056014173
000020 12 16 3d ba ba 7d 7b bc 97 46 a1 ba 4a ce ce ba
       -0.00072130666 -0.0153498 -0.0012304363 -0.0015778032
000030 94 00 c1 bb 37 d7 e1 3b 30 e5 07 bc bd 3f 05 3c
       -0.0058899615 0.0068921107 -0.008294389 0.008132872
000040 48 70 38 3c 16 22 a4 3b 99 eb 97 bc 7f 26 6d ba
       0.011257239 0.005008946 -0.018544959 -0.0009046569
000050 df 6b 90 3b 4b a3 14 bc de 21 94 3b 2b dd 4d bb
       0.0044073905 -0.009072135 0.004520639 -0.0031412344
000060 a1 2e 42 bb d0 8d 1e 3c 8d 61 c5 bb 1f d4 22 3c
       -0.0029629844 0.009677365 -0.006023592 0.009938269
000070 d5 a0 e6 ba 4b de 0d 3c cb c8 3e 3c a3 7b 7b 3b
       -0.0017595539 0.008658956 0.011644552 0.0038373254
000080 d3 8c 05 3a 9b 5e d3 b9 7f 33 a6 39 fe 9a b7 3c
       0.0005094532 -0.00040315543 0.00031700355 0.022412773
000090 d9 b4 b4 3a 9c f4 1a bc 20 c8 f8 3b 17 a0 04 3c
       0.0013786807 -0.0094577335 0.007592216 0.008094809
0000a0 9b a1 22 3b ba 4e f0 3c 07 08 67 3c 3a 5f 62 bc
       0.0024815563 0.029334415 0.014101035 -0.013816649
0000b0 61 c1 87 bc a0 70 d2 3b 22 f2 24 3b a2 05 6c bc
       -0.016571702 0.0064221174 0.0025168736 -0.01440564
0000c0 93 7d c3 3b 4d 04 f5 3b bb 3e c7 b9 ff 95 3f 3c
       0.0059658973 0.0074773193 -0.00038002976 0.011693477
0000d0 9e 74 48 bb d6 6b c2 3b 72 f7 0c 3b c3 02 fb 3b
       -0.0030587087 0.005933265 0.0021509794 0.0076602413
0000e0 d3 29 2f 3c bf ab dc bb 80 58 8a 3b d6 f0 a0 3b
       0.010691124 -0.006734341 0.004221976 0.0049115224
0000f0 2b 25 0f bc 6f 13 8a 3a dd 86 82 bc ae 16 2c bc
       -0.008736889 0.0010534356 -0.015933448 -0.010503454
000100 b5 f0 66 bc 1b f2 16 3b 1a a5 19 3c ee 0f 00 3c
       -0.014095475 0.002303249 0.009377742 0.007816298
000110 f3 9f fa bb 32 76 f6 bb e7 ca 44 3b bd cd 7f 3c
       -0.007648462 -0.007521414 0.0030028166 0.015613017
000120 b0 4f f2 3b ee b1 9c 3c f5 16 4c 3c d6 56 94 bb
       0.0073947534 0.019127812 0.012456645 -0.004526953
000130 20 91 c9 3b a7 69 e8 bb cd 9c 30 bb 0c 41 27 bb
       0.0061513335 -0.007092673 -0.002694893 -0.0025520949
000140 b6 8c 85 bc 82 95 97 bb 4f fd 15 3c 43 cb 47 3b
       -0.016302448 -0.004625977 0.009154632 0.0030486144
000150 02 9a c1 bb bb 1d ab 3a 9f 91 6a bc 37 a7 81 bc
       -0.0059082517 0.0013055125 -0.014316945 -0.015826805
000160 43 72 cb ba 23 15 b0 38 26 cc 08 3b a8 f8 19 3c
       -0.0015521724 8.396271e-05 0.0020873635 0.009397663
000170 22 06 a4 3b 18 f1 52 bb 10 87 d4 bc f3 76 4d 3b
       0.005005614 -0.003218716 -0.02594331 0.0031351417
000180 bd 09 24 3c 78 0f 45 3c b9 fd 31 bb f3 f2 7b 3c
       0.010012087 0.012027614 -0.0027159287 0.015377748
000190 db c7 4b 3b 10 75 be bb f9 a9 98 3b d0 4e 24 ba
       0.0031094465 -0.005812295 0.004658934 -0.00062678475
0001a0 1e 1f b1 3b 23 7b 5c bc 9e b6 9d 3b cd 7f 55 3b
       0.005405321 -0.013457092 0.0048130294 0.0032577396
0001b0 ba 63 aa 3c 0b 67 6a 3c 0c b2 94 bb 06 03 82 ba
       0.020799506 0.014306794 -0.0045378264 -0.0009919114
0001c0 3f d1 23 bc c8 ef d3 3a 03 43 b1 3b e9 a9 c0 bb
       -0.009998619 0.0016169483 0.0054095997 -0.00587963
0001d0 63 e9 0c bb 61 e2 b2 bb d3 53 2a 39 87 eb 30 bb
       -0.0021501414 -0.0054591154 0.0001624369 -0.0026995854
0001e0 67 16 17 bc ee ce 42 3c 42 03 15 3c 7f 1a d7 3b
       -0.00922165 0.011890156 0.009095015 0.006564438
0001f0 0b 12 09 bc 1f 86 1f bc ad d9 a7 ba f7 35 46 bc
       -0.008366118 -0.009736567 -0.0012805961 -0.012097827
