Assets/Result/PlayerAgent_BehaviorCloning_minus031/PlayerAgent_0/PlayerAgent_0-5632.onnx (onnx, 78861 bytes, 7 tensors)

network_body._body_endoder.seq_layers.0.weight f4 [128, 8]
00000000: e29b 4d3e a0c9 603d 48b3 e5be df68 2a3e
00000010: 0e80 103e 4da7 8dbe 9adf 9bbe 2c8f c63e
00000020: d20d cbbd c36d 18be 7ff1 3a3e a65f ab3e
00000030: 229a 083f 8445 453d 229a 353d 42f7 ad3e
00000040: a7f0 84be a867 f4be 459b 443c ff02 6b3d
00000050: ff5f b4bd 0502 2ebe ff25 f43e bcd8 5b3e
00000060: e91d 023e d27e 1ebf 0cfc d03d 1730 e9bd
00000070: a176 4abd 6fce f73e b551 963e d9bb a73e
00000080: 2388 bf3d c831 0bbd bafd d3be 6608 f33e
00000090: 52cc 0cbf 9d74 f9bb a8ed 653e 5a82 0fbf
000000a0: 8850 5bb9 56e9 d83d 9bee b8ba bccb 49bd
000000b0: f0a2 e13e 6d0e ffbe baee 20be 9fd3 c5be
000000c0: fc71 893e 1a16 55bd 56e1 643d 9dc4 da3e
000000d0: 6e23 93be aecc 14be b6ff 6e3e c2b2 eabe
000000e0: e9ed 903e 2311 803e aef4 1abe 94e2 463e
000000f0: 00c4 ccbe 1a79 09be cd18 593e db97 5a3f
00000100: 271e f53e 154a 123f b039 d7bc 6f6f 3ebe
00000110: 9bd8 403e 90d4 3b3f b1e3 ff3e ad6c 89bc
00000120: 49fd e7be c36e 4a3f b1d3 0f3f 2c79 6d3e
00000130: c99f d23c 72da 5b3e 4224 d2bd 07a0 3dbe
00000140: 2b5e a0be 4c96 fd3e 6dc7 1d3f 7139 c5bd
00000150: cb74 a63e 9616 463e ca67 b63e 8afc 423e
00000160: 74db bf3e cb01 7b3d 57c6 cf3e 1543 3d3f
00000170: 5ecd acbd a25d 99be ffe3 29be bac1 173c
00000180: e4b4 723e 32df c93e 4b77 203e 1588 31bd
00000190: a619 9d3e 2359 f83d 7625 81be d878 943e
000001a0: 4534 1e3e dbb2 febe 7743 07bd ac2d 6f3e
000001b0: c0b1 543d 64f1 883e 2b78 fe3d b939 873d
000001c0: b389 86bf 38c4 a53e 27f2 ccbd d261 023f
000001d0: d103 c43e d7e8 083f b9fa 12be 2294 e1bd
000001e0: 8eea 253d 9086 ffbe 2fbb 233f 3446 c9be
000001f0: e7aa 0bbd 1273 c73d a432 09bf 9d37 213e
00000200: 6afa a13e 9d2d dbbe 5f4f 3fbf 3c32 b2be
00000210: faa9 b5be e4e7 d93e 7736 2bbe bb7a 313d
00000220: 9307 163f 34e2 afbe 80ba 023f 6101 b6be
00000230: 8bbb 18bf 5ecb 3d3d 17eb 61be 73b5 813d
00000240: 2013 b13e 2863 813e 8e01 26be a764 f3be
00000250: 06cd 8b3e 95ac 3fbe dba7 943e 057b 31bf
00000260: f5a8 a6be 56a6 7bbe 0309 24be 85a5 553e
00000270: bc16 e23e 65d4 453b c0af 1bbf 9420 be3e
00000280: 79cd 12bd 6149 f0bd 7db7 6f3d 63bd 81be
00000290: ee9c 37bf 0853 d33e 8464 99be 0e86 7abe
000002a0: cc9e 43bd 1faa d03d 7ca3 c9be e332 403e
000002b0: 94e7 15be e3f6 4f3d 8890 8abf 2b0a 48be
000002c0: 48fe c53c e35a d53d 805e e5be 364a 93be
000002d0: 5862 97be 176a e73d 33bb 5c3d 4b43 c43e
000002e0: 879a 8dbd 1651 81be 103f 503e 7699 6abe
000002f0: 54e6 f13d 1f79 f63d cc03 8fbd b084 bd3e
00000300: 7ca6 39be 404a a7be f036 a43d 75d0 4c3e
00000310: c2fa f83e e364 69be 0872 b1bc 527f c1bd
00000320: a086 873e fdff 19bf 8432 e7bd 6a44 9ebe
00000330: f201 643d d901 d23e b33e cabd a917 913d
00000340: 1446 93bd 54c4 f2be 46d4 303f df0b c9be
00000350: 26ea ba3d 2413 87be 18b1 0f3f 4b2c 573e
00000360: 707d 803e 9d97 5abe 7564 b33c 2917 453d
00000370: d016 813d f41a 14bd 61b1 3d3e 86e1 f63d
00000380: d825 303d 56c1 8f3e a57e e0bd 5350 843e
00000390: 9cbf 193f b73f ecbe ea96 063e 016c a5be
000003a0: 6f57 163e eadc 253e 358f 3b3e 4881 e23d
000003b0: aee7 6abe b836 bcbe 2b65 4e3e 3ac2 28bd
000003c0: fce6 ecbd d72a 02be d377 78bd f1f4 69be
000003d0: 2256 38bf 8166 663f bec3 173e f66a 03bf
000003e0: 7492 ac3e d9b9 1abf b29c 193e 3095 ebbd
000003f0: d20e 0c3d cddd 973e 242e 883e 6506 e9be
0.20078996 0.054879785 -0.44863343 0.16641568 0.14111349 -0.27666703 -0.30444032 0.38781106
-0.099147454 -0.14885621 0.18256186 0.3347141 0.5336019 0.048162 0.044336446 0.33977705
-0.25964853 -0.47735333 0.01199991 0.057375904 -0.08807372 -0.16992958 0.4768524 0.21469396
0.12706722 -0.6191226 0.10204324 -0.113861255 -0.04942954 0.48399684 0.29359213 0.32760504
0.09352138 -0.033983022 -0.41404516 0.47467345 -0.5499927 -0.0076127783 0.2245394 -0.56058276
-0.00020915468 0.1059138 -0.0014109196 -0.049266562 0.44069624 -0.49815693 -0.15716067 -0.38638017
0.26844776 -0.05202303 0.05587896 0.4272813 -0.28737968 -0.14531204 0.23339733 -0.45839506
0.2830651 0.25013074 -0.151324 0.1942237 -0.39993286 -0.13425103 0.21200867 0.85387963
0.47874567 0.5714429 -0.026272625 -0.18597196 0.18832628 0.7337122 0.49978402 -0.016775453
-0.4531043 0.7907526 0.5618239 0.23190755 0.025710957 0.21470049 -0.10260822 -0.18518077
-0.31321844 0.4952873 0.61632425 -0.09630097 0.3251098 0.19344553 0.3562606 0.19041649
0.37472117 0.061281007 0.4058101 0.73930484 -0.08437608 -0.2995425 -0.1659088 0.009262497
0.23701817 0.39428097 0.15670507 -0.04334267 0.3068363 0.121263765 -0.25223893 0.28998446
0.15449627 -0.4974583 -0.033023324 0.23357266 0.051927328 0.26746666 0.12425264 0.066028066
-1.0510772 0.32376266 -0.100071244 0.5093051 0.38284162 0.53480285 -0.14353456 -0.11014582
0.040506892 -0.4990735 0.63957494 -0.39311373 -0.034098532 0.09738745 -0.53592896 0.15743871
0.31636363 -0.42808238 -0.74730486 -0.3480395 -0.35481244 0.4255973 -0.16719995 0.043329936
0.5860531 -0.34352267 0.51065826 -0.35547927 -0.5966117 0.046336524 -0.22062336 0.06333437
0.34584904 0.25270963 -0.1621153 -0.4753773 0.27304858 -0.18718179 0.29034314 -0.6932834
-0.3255078 -0.24575171 -0.16019063 0.20863922 0.4415797 0.0030186411 -0.6081505 0.3713423
-0.035840485 -0.11732746 0.058524597 -0.25339803 -0.7172383 0.41274285 -0.299595 -0.244652
-0.047758862 0.10188698 -0.3938254 0.18769412 -0.14639121 0.05077256 -1.0825357 -0.19535129
0.024169102 0.10417726 -0.4479866 -0.28767556 -0.29567218 0.11299532 0.053889465 0.3833259
-0.069142394 -0.25257176 0.20336556 -0.22910103 0.1181151 0.12034821 -0.06983146 0.37015295
-0.18129915 -0.32673836 0.08018291 0.20001395 0.48628813 -0.22792391 -0.02166082 -0.094481125
0.26469898 -0.6015623 -0.11288932 -0.3091157 0.055665918 0.41017035 -0.0987524 0.07084591
-0.07191101 -0.4741541 0.69073904 -0.3926687 0.091266915 -0.2638179 0.561296 0.2101299
0.250957 -0.21346898 0.021898488 0.04811779 0.06303179 -0.036158517 0.18524696 0.12054734
0.04300484 0.2807719 -0.109616555 0.25842533 0.60058 -0.4614236 0.13143507 -0.32308963
0.14681791 0.16197553 0.18316348 0.11059815 -0.22939941 -0.36760497 0.2015578 -0.041200854
-0.11567494 -0.12711655 -0.06066115 -0.22847344 -0.7200643 0.9000016 0.14820763 -0.51335084
0.33705485 -0.6043983 0.15001181 -0.11503065 0.03419382 0.29661408 0.26597703 -0.4551269

network_body._body_endoder.seq_layers.0.bias f4 [128]
00000000: 0000 0000 0000 0000 0000 0000 0000 0000
00000010: 0000 0000 0000 0000 0000 0000 0000 0000
00000020: 0000 0000 0000 0000 0000 0000 0000 0000
00000030: 0000 0000 0000 0000 0000 0000 0000 0000
00000040: 0000 0000 0000 0000 0000 0000 0000 0000
00000050: 0000 0000 0000 0000 0000 0000 0000 0000
00000060: 0000 0000 0000 0000 0000 0000 0000 0000
00000070: 0000 0000 0000 0000 0000 0000 0000 0000
00000080: 0000 0000 0000 0000 0000 0000 0000 0000
00000090: 0000 0000 0000 0000 0000 0000 0000 0000
000000a0: 0000 0000 0000 0000 0000 0000 0000 0000
000000b0: 0000 0000 0000 0000 0000 0000 0000 0000
000000c0: 0000 0000 0000 0000 0000 0000 0000 0000
000000d0: 0000 0000 0000 0000 0000 0000 0000 0000
000000e0: 0000 0000 0000 0000 0000 0000 0000 0000
000000f0: 0000 0000 0000 0000 0000 0000 0000 0000
00000100: 0000 0000 0000 0000 0000 0000 0000 0000
00000110: 0000 0000 0000 0000 0000 0000 0000 0000
00000120: 0000 0000 0000 0000 0000 0000 0000 0000
00000130: 0000 0000 0000 0000 0000 0000 0000 0000
00000140: 0000 0000 0000 0000 0000 0000 0000 0000
00000150: 0000 0000 0000 0000 0000 0000 0000 0000
00000160: 0000 0000 0000 0000 0000 0000 0000 0000
00000170: 0000 0000 0000 0000 0000 0000 0000 0000
00000180: 0000 0000 0000 0000 0000 0000 0000 0000
00000190: 0000 0000 0000 0000 0000 0000 0000 0000
000001a0: 0000 0000 0000 0000 0000 0000 0000 0000
000001b0: 0000 0000 0000 0000 0000 0000 0000 0000
000001c0: 0000 0000 0000 0000 0000 0000 0000 0000
000001d0: 0000 0000 0000 0000 0000 0000 0000 0000
000001e0: 0000 0000 0000 0000 0000 0000 0000 0000
000001f0: 0000 0000 0000 0000 0000 0000 0000 0000
0.0 0.0 0.0 0.0 0.0 0.0 0.0 0.0
0.0 0.0 0.0 0.0 0.0 0.0 0.0 0.0
0.0 0.0 0.0 0.0 0.0 0.0 0.0 0.0
0.0 0.0 0.0 0.0 0.0 0.0 0.0 0.0
0.0 0.0 0.0 0.0 0.0 0.0 0.0 0.0
0.0 0.0 0.0 0.0 0.0 0.0 0.0 0.0
0.0 0.0 0.0 0.0 0.0 0.0 0.0 0.0
0.0 0.0 0.0 0.0 0.0 0.0 0.0 0.0
0.0 0.0 0.0 0.0 0.0 0.0 0.0 0.0
0.0 0.0 0.0 0.0 0.0 0.0 0.0 0.0
0.0 0.0 0.0 0.0 0.0 0.0 0.0 0.0
0.0 0.0 0.0 0.0 0.0 0.0 0.0 0.0
0.0 0.0 0.0 0.0 0.0 0.0 0.0 0.0
0.0 0.0 0.0 0.0 0.0 0.0 0.0 0.0
0.0 0.0 0.0 0.0 0.0 0.0 0.0 0.0
0.0 0.0 0.0 0.0 0.0 0.0 0.0 0.0

network_body._body_endoder.seq_layers.2.weight f4 [128, 128]
00000000: defe 10be a31f 8d3d 6b40 103e 9f81 833d
00000010: 7081 de3d cbf8 813b accc 953d f7f9 a73d
00000020: 3bb3 9d3d dd3f 8b3d 19cb 48bd 6e99 d7bc
00000030: bfda f9bd 0710 d5bd fd5c c9bd dbb0 2d3e
00000040: 452b 913c 3b52 3d3d aa70 a5bb aead 3e3b
00000050: fda2 02bd bedf 953d f1ba af3b ccf0 08bd
00000060: c908 10bd 4a06 8abd 2ac3 d33d f5a9 f93d
00000070: c189 00bd 71ff c7bd a3a2 01bd 30f8 4abe
00000080: 672a 2bbe 2520 d83c 803b 04be 2dda d03c
00000090: 2ad1 97ba 46e3 b13d b565 83bd b787 99bd
000000a0: b757 493d 5bd5 263d 6a84 d03c 72a1 e13d
000000b0: ae47 54bd 2de1 743d ce1d 393d 1b86 e0bd
000000c0: dc3d 43bd 6295 0c3d c2e4 fa3b 90ed be3d
000000d0: 909a 99bd 0d41 3dbd 5b32 7bbd d295 e1bc
000000e0: e6e4 bc3c 47f3 5bbc 2b33 05be 2d0a 4fbd
000000f0: e53b 21be c1e0 f53d cdd7 61bd 9a7b 1f3e
00000100: 9dbc c13d 8750 603d 5e93 e4ba 88aa f93d
00000110: 132b 7fbd e8d0 cf3c 02ef 8c3c 16f4 a2bd
00000120: 642f 81be 876d 223d 2cc1 24bb 075a ff3c
00000130: 421e 21bd f90e ecbc a739 0e3e 90fe 27bd
00000140: 32b2 873d aaba 753d 06a1 abbd 8a45 49bb
00000150: 5a8d 873e 7968 7c3d 692e a73d 139d 513c
00000160: e48c c73c 4647 9bbd 74b7 9fbc 6905 28bd
00000170: 1036 fc3c b3b7 a0bb 27da cb3b 84e9 023c
00000180: 6034 3a3c a4d2 13bd 7f65 a13d 1b67 743d
00000190: 488f 1ebd b169 9fbd 4647 c8bd 3976 0dbc
000001a0: 4b18 323d cd23 4bbd ca63 fcbd 9f33 a33c
000001b0: 00f0 0bbe 6029 023e 94c8 c13c f96b 9cbc
000001c0: bacc c5bd b730 a83c e014 23be cc3d 9fbd
000001d0: b74f ecbd 927f 01bd 4569 2fbd 50ec 523d
000001e0: 5ce1 0ab9 0ccf eb3d 58b2 1f3e f47f a6bc
000001f0: f1eb 22bc bc4d 30be f4ef 353e a063 323d
00000200: e646 863d 156a a7bd 5477 47be a5e8 aebc
00000210: ecb9 ff3d 5c37 d23c 7a07 893d 278a 7b3d
00000220: 5e4e 74bd bd10 32bd 7d2b 3ebe b718 eb3d
00000230: eb01 f53d c08c d53d d9a7 c33c af1e e1bd
00000240: 4da7 bf3c 53dc 9cbd f59a 75bb f4dd 2abd
00000250: 6e02 e33d 3864 ef3d 1a1b 6d3d 22bf 703d
00000260: 4b45 513c 5924 66bc 4e06 a9bd 90d7 33be
00000270: 4af0 173c 5209 293e 563c 1abe a03b eb3d
00000280: cc83 a33b 9467 4a3d cf56 d2ba 46a9 ad3d
00000290: 22d5 7cbc 1afb 043e 09fa 093e 53e4 c8bd
000002a0: 9dc3 82bd f096 b5bd 65da db3d 7bd3 83bd
000002b0: b6ed 66bd 8209 023d aadb a1bc 6f28 b93d
000002c0: d225 55bd bc84 fdbd 9675 09be f1ce 4e3c
000002d0: 608c 163d 5209 213d 6457 f53c 5f5b e43d
000002e0: 4120 173d 5117 ca3a 63b7 d83c 0974 fe3c
000002f0: 3d13 42be a82c 053e 2307 a93d 2a5a 2fbd
00000300: 880d 9dbd e5b6 76bc 09f5 dcbd 9188 d03d
00000310: d676 863d 86cb 243d f0b7 73bc 7179 84bd
00000320: 0ecb a23c 3648 e73d 1f52 70bd 0554 3bbe
00000330: 0af9 723d d402 72bc b850 fc3c 0698 2dbd
00000340: ad02 9ebd 6039 44bc b30f 0e3e 3ed7 31bd
00000350: 29cb 4fbd a9b2 9cbe 8897 f03d fae1 54bd
00000360: 1796 bdbd b4c1 7bbc b2c6 a13b 3e9f 5e3e
00000370: c04f 7dbe 2865 1c3d 2f11 d9bc 57a6 10bc
00000380: 763d dbbb 765e 3dbd 9b18 89bc eba5 10be
00000390: 4d40 b4bd 2101 1b3c 97ef cf3b f944 d53b
000003a0: ca6d f73d a2b0 9dbc 1477 28be aac2 cc3d
000003b0: ea96 c2bd 80b5 e4bd 3464 a33d 87ea 87bd
000003c0: 00b9 edbd bbae a3bd 79f6 413d 3465 17ba
000003d0: 1ef9 5d3d 9335 29bd 4bc9 cbbd 7663 043e
000003e0: 35f9 0fbe b583 81bc 760a debc c8c7 403e
000003f0: 79ed a03d f38c 31bd a94e 9ebc ea0b 843d
-0.14159724 0.068908 0.14087074 0.06421208 0.10864532 0.003966426 0.07314429 0.08201974
0.07700201 0.0679929 -0.049021814 -0.026318278 -0.12199926 -0.104034476 -0.09832189 0.16961996
0.017720828 0.046221 -0.005048831 0.002909522 -0.03189372 0.07318066 0.0053628613 -0.033432767
-0.03516463 -0.06739481 0.10339959 0.1219062 -0.031381372 -0.097655185 -0.031649243 -0.19821239
-0.16715394 0.026382515 -0.12913322 0.02549466 -0.0011582721 0.08685927 -0.064158835 -0.07496589
0.049155917 0.040730815 0.025453765 0.110171214 -0.05182617 0.059785057 0.04519444 -0.109630786
-0.047666416 0.03432215 0.0076566646 0.09322655 -0.075001836 -0.046204615 -0.06132732 -0.02753726
0.023058366 -0.013424701 -0.130078 -0.050546814 -0.15745504 0.12005759 -0.055137444 0.15574494
0.09459803 0.054764297 -0.0017438938 0.121907294 -0.06229694 0.025368169 0.017203812 -0.07956712
-0.2523147 0.039655235 -0.0025139553 0.031170858 -0.039335497 -0.028815733 0.1388918 -0.041014254
0.06625785 0.05999247 -0.08380322 -0.0030711615 0.2647503 0.06162307 0.08163149 0.012793797
0.024359174 -0.07581954 -0.019496657 -0.041020785 0.030787498 -0.004904711 0.006221074 0.007990245
0.011365026 -0.036089554 0.07880687 0.05966864 -0.038710862 -0.07783831 -0.09779219 -0.0086341435
0.0434802 -0.04959469 -0.12323721 0.019922076 -0.13665771 0.12711096 0.023655213 -0.019094454
-0.09658189 0.020531042 -0.15925932 -0.07775459 -0.11538642 -0.0316158 -0.042825002 0.051494896
-0.00013244658 0.115141004 0.15595376 -0.020324685 -0.009943948 -0.17217153 0.17767316 0.04355204
0.065564916 -0.081745304 -0.19479114 -0.021351168 0.12486634 0.025661163 0.06690879 0.06141105
-0.05964505 -0.043472994 -0.18571277 0.11479323 0.119632564 0.104272366 0.023883747 -0.109921806
0.023395205 -0.07659211 -0.0037476395 -0.041715577 0.11084448 0.11689037 0.057887174 0.05877603
0.012772868 -0.014046752 -0.08253156 -0.175627 0.009273598 0.16507462 -0.15062079 0.11485982
0.0049900766 0.049415186 -0.00160476 0.08479552 -0.015431674 0.12986413 0.13474287 -0.098091744
-0.063849665 -0.0886668 0.10735015 -0.06436821 -0.056379043 0.03174735 -0.019758064 0.09040915
-0.05203802 -0.12378833 -0.13423762 0.012622581 0.036754966 0.03931553 0.029948898 0.1115024
0.036895994 0.0015418326 0.026454633 0.03106119 -0.18952651 0.13005316 0.08253314 -0.042810597
-0.076685965 -0.015058254 -0.10788924 0.10182298 0.06565635 0.040233158 -0.014875397 -0.064684756
0.019872215 0.1129307 -0.058672067 -0.1829377 0.059319533 -0.014771182 0.030800208 -0.04238131
-0.07715354 -0.01197657 0.13873176 -0.04341816 -0.050730858 -0.30605057 0.11747652 -0.05197332
-0.09257143 -0.015366007 0.0049370164 0.21740434 -0.24737453 0.038182408 -0.026497452 -0.008828721
-0.0066906763 -0.046232663 -0.016735366 -0.14125793 -0.08801327 0.009460718 0.0063457 0.0065084663
0.120814875 -0.019249264 -0.16451675 0.09998067 -0.09501441 -0.11167431 0.079780966 -0.066365294
-0.116075516 -0.079923116 0.047354195 -0.00057752733 0.054192655 -0.041310858 -0.09950503 0.12928566
-0.14059909 -0.015809873 -0.027104598 0.1882621 0.07857794 -0.04334731 -0.019324617 0.06447585

action_model._continuous_distribution.log_sigma f4 [1, 2]
00000000: 0000 0000 0000 0000
0.0 0.0

action_model._continuous_distribution.mu.weight f4 [2, 128]
00000000: f858 fdbc f3a0 fd3b 0fb1 093d abbc 8fba
00000010: a30b 5fbc bb24 5a3c 6ded 853c f06e debc
00000020: 9b57 943b e187 b2bc a76d 4ebc 8db1 25bc
00000030: 565d 903c e784 3cbc 8681 82bb 9bb3 653c
00000040: 6617 853b 3b67 093c 9c78 b43c e86a 753c
00000050: 2a42 093b 427f 91bc 464e 903c 04c4 ca3c
00000060: dbac a53c 898f 0bbc b312 0c3c 436d cfbb
00000070: af5d f93a abc8 1e3d 5931 49bc 8d41 4fbc
00000080: 5b2c 543c 388e de3b 069e a43c 0fc9 45ba
00000090: 7797 be3c 07dd 49bb bf33 443c 2c2c b43c
000000a0: 6372 c83b 6327 b63c f798 59bc 0227 b03c
000000b0: ca76 e6bb e7a2 d7bc d3d1 e2bb cdfb 3cbc
000000c0: 4a3e 9ebb 150f 383c 104a 5fbc aa6d 47bc
000000d0: ef94 193d 5126 a93c 8497 aabb fd3a 31bd
000000e0: 23e6 b23b 32c8 d93c 7328 05bc c75d 85bc
000000f0: cf25 183c c3b9 d5bb e991 893b eae1 76bb
00000100: 6bbf 11bd 1e9c a13b e436 bcbc 7bf2 263c
00000110: d0f3 c138 fb76 65bc 730f e4bc 4b35 a33b
00000120: ddca 003c ca3e 183d f22e 65bc c8fa 733c
00000130: 06dd 22bb d6c6 a93c 7999 8538 4257 54bc
00000140: 15ba 5bbc 9cb8 813c bbe0 51bc 07c3 ef3c
00000150: ad4d 653b fe37 cc3b 2ad9 d13c 0ab8 91bc
00000160: ba13 d0ba 4711 8fbc 6894 553c b8cc dfbc
00000170: 84a6 8abb 774c 76bc c0c4 de3c edc8 a33c
00000180: db27 ffbb 3f6f ce3c 2b09 cebb 5d54 af3a
00000190: f46f 1db9 809f 10bc c1ac 02bc c4b7 89bc
000001a0: 65ec 63bc bfaa d23b 8b7e 5ebc f398 75bc
000001b0: 02dc 92b9 17ff 5c3c d95a 0b3c e88d 04bc
000001c0: 001e a2bc 5f70 ba3a 3f56 b13b 2556 b0bb
000001d0: 629c cd3b 134b 833b 008e e33c 6051 553a
000001e0: 4a2a 53bc add7 4039 b642 20bc ccb8 0abc
000001f0: fd29 1c3c afe0 763a ca38 87bc 3896 debb
00000200: a803 80bc 80ec 46ba b70c 5f3b 5018 8a3b
00000210: c072 e1bc 3f3e b63c f618 2dbc f34a 8a3c
00000220: 1e42 08bc ac7a a33c 1adf 533c 675b 00bd
00000230: 196c b03c e74b 1b3c 1acd a1bc 1b44 d53c
00000240: 42cd cd3c 7ff5 963b c7b8 91bb 921c b6bc
00000250: fdb5 963a 5862 8bbc 1d22 d8bc b219 1a3c
00000260: ad48 16bc 9ffd de3c 88f9 8a3c 8f16 07bd
00000270: 6e4c 2c3c a0f4 7b3c 9d75 313c 6401 3dbb
00000280: 6d9c 543c c1fb 86ba f5ca dd3a c7c6 a23a
00000290: d9e3 293c a073 01bc 6e36 21bd 55a8 d6bb
000002a0: 8122 953c 1967 12bd cf19 183d 63c7 2c3d
000002b0: 3eaf 3d3b 4d6d 303c 20fb 93bb 27f6 953b
000002c0: fc19 9dbb 904b dc3b 4b1c e13c 5335 9fbc
000002d0: 74ff 22bc f12d aebb 03a8 24bc 98ad 6ebc
000002e0: 18a9 e73b 5fb1 203d bafe acbc 0315 ea3c
000002f0: eb53 4c3c 7739 9fbc 9ad4 ec3c 7f66 98bc
00000300: 5000 53bc 9784 073a 8784 973c d3d3 673c
00000310: f0dc 1e3b c228 fb3c 64eb 1abc 4b35 f0bc
00000320: d382 b4bc 7d8d aabc 6280 69bc 8540 a13b
00000330: f022 6abc 8377 033c 1e32 363c fd7c 53bb
00000340: 0f09 a03c 86e1 87bc 4bc3 84bc 7db5 82bc
00000350: 5432 843c 738f e33c efcd 06bd d3b2 9a3c
00000360: 967f 483c e0a9 55bb 2368 b8bc d2ed 6f3c
00000370: e005 e2bb 4189 873b f54d a8bc 0a30 d1b8
00000380: 8dcb adbc 0efb 9a3c 50d5 8dbc 2f35 9dbb
00000390: ebbc 1f3c 8fae 083c ad7e 0fbc 5253 08bb
000003a0: 6dfd d33c f44c 813b eca0 c23c 5b2f 54bb
000003b0: 1aa7 4cbc df26 45bb 39a6 463a 37bb 2039
000003c0: a05c 9d3b c857 f8bb 0fe6 6e3b 20cc c2bc
000003d0: 4575 ebbc 41c0 963a 352c 66ba e1eb 38bc
000003e0: 0ba7 b3bc 7463 a63c 7d86 d1bc 6d67 f53b
000003f0: cf24 093c 2ddf ea3c 4f71 f43b 0072 653c
-0.030926213 0.007740134 0.03361612 -0.0010966262 -0.013613614 0.013314421 0.016348565 -0.027152508
0.004527045 -0.021793308 -0.012599385 -0.010113132 0.017622631 -0.011506296 -0.0039827256 0.014019872
0.004061627 0.0083864285 0.022030167 0.014979102 0.0020943978 -0.017760877 0.017615449 0.02475167
0.020224025 -0.008518108 0.00854938 -0.0063301637 0.0019025112 0.03876559 -0.012279832 -0.012649906
0.012950028 0.006791856 0.020094883 -0.00075449137 0.023265583 -0.0030801909 0.011975228 0.021993719
0.0061171516 0.022235578 -0.013281099 0.021502975 -0.0070332037 -0.026322795 -0.0069219857 -0.011534643
-0.004829203 0.011234065 -0.013628498 -0.012172142 0.03749555 0.020648153 -0.0052060504 -0.043269146
0.0054595633 0.026584718 -0.00812732 -0.016280068 0.009286358 -0.0065223887 0.004198302 -0.0037671276
-0.03558294 0.0049319407 -0.022975393 0.010189648 9.248371e-05 -0.014005418 -0.027839398 0.0049807183
0.007860866 0.037169255 -0.013988243 0.014891334 -0.0024850979 0.020724695 6.370521e-05 -0.012960257
-0.013411065 0.015835099 -0.012809928 0.029267801 0.0034988925 0.0062322607 0.025616247 -0.017787952
-0.001587502 -0.017464293 0.013035871 -0.027319297 -0.004231276 -0.015032879 0.027193427 0.01999327
-0.0077867336 0.02519953 -0.006287714 0.0013376583 -0.00015014393 -0.00882709 -0.007975758 -0.01681126
-0.013911341 0.006429046 -0.013579975 -0.014990079 -0.0002801121 0.0134885525 0.0085055465 -0.008090474
-0.019789696 0.0014224163 0.0054118927 -0.005381363 0.006274746 0.0040067523 0.027777672 0.0008137431
-0.0128885005 0.00018390892 -0.00978153 -0.008466911 0.009531495 0.0009417636 -0.016506571 -0.00679281
-0.015626743 -0.0007588342 0.0034034678 0.004214324 -0.027520537 0.022246478 -0.010565033 0.016881442
-0.008316545 0.019955955 0.0129316095 -0.031337168 0.02153592 0.009478546 -0.01975112 0.026033452
0.025122289 0.004606902 -0.004447076 -0.02223042 0.0011498329 -0.017014667 -0.026383454 0.00940554
-0.009172601 0.027220545 0.016964689 -0.032980498 0.010516269 0.015378147 0.010831264 -0.002883994
0.012976748 -0.0010298417 0.0016921448 0.0012418859 0.0103692645 -0.007901102 -0.03935855 -0.0065508285
0.01820493 -0.035742853 0.037133988 0.042182337 0.0028943564 0.010768247 -0.0045160204 0.004576463
-0.0047943573 0.006722875 0.027479311 -0.019434607 -0.0099486 -0.0053155352 -0.010049823 -0.014567755
0.007069718 0.039231654 -0.021117557 0.028574472 0.0124711795 -0.019436581 0.02890997 -0.018603561
-0.0128784925 0.0005169599 0.018495811 0.014149624 0.0024240576 0.030659083 -0.009455536 -0.029322287
-0.022035038 -0.02081942 -0.0142518 0.0049210214 -0.014290556 0.008024099 0.011120347 -0.0032270544
0.01953557 -0.01658703 -0.016206404 -0.015955681 0.01613728 0.027778363 -0.032911237 0.018884098
0.01223745 -0.0032602474 -0.022510594 0.014644103 -0.006897673 0.004136235 -0.020544985 -9.9748446e-05
-0.021215225 0.01891854 -0.01731363 -0.0047975997 0.009749631 0.008342399 -0.008758229 -0.0020801616
0.025877679 0.003945941 0.023758374 -0.003237686 -0.012491012 -0.0030082983 0.00075778697 0.00015328532
0.0048023015 -0.0075788237 0.0036453044 -0.023778975 -0.028742442 0.0011501388 -0.0008780391 -0.011286707
-0.021930238 0.020311095 -0.025576824 0.007489136 0.008370592 0.028670872 0.0074597965 0.0140042305

action_model._continuous_distribution.mu.bias f4 [2]
00000000: 0000 0000 0000 0000
0.0 0.0

action_model._discrete_distribution.branches.0.weight f4 [1, 128]
00000000: 375b 8dba c003 41bc 3f35 7bbb 79c7 bfbb
00000010: a4ac 3f3c bab1 283c 0ce7 cb3a 03bc 73bb
00000020: be73 0b3c 01d6 063a 69ff 3b3c d0e9 8f3c
00000030: 73c6 ee3a 4ac6 6fbb db02 ac3a 6205 86bb
00000040: af0b e5bb 3305 d1bb 3875 d6b9 6dfc fbba
00000050: 4d3e 7d3c e1e9 13bc 5eb1 2dbc 5928 0ebc
00000060: 4177 b4bb 8b87 b2bb 0dec 43bc 22aa bf3b
00000070: 8b04 17ba af62 0abc 6365 4c3b 3f77 303c
00000080: b07c d93b 5024 953b 2bce 8239 fd32 933c
00000090: 8ad5 a33b 6bdf 53bc fd1b 8b3c 3904 a73c
000000a0: 24c7 02bc 2731 b73a 2b26 933b 3907 a5bb
000000b0: abfd 12ba df88 89bb 1b9c aabb 2fc2 d13b
000000c0: bd57 efbb ba37 983c 8f25 1dbb eff3 b6bb
000000d0: df1c dbbb b21f a73b d7bf 8e3c dd0b 72bc
000000e0: 1b74 8cbc a568 86bc f879 b43b 6218 a4bb
000000f0: 965a 263c 6378 7d3b c702 23bc 2a00 693c
00000100: c207 4abb da3a 2e3c 6bca 05bb 044e c4bc
00000110: 3a49 d63a d3aa 223a 173f 243c 75cd 543b
00000120: 59e9 223c 8cf7 2cbc c78f 1a3c f07b 99bb
00000130: 250f 1b3c 6d78 e1ba a9d6 8dbb 5e5d 84bb
00000140: bc07 c9ba 3ba1 cb39 2b5e 57bc d582 c53a
00000150: 7930 a4bb c0b2 c8ba 6728 743c ad1e 5f3c
00000160: 736b 13bc c508 ae3a 1df7 bdbc 8e87 053c
00000170: 880f afba 9d8e 7d3b db6c a7bc e6df 403b
00000180: 1a9a 343c 30c2 d9bb 437f 513b 5d40 c139
00000190: eb93 c6bb 4723 583c cbcf 8c3a d690 283c
000001a0: 8391 4bbc 635b 963c b711 04ba a76a 253c
000001b0: fb05 0c3b d091 b73b 7e38 923a d031 2a3c
000001c0: 7321 3fbc 627c 95bb 3dfc d8b9 102b 903c
000001d0: 4771 953a 3583 b8bc 7534 043c d7f7 66bc
000001e0: 574e 1b3b 82ba 7fbb 6bcf f3bb 3ea5 253c
000001f0: a372 09bc 461d 9bba 5292 bdba ca8f ffbb
-0.001078463 -0.011780679 -0.0038331298 -0.0058526364 0.011698876 0.01029628 0.0015556528 -0.003719092
0.008511482 0.00051435834 0.011474469 0.017567545 0.0018217101 -0.0036586695 0.001312341 -0.004089997
-0.006989918 -0.0063787936 -0.00040904596 -0.0019225009 0.015456748 -0.009027929 -0.01060137 -0.008676612
-0.0055073802 -0.005448287 -0.011958134 0.005849139 -0.000576087 -0.00844638 0.003118836 0.010770618
0.0066371784 0.004551448 0.0002494914 0.017968649 0.004999821 -0.012931685 0.01698112 0.020387756
-0.007982049 0.001397644 0.004490634 -0.0050362614 -0.00056072575 -0.0041972245 -0.0052065975 0.0064013223
-0.0073041604 0.01858126 -0.0023978685 -0.0055832784 -0.0066867913 0.005100214 0.01742546 -0.014773336
-0.017145207 -0.01640732 0.005507704 -0.0050077895 0.010153433 0.0038676492 -0.009949393 0.0142212305
-0.0030827378 0.0106341485 -0.002041484 -0.023962982 0.0016348728 0.00062052644 0.010024807 0.0032471095
0.00994333 -0.010557067 0.009433693 -0.004683964 0.00946406 -0.0017202027 -0.004328568 -0.0040394505
-0.0015337388 0.00038839303 -0.01314501 0.0015068898 -0.005010661 -0.0015312061 0.014902211 0.0136181535
-0.008997786 0.001327776 -0.023189122 0.008149995 -0.0013356069 0.003868974 -0.020437649 0.002943033
0.011023069 -0.0066454634 0.0031966723 0.00036859783 -0.0060601137 0.0131920045 0.001074308 0.010288438
-0.012424829 0.018354123 -0.000503804 0.010096229 0.002136587 0.005602099 0.0011155752 0.010387853
-0.01166569 -0.0045619467 -0.00041386663 0.017598659 0.0011401557 -0.022523502 0.008069147 -0.014097176
0.0023697817 -0.003902108 -0.0074404976 0.010110198 -0.008389148 -0.0011834286 -0.0014463163 -0.0077991234
