Assets/Result/PlayerAgent_BehaviorCloning/PlayerAgent_0/PlayerAgent_0-5392.onnx (onnx, 78861 bytes, 7 tensors)

network_body._body_endoder.seq_layers.0.weight f4 [128, 8]
0	0x3d125c92	0.035732813
1	0x3e81f588	0.25382638
2	0x3f1006bd	0.5626028
3	0xbd401347	-0.046893384
4	0x3cda5a0b	0.026654264
5	0x3ed99dde	0.42503256
6	0x3ea241d3	0.31690845
7	0xbd720489	-0.059086356
8	0x3d7b0ebf	0.06129336
9	0xbeed831a	-0.46389085
10	0xbe4c763a	-0.19966975
11	0x3f2c1131	0.6721373
12	0x3d82a830	0.063797355
13	0xbd6e13cb	-0.058124345
14	0x3e8fe3fb	0.28103623
15	0x3f16c7a6	0.5889839
16	0xbeae76cb	-0.34075007
17	0x3e98bb7c	0.2983054
18	0x3f29b125	0.66285926
19	0x3f94a465	1.1612669
20	0x3cb8bf3a	0.022552121
21	0x3f650997	0.8946776
22	0x3f0902d3	0.53519934
23	0x3e01df77	0.12682901
24	0xbe02bf43	-0.12768273
25	0xbd084a3a	-0.033273913
26	0xbdb3b713	-0.08775153
27	0x3e8c4a5a	0.27400476
28	0x3eaa008a	0.33203536
29	0xbd881c23	-0.06645992
30	0x3e26dc90	0.16295075
31	0x3db06b37	0.086141996
32	0xbee0ebcc	-0.439299
33	0x3e561100	0.20904922
34	0xbe2698c4	-0.16269213
35	0x3c85d4ff	0.016336916
36	0xbe8c2591	-0.2737241
37	0xbd20945f	-0.039203998
38	0xbeaad3b0	-0.3336463
39	0xbe3537e1	-0.17697097
40	0x3d36c4ee	0.0446214
41	0xbe09cf9d	-0.13458104
42	0x3f5d291c	0.8639085
43	0xbc03e060	-0.008049101
44	0x3d9deada	0.0771081
45	0x3ec852bc	0.3912562
46	0xbd995c2a	-0.07488282
47	0x3e4e71eb	0.20160644
48	0xbec8a880	-0.39191055
49	0x3edce210	0.43141222
50	0x3e4b359a	0.19844666
51	0xbc93afbd	-0.018028134
52	0x3dda00a4	0.106446534
53	0x3d2860a2	0.04110778
54	0xbd6b8926	-0.05750384
55	0x3e07094e	0.13187143
56	0x3ceb0ffc	0.028694145
57	0xbd72fbab	-0.05932204
58	0xbcc80df3	-0.024420714
59	0xbc931c91	-0.017957957
60	0xbef984a8	-0.4873402
61	0xbed3d94f	-0.4137673
62	0x3e3ecfbe	0.18633935
63	0x3ee1399a	0.4398926
64	0xbe2cc9d9	-0.16873874
65	0x3dde97bc	0.10868785
66	0xbf07eb99	-0.5309387
67	0x3d376f66	0.044783972
68	0xbecdb1dc	-0.40174758
69	0xbe5ac340	-0.21363544
70	0x3d050f3a	0.032485224
71	0xbf05a096	-0.5219816
72	0x3e8ef7ae	0.2792334
73	0x3e9d32f6	0.30702943
74	0x3cd299bd	0.025708074
75	0x3f42d179	0.7610088
76	0xbdfd8c45	-0.1238027
77	0x3d22fd23	0.03979219
78	0x3d8bc29a	0.06824227
79	0x3e0ecb96	0.1394485
80	0xbf20b4ad	-0.6277569
81	0x3d091201	0.033464435
82	0xbe036136	-0.12830052
83	0x3e13cd44	0.14433771
84	0xbd58b934	-0.052911
85	0x3eac6fd5	0.3367907
86	0x3f171e94	0.59031034
87	0xbe54b785	-0.20773132
88	0x3ec93d9e	0.39304823
89	0x3d69a8d9	0.05704579
90	0xbe8972c2	-0.26845366
91	0xbd2a5279	-0.04158256
92	0xbce64c86	-0.028112661
93	0x3e18e474	0.14930898
94	0xbf004538	-0.5010562
95	0xbe226a27	-0.15860806
96	0x3eb258e7	0.34833452
97	0x3eec4421	0.46145728
98	0xbee6f5ea	-0.45109493
99	0xbf19e51c	-0.6011522
100	0x3cd2382f	0.025661556
101	0xbdd5c29d	-0.1043751
102	0xbe77ed56	-0.2421163
103	0x3f51144c	0.81671596
104	0xbe1c845b	-0.15284865
105	0x3ef885f1	0.4853969
106	0xbe22bc1c	-0.1589207
107	0x3f40b508	0.7527623
108	0xbe81aef0	-0.2532878
109	0xbeebce50	-0.4605584
110	0x3f00c4ff	0.5030059
111	0xbe47ea28	-0.19522917
112	0x3da50201	0.08057023
113	0x3f26e475	0.6519235
114	0xbd1751e4	-0.03694333
115	0x3f598766	0.84972227
116	0xbe7993c2	-0.24372771
117	0xbd336da8	-0.04380575
118	0x3e04740b	0.12934892
119	0xbf65e886	-0.8980793
120	0xbe5772c8	-0.2103988
121	0x3e6e8d1e	0.2329602
122	0x3d930804	0.07179263
123	0xbec45f9e	-0.383542
124	0x3e97f18f	0.29676482
125	0x3c5ae563	0.013360354
126	0xbf0849c2	-0.53237545
127	0x3f11e7c3	0.56994265
128	0x3ec0b625	0.37638965
129	0x3f0e89e6	0.55679166
130	0x3e236ffc	0.15960687
131	0xbde38724	-0.111097604
132	0x3e903e89	0.2817271
133	0x3e82b30a	0.2552722
134	0x3dd7354c	0.105082124
135	0x3b6fa728	0.0036568139
136	0xbe505ff5	-0.20349105
137	0xbea0f058	-0.31433368
138	0x3e6d0eb4	0.2315014
139	0x3f0245a8	0.50887537
140	0x3f0f2b40	0.5592537
141	0x3d7332d0	0.05937463
142	0x3ea6e5c7	0.3259718
143	0x3e5dff8c	0.21679515
144	0x3dfa9944	0.12236264
145	0xbf01927f	-0.5061416
146	0xbe800636	-0.2500474
147	0xbc09f9f0	-0.008421406
148	0x3e9b669a	0.30351716
149	0xbe5238b4	-0.20529443
150	0x3d0ed9b2	0.03487558
151	0x3cfed38e	0.031106737
152	0x3f26bdaf	0.65133184
153	0xbe9ad9e1	-0.30244353
154	0x3ede4ad2	0.43416458
155	0xbe9ead0a	-0.30991393
156	0x3b9eab49	0.004842196
157	0x3d5032ae	0.050829582
158	0xbc4b9a4c	-0.012426924
159	0x3f33023e	0.69925296
160	0x3e8dcf5d	0.27697268
161	0xbf270183	-0.6523668
162	0x3d1d417d	0.038392533
163	0x3d5054a6	0.050861977
164	0xbed90182	-0.42383963
165	0xbe2d0455	-0.16896184
166	0xbdcc103f	-0.09964036
167	0x3ca5a515	0.020220319
168	0x3eb17f7e	0.3466758
169	0x3e090a01	0.13382722
170	0xbe917b90	-0.28414583
171	0xbdb75024	-0.089508325
172	0x3e708ce0	0.2349124
173	0x3dc1098c	0.09425649
174	0x3cdb7ee7	0.02679391
175	0x3e1b5c1d	0.15171857
176	0x3e4d3fbc	0.20043844
177	0x3e912036	0.28344887
178	0x3d3d586f	0.046226915
179	0xbcf27727	-0.029597832
180	0x3dc98b98	0.098410785
181	0xbe69c545	-0.22829159
182	0x3eee286d	0.46515217
183	0xbec7647e	-0.38943857
184	0x3d986417	0.074409656
185	0xbcbf5bfe	-0.023359295
186	0xbf44a81b	-0.7681901
187	0x3cd9c716	0.02658419
188	0xbe027dae	-0.12743255
189	0x3dd9fb56	0.10643642
190	0xbe5068b3	-0.2035244
191	0x3ec105d6	0.37699765
192	0xbf563065	-0.83667594
193	0xbb2a2529	-0.002596209
194	0xbdc01bde	-0.09380315
195	0xbf10e665	-0.56601554
196	0xbd58d04f	-0.052933034
197	0xbdce88e3	-0.10084703
198	0x3d7fab9d	0.062419523
199	0x3ee83d13	0.45359096
200	0x3f597dd2	0.8495761
201	0xbd9d770a	-0.076887205
202	0x3e25dafc	0.16196817
203	0xbd49c856	-0.04926332
204	0xbc822003	-0.015884405
205	0xbe83724d	-0.25673142
206	0xbecdc8ef	-0.40192363
207	0xbcfe6813	-0.031055486
208	0x3e75ac71	0.23991562
209	0x3b80e4af	0.003933511
210	0x3edc90d0	0.43079233
211	0x3f1740f7	0.59083503
212	0x3e4a5d9c	0.19762272
213	0xbf21f0b3	-0.632579
214	0x3dc58a33	0.096455
215	0xbee229bb	-0.44172463
216	0xbf1c8235	-0.6113618
217	0xbe243f37	-0.1603974
218	0x3f2e1025	0.67993385
219	0x3e386e1b	0.18010752
220	0xbcdd51a4	-0.027016468
221	0x3cb657be	0.022258636
222	0x3e15c1fd	0.14624782
223	0xbcf63521	-0.03005463
224	0xbeeddb7a	-0.4645651
225	0x3ebb1c43	0.36545
226	0xbe0d534d	-0.13801308
227	0x3e65ad03	0.2242928
228	0xbe780803	-0.24221806
229	0xbe6def66	-0.23235855
230	0xbec352c7	-0.38149092
231	0xbe1828ba	-0.14859286
232	0x3ec5277c	0.38506687
233	0x3f1881a0	0.5957279
234	0xbef97315	-0.48720613
235	0xbd0be9dd	-0.034158576
236	0x3efa3860	0.48871136
237	0x3de207e5	0.11036662
238	0xbd1f4214	-0.038881376
239	0xbd1d8978	-0.03846118
240	0x3ed04dea	0.40684444
241	0x3db6d8b9	0.08928055
242	0xbe32ba42	-0.17453864
243	0x3f29ea11	0.6637278
244	0xbf008e49	-0.5021711
245	0x3e42e28f	0.19031738
246	0x3f115fcd	0.56786805
247	0x3ea8ea14	0.32991087
248	0x3f07e717	0.5308699
249	0xbf832120	-1.0244484
250	0x3c68e662	0.014215084
251	0xbed845a7	-0.4224064
252	0xbec3044f	-0.38089225
253	0xbeec4b59	-0.46151236
254	0x3e567a57	0.20945106
255	0xbe8dbaca	-0.2768157

network_body._body_endoder.seq_layers.0.bias f4 [128]
0	0x00000000	0.0
1	0x00000000	0.0
2	0x00000000	0.0
3	0x00000000	0.0
4	0x00000000	0.0
5	0x00000000	0.0
6	0x00000000	0.0
7	0x00000000	0.0
8	0x00000000	0.0
9	0x00000000	0.0
10	0x00000000	0.0
11	0x00000000	0.0
12	0x00000000	0.0
13	0x00000000	0.0
14	0x00000000	0.0
15	0x00000000	0.0
16	0x00000000	0.0
17	0x00000000	0.0
18	0x00000000	0.0
19	0x00000000	0.0
20	0x00000000	0.0
21	0x00000000	0.0
22	0x00000000	0.0
23	0x00000000	0.0
24	0x00000000	0.0
25	0x00000000	0.0
26	0x00000000	0.0
27	0x00000000	0.0
28	0x00000000	0.0
29	0x00000000	0.0
30	0x00000000	0.0
31	0x00000000	0.0
32	0x00000000	0.0
33	0x00000000	0.0
34	0x00000000	0.0
35	0x00000000	0.0
36	0x00000000	0.0
37	0x00000000	0.0
38	0x00000000	0.0
39	0x00000000	0.0
40	0x00000000	0.0
41	0x00000000	0.0
42	0x00000000	0.0
43	0x00000000	0.0
44	0x00000000	0.0
45	0x00000000	0.0
46	0x00000000	0.0
47	0x00000000	0.0
48	0x00000000	0.0
49	0x00000000	0.0
50	0x00000000	0.0
51	0x00000000	0.0
52	0x00000000	0.0
53	0x00000000	0.0
54	0x00000000	0.0
55	0x00000000	0.0
56	0x00000000	0.0
57	0x00000000	0.0
58	0x00000000	0.0
59	0x00000000	0.0
60	0x00000000	0.0
61	0x00000000	0.0
62	0x00000000	0.0
63	0x00000000	0.0
64	0x00000000	0.0
65	0x00000000	0.0
66	0x00000000	0.0
67	0x00000000	0.0
68	0x00000000	0.0
69	0x00000000	0.0
70	0x00000000	0.0
71	0x00000000	0.0
72	0x00000000	0.0
73	0x00000000	0.0
74	0x00000000	0.0
75	0x00000000	0.0
76	0x00000000	0.0
77	0x00000000	0.0
78	0x00000000	0.0
79	0x00000000	0.0
80	0x00000000	0.0
81	0x00000000	0.0
82	0x00000000	0.0
83	0x00000000	0.0
84	0x00000000	0.0
85	0x00000000	0.0
86	0x00000000	0.0
87	0x00000000	0.0
88	0x00000000	0.0
89	0x00000000	0.0
90	0x00000000	0.0
91	0x00000000	0.0
92	0x00000000	0.0
93	0x00000000	0.0
94	0x00000000	0.0
95	0x00000000	0.0
96	0x00000000	0.0
97	0x00000000	0.0
98	0x00000000	0.0
99	0x00000000	0.0
100	0x00000000	0.0
101	0x00000000	0.0
102	0x00000000	0.0
103	0x00000000	0.0
104	0x00000000	0.0
105	0x00000000	0.0
106	0x00000000	0.0
107	0x00000000	0.0
108	0x00000000	0.0
109	0x00000000	0.0
110	0x00000000	0.0
111	0x00000000	0.0
112	0x00000000	0.0
113	0x00000000	0.0
114	0x00000000	0.0
115	0x00000000	0.0
116	0x00000000	0.0
117	0x00000000	0.0
118	0x00000000	0.0
119	0x00000000	0.0
120	0x00000000	0.0
121	0x00000000	0.0
122	0x00000000	0.0
123	0x00000000	0.0
124	0x00000000	0.0
125	0x00000000	0.0
126	0x00000000	0.0
127	0x00000000	0.0

network_body._body_endoder.seq_layers.2.weight f4 [128, 128]
0	0xbd83dbf6	-0.064384386
1	0x3b744715	0.0037273814
2	0x3e1c5f73	0.15270786
3	0x3cc19586	0.023630869
4	0xbde5ec31	-0.112266906
5	0x3cac3ae6	0.021024179
6	0x3e326bb4	0.17423898
7	0x3d0e0da6	0.034680985
8	0x3d6a8bec	0.057262346
9	0xbdece4a4	-0.11567047
10	0x3c591a84	0.013250951
11	0xbe37b2b7	-0.17939268
12	0xbc33c18a	-0.010971436
13	0x3e231b73	0.1592844
14	0x3d9ec267	0.07751923
15	0x3c867dd4	0.016417421
16	0xbe146fb4	-0.14495736
17	0x3c9de088	0.019272104
18	0x3d8a2a83	0.0674639
19	0x3ac6d6f7	0.0015170266
20	0x3dc9ed4d	0.09859715
21	0xbd6bb5d4	-0.05754645
22	0x3db203cb	0.0869213
23	0xbe145a23	-0.1448751
24	0xbb6f0873	-0.0036473542
25	0x3d7dd172	0.06196732
26	0x3da1c785	0.078993835
27	0x3d0448b7	0.03229591
28	0xbde58a46	-0.11208014
29	0xbca97aab	-0.020688375
30	0x3c82099b	0.01587372
31	0x3e09afe5	0.13446005
32	0xbcf14b5e	-0.029454883
33	0xbd81fbe4	-0.063468724
34	0xbd7c64f8	-0.06161973
35	0xbb835c76	-0.004008825
36	0x3d8e8d82	0.06960584
37	0xbe2c826b	-0.16846626
38	0xbc06ed39	-0.008235269
39	0x3e09a7dd	0.13442941
40	0x3c1c173a	0.009527022
41	0x3da49c60	0.08037639
42	0xbba06c63	-0.004895733
43	0x3dcc5b41	0.09978343
44	0xbd67472f	-0.05646437
45	0x3c63abb8	0.013895921
46	0xbde7c02d	-0.113159515
47	0x3dfbf300	0.12302208
48	0xbe066e5a	-0.13128033
49	0xbc37bd51	-0.01121457
50	0xbcb34519	-0.021883534
51	0xbdafd17b	-0.08584877
52	0x3d9c4d33	0.07631912
53	0xbd0a65ca	-0.03378848
54	0xbe0b850a	-0.13624969
55	0x3bdc9390	0.006731458
56	0xbde2ac14	-0.110679775
57	0xbd8696df	-0.06571745
58	0x3cee17b3	0.029064035
59	0x3cb954bb	0.02262341
60	0x3e05dd0a	0.13072601
61	0xbd19a35f	-0.03750932
62	0xbe1efb83	-0.15525632
63	0xbc38450c	-0.011246931
64	0x3c9dbfce	0.019256499
65	0x3c09310b	0.008373509
66	0xbdaf7331	-0.08566893
67	0x3c6e7c72	0.014556037
68	0xbc99cc93	-0.018774306
69	0xbd37f3fe	-0.044910423
70	0xbd25daf6	-0.04049202
71	0xbe28365e	-0.1642699
72	0x3d9ed580	0.07755566
73	0x3dd7a558	0.10529584
74	0xbbc678ba	-0.006056872
75	0xbe56207c	-0.2091083
76	0x3a7c9ae3	0.0009636117
77	0x3e12f62c	0.1435172
78	0xbd7aa974	-0.06119676
79	0x3b818bae	0.0039534187
80	0x3d3cb48a	0.046070613
81	0xbdd89993	-0.10576167
82	0xbd09cd49	-0.03364304
83	0x3d4e5daa	0.050382294
84	0x3a815e86	0.0009870089
85	0x3bba0662	0.0056770304
86	0xbe29b46b	-0.1657273
87	0xbd422ace	-0.047404103
88	0xbdc76c5d	-0.097374655
89	0x3c2ace38	0.010425143
90	0x3e12e6d0	0.1434586
91	0x3c749e67	0.014930344
92	0x3de9680d	0.11396799
93	0x3c325710	0.010885015
94	0x3c97f956	0.01855151
95	0x3b84ec9f	0.0040565277
96	0x3d44141d	0.047870744
97	0x3d946028	0.07244903
98	0xbe08f221	-0.13373615
99	0x3a19efc4	0.00058722147
100	0x3df00cd5	0.117211975
101	0x3c84eeb8	0.016227111
102	0xbe225b82	-0.1585522
103	0xbd6a6627	-0.057226326
104	0x3da0fb06	0.07860379
105	0x3a9d1801	0.0011985303
106	0x3e1fce0a	0.15605941
107	0x3e08cb00	0.13358688
108	0xbcdf2de2	-0.027243558
109	0x3ccdeb8d	0.025136733
110	0x3de1cb7a	0.11025138
111	0xbd68d7f2	-0.056846566
112	0x3b3bcf51	0.0028657506
113	0x3c86af5b	0.016441038
114	0x3e0a6cb0	0.13518023
115	0xbd15e349	-0.03659371
116	0x3d0a1d68	0.03371945
117	0xbcad1e19	-0.021132516
118	0x3d816ba4	0.06319359
119	0xbb971964	-0.004611181
120	0xbd11d3e7	-0.035602476
121	0x3e3246fc	0.17409891
122	0x3d3e5467	0.04646721
123	0xbcc189dc	-0.023625307
124	0x3d40cb62	0.04706896
125	0x3d650a8e	0.05591827
126	0xbe0a28a5	-0.13492067
127	0xbd1fddeb	-0.039029997
128	0x3d0bcc7e	0.034130566
129	0x3dbbfaa6	0.09178667
130	0xbdd0cfb5	-0.10195867
131	0x3d169758	0.036765426
132	0x3ba3b4a5	0.0049958997
133	0x3d9658e2	0.07341172
134	0xbd97a0f0	-0.07403743
135	0x3d800069	0.06250078
136	0x3d881ebf	0.06646489
137	0x3bb1fbf0	0.0054316446
138	0x3d843616	0.064556286
139	0xbdfa6e7b	-0.12228104
140	0xbe4e7aa4	-0.20163971
141	0xbd7aaff2	-0.06120295
142	0x3d84fff9	0.064941354
143	0x3dc9e8a6	0.09858827
144	0xbe4d55e3	-0.20052294
145	0x3d2b42ab	0.041811626
146	0xbcc3ec7f	-0.023916481
147	0x3d64c6bd	0.055853594
148	0xbd70fc25	-0.058834214
149	0x3c4627f7	0.012094489
150	0xbd9dd56c	-0.077067226
151	0xbd3bab42	-0.04581762
152	0xbbe17b65	-0.006881165
153	0xbd84d167	-0.06485253
154	0xbd763b3e	-0.06011509
155	0x3df1c3c0	0.118049145
156	0xbdeb0164	-0.114748746
157	0xbdb93eec	-0.090452045
158	0xbdd9bd8c	-0.10631856
159	0x3d484ecc	0.04890327
160	0x3d4fdd4e	0.050748162
161	0xbdd40ce1	-0.10354019
162	0x3d2470ed	0.040146757
163	0xbca992a5	-0.020699808
164	0x3d516195	0.051118452
165	0xbe45a679	-0.19301786
166	0xbd5d7e5a	-0.054075576
167	0x3d631b3c	0.055445895
168	0x3e0e985a	0.13925305
169	0x3daa88a0	0.083268404
170	0xbd9b5515	-0.075845875
171	0x3db176d3	0.08665242
172	0xbe385d44	-0.18004328
173	0xbd4aad31	-0.049481574
174	0x3d6c38b4	0.057671264
175	0x3dbc1480	0.091835976
176	0xbcf3bd07	-0.029753221
177	0xbcca093f	-0.024662612
178	0xbd26a028	-0.04068008
179	0xbca85154	-0.020546593
180	0xbd589b50	-0.052882493
181	0x3e09567e	0.134119
182	0xbdd9c529	-0.106333084
183	0xbd206f76	-0.039168797
184	0xbcdb88d6	-0.026798647
185	0xbe00e9e8	-0.12589228
186	0x3d8eec33	0.06978645
187	0x3e0d39af	0.13791536
188	0xbda66fd2	-0.08126797
189	0xbc42ef19	-0.011897826
190	0x3e265b31	0.16245724
191	0xbb294b38	-0.0025832187
192	0xbe39d3bb	-0.18147175
193	0xbe0064c7	-0.12538444
194	0xbb37fcd3	-0.002807428
195	0xbc3eb40e	-0.011639608
196	0x3e10d481	0.14143564
197	0x3e18ad01	0.14909746
198	0xbc8e4d58	-0.017370865
199	0xbe3036ad	-0.17208357
200	0x3bd5c664	0.006523894
201	0x3d30e5aa	0.043187775
202	0xbc9eec1e	-0.019399699
203	0xbdcf4e3e	-0.101223454
204	0xbde4b6c1	-0.1116767
205	0xbc5f7f62	-0.01364121
206	0xbc2d345c	-0.0105715655
207	0x3d9c2d51	0.07625831
208	0xbd5b5ac3	-0.053553354
209	0xbd87c29e	-0.06628917
210	0xbe201412	-0.15632656
211	0x3d58ce26	0.052930973
212	0xbce39476	-0.027780753
213	0xbc8f0571	-0.01745865
214	0x3dfccbdf	0.12343573
215	0x3b179533	0.00231297
216	0x3d8cbd4f	0.06872045
217	0x3d6f2ba7	0.05839124
218	0x3dc38fe5	0.0954893
219	0x3d50bac0	0.05095935
220	0xbe119fdb	-0.14221136
221	0xbce46f34	-0.027885057
222	0xbca384e9	-0.019960837
223	0xbcf47c97	-0.029844565
224	0x3d3ae237	0.04562589
225	0xbcccd40d	-0.025003457
226	0xbe22b345	-0.15888698
227	0x3e51be84	0.20482832
228	0x3959ca45	0.00020770084
229	0xbe267aa9	-0.16257729
230	0xbda7b3f1	-0.08188618
231	0xbdb74c1c	-0.089500636
232	0x3e0ac271	0.13550736
233	0x3df1cc1c	0.11806509
234	0xbda50f13	-0.08059516
235	0x3dc648ce	0.09681855
236	0xbd97b6df	-0.07407927
237	0x3d64fb77	0.055903878
238	0x3da7b96a	0.08189662
239	0x3dde17fa	0.10844417
240	0x3c8e36a0	0.017360032
241	0x3e55cb65	0.2087837
242	0x3da4c0fb	0.080446206
243	0xbd30d254	-0.043169335
244	0xbd5da63c	-0.05411361
245	0x3e1aaea9	0.1510569
246	0xbd2263f7	-0.039646115
247	0xbb08ea0e	-0.002089146
248	0x3e016f8e	0.12640211
249	0xbd0e5ed4	-0.034758404
250	0x3da10a68	0.07863313
251	0xbaf38e47	-0.0018581831
252	0xbd111a00	-0.035425186
253	0x3ddeec95	0.10884968
254	0x3dd0cc9d	0.10195277
255	0x3d4c376b	0.04985754

action_model._continuous_distribution.log_sigma f4 [1, 2]
0	0x00000000	0.0
1	0x00000000	0.0

action_model._continuous_distribution.mu.weight f4 [2, 128]
0	0x3c9e877e	0.019351717
1	0xbc25d056	-0.010120472
2	0xbbde405d	-0.006782575
3	0x3c7e434f	0.015518977
4	0xbd19f749	-0.037589345
5	0xbc0795f9	-0.008275502
6	0x3b97ec23	0.004636304
7	0x3d0a77cf	0.033805665
8	0x3c09a987	0.008402235
9	0x3a004541	0.0004893132
10	0x3c370c0b	0.011172305
11	0xbcdb50af	-0.026771871
12	0x3c05b2fe	0.008160351
13	0x3ceb088f	0.028690604
14	0x3bd343da	0.0064472975
15	0x3a9677b5	0.0011479767
16	0x3ce54c6a	0.027990539
17	0x3c2aeccd	0.010432434
18	0x3c123d2f	0.00892572
19	0xbd227bd3	-0.03966887
20	0xbb1fb21d	-0.0024367638
21	0x3bc96905	0.0061465525
22	0x3995805b	0.00028515127
23	0xbcfdf1eb	-0.030999145
24	0xbb6314c0	-0.003464982
25	0x3c233c7f	0.009963154
26	0x3b832b41	0.004002959
27	0x3a5eba6b	0.00084964064
28	0xbca9b36f	-0.020715443
29	0x3cae6089	0.021286266
30	0xbd19c463	-0.037540805
31	0xbca51157	-0.02014987
32	0x3b415b01	0.0029503705
33	0x3d02873b	0.031867247
34	0xbc619b8a	-0.013769994
35	0x3b86dfa8	0.0041160174
36	0x3cc1052d	0.023562038
37	0x3c76c21a	0.015060926
38	0x3c8ca2ac	0.017167412
39	0xbcd85130	-0.0264059
40	0xbc272d6c	-0.0102037005
41	0x3c1ecd0b	0.009692441
42	0xbc235e8c	-0.009971272
43	0x3ce20de0	0.027594507
44	0xbcb7ac7a	-0.02242111
45	0xbb25fbcd	-0.0025327087
46	0xbc605dc5	-0.013694231
47	0x3b21f032	0.0024709818
48	0xbc65dda0	-0.01402989
49	0x3ba6c42a	0.0050893025
50	0xbd3c4ac5	-0.045969743
51	0x3bb6991c	0.0055724513
52	0xbca83517	-0.020533128
53	0xbcccff7d	-0.02502417
54	0xbc031c6f	-0.008002385
55	0x3c2ee1e2	0.010673972
56	0x3ce34fc2	0.027747992
57	0xbc8b128b	-0.016976615
58	0x3c8bbcf7	0.017057879
59	0x3c0dc5d7	0.008653126
60	0x3c75c38d	0.015000236
61	0xbbe104ca	-0.006867026
62	0x3b86b787	0.0041112336
63	0xbb9e1914	-0.004824767
64	0xbc3bd4bf	-0.011464297
65	0xbce220e7	-0.02760358
66	0x3b5d11fa	0.0033732639
67	0x37212d7c	9.606938e-06
68	0xbcb52e40	-0.02211678
69	0x3bb55600	0.0055339336
70	0x3c001793	0.0078181205
71	0x3c58861f	0.013215571
72	0xbc8b402d	-0.016998375
73	0x3be66000	0.007030487
74	0x3bb5aab3	0.0055440306
75	0xbbe347a2	-0.0069360295
76	0xbb85615c	-0.004070444
77	0x3c1b87f3	0.009492862
78	0x3a7015e7	0.0009158537
79	0x3bc93170	0.0061399266
80	0xbd03af75	-0.03214975
81	0x3c3a2439	0.011361175
82	0x3c4b8abe	0.012423215
83	0x3b0bc60d	0.0021327764
84	0xbb9249cb	-0.004464363
85	0xbcc34b7f	-0.02383971
86	0xbc3a24db	-0.011361326
87	0x3cf9d06f	0.030494897
88	0xbc177371	-0.009243832
89	0xbb9f04b7	-0.004852857
90	0xbc532c98	-0.01288905
91	0xbb8a6c53	-0.004224339
92	0x3c0e2ab3	0.0086771725
93	0x3d010742	0.031501062
94	0x3c8520b3	0.016250944
95	0x3bc2ad76	0.0059410883
96	0x3c90de86	0.017684232
97	0xbcc6dd2e	-0.024275389
98	0x3cb932ca	0.022607226
99	0xbb1a406f	-0.002353694
100	0x3c757bfa	0.014983172
101	0x3c1e39dc	0.009657349
102	0xbc73cb93	-0.014880079
103	0x3d05a0b7	0.032623973
104	0xbcdb6d5a	-0.026785541
105	0x3c8cb188	0.017174497
106	0xbcef8020	-0.0292359
107	0xbbb79f3c	-0.005603699
108	0x3c5b7570	0.0133946985
109	0xbb462107	-0.0030232088
110	0x3b086247	0.002081053
111	0x3c887976	0.01665948
112	0x3cdd07a2	0.026981179
113	0xbcd91297	-0.026498122
114	0x3bfa3477	0.007635649
115	0x3c84d2ad	0.01621374
116	0x3d06ce48	0.03291157
117	0xbc8e2457	-0.017351313
118	0xbc451625	-0.012029205
119	0x3c8e8aa9	0.017400103
120	0xbcb59b5c	-0.022168808
121	0x3c950c0c	0.018194221
122	0xbc615f2a	-0.013755599
123	0xbd06d11e	-0.032914273
124	0xbaa16a19	-0.0012314945
125	0xbc4704c9	-0.012147137
126	0x3b16c083	0.002300293
127	0xbcf63fc0	-0.030059695
128	0x3c6a7f77	0.014312617
129	0x3c49aa3b	0.0123086525
130	0x3c772650	0.015084818
131	0xbd1f570d	-0.038901377
132	0xbc7b95fb	-0.015355582
133	0xbbc5e8ee	-0.0060397303
134	0x3d25e817	0.04050454
135	0xbd0939cd	-0.03350239
136	0xbb9d1217	-0.0047934162
137	0xbc4ad668	-0.01238022
138	0xbc8867b3	-0.01665101
139	0xbc292d65	-0.010325764
140	0x3c81f7e7	0.01586528
141	0xbc419424	-0.011815105
142	0xbb8c375d	-0.0042790608
143	0x3ba711c5	0.005098554
144	0x3b675f27	0.0035304518
145	0xbcfe4595	-0.031039039
146	0x3cb3fa94	0.02197007
147	0x3cdcfb52	0.026975308
148	0x3a5068b7	0.0007950174
149	0x3c554378	0.013016574
150	0x3b36b5c1	0.002787933
151	0x3c8b0087	0.016968025
152	0x3b3058aa	0.0026908317
153	0xbbca3280	-0.006170571
154	0xbcdf00dd	-0.027222091
155	0xbc8de3c1	-0.017320516
156	0x3c37dffb	0.011222835
157	0xbc50ea33	-0.01275115
158	0x3c01d2a0	0.007923752
159	0xbd0460f7	-0.032319035
160	0x3cae5f0a	0.021285553
161	0xbb577e48	-0.0032881666
162	0xbc815ec1	-0.015792252
163	0x39bdcb3b	0.00036200308
164	0xbc28b67f	-0.010297417
165	0xbaf03fda	-0.0018329576
166	0xbc46dc75	-0.012137522
167	0xbb3b81be	-0.0028611268
168	0xbc031667	-0.008000947
169	0xbc4b4396	-0.01240625
170	0x3d184f74	0.037185147
171	0x3cac435c	0.021028213
172	0xbc59d9e3	-0.013296577
173	0xb8ff6fd8	-0.0001218018
174	0x3c4aae91	0.012370721
175	0xbc851b8b	-0.016248485
176	0x3c170c49	0.009219238
177	0xbc6b514a	-0.014362643
178	0x3cc05444	0.023477681
179	0x3b08d769	0.0020880348
180	0xbcbd3615	-0.023097077
181	0xbc3feca8	-0.011714138
182	0xbc03c246	-0.008041924
183	0x3c34750d	0.011014235
184	0xbc5ea602	-0.013589384
185	0xbc5835af	-0.013196393
186	0x3b8fd33e	0.0043891957
187	0x3c98b577	0.018641217
188	0x3be430d2	0.0069638276
189	0xbb73c0c5	-0.0037193757
190	0x3cbdb7dd	0.023158962
191	0xbcaaaaee	-0.020833459
192	0xbbf8ab30	-0.0075887665
193	0x3c6eba0a	0.014570722
194	0x3ba7db84	0.005122604
195	0xbae4ea33	-0.0017464816
196	0xbbfddb90	-0.007747121
197	0xbc1c975f	-0.009557574
198	0x3c6c63e0	0.014428109
199	0xbd0d047f	-0.034428116
200	0x3cfe3820	0.031032622
201	0xbbc1e669	-0.0059173596
202	0x3be3babb	0.0069497502
203	0x3cdbe29b	0.026841452
204	0xbc069acf	-0.00821562
205	0xbc61be0f	-0.013778224
206	0x3c8126c7	0.01576556
207	0x3b3f0d63	0.0029152266
208	0xbc11982e	-0.00888638
209	0xbc77c743	-0.015123191
210	0x3c2ffb1d	0.010741022
211	0xbc91a71f	-0.017779885
212	0x3d277af3	0.040888738
213	0x3abfbfeb	0.001462934
214	0x3bcbefcb	0.006223654
215	0x3d4e082b	0.05030076
216	0x3d49a17e	0.049226277
217	0x39ac37f4	0.00032848085
218	0xbae33368	-0.0017334046
219	0x3cfdacc8	0.030966178
220	0xbd13ff73	-0.036132287
221	0xbd201e60	-0.039091468
222	0x3c06834e	0.008210016
223	0xbbe37cdd	-0.006942375
224	0xbc9ed0fb	-0.019386759
225	0x3c83d8c8	0.01609458
226	0x3c8aa07e	0.016922232
227	0xbc50e0a2	-0.012748869
228	0xbcb52f29	-0.022117214
229	0xbba08667	-0.0048988345
230	0x3cff970a	0.03119995
231	0x38633acf	5.4175787e-05
232	0x3c32e98d	0.010919941
233	0xbd020a9f	-0.03174841
234	0xbba042c3	-0.004890771
235	0xbb9b6cca	-0.0047431933
236	0xbac88dbd	-0.001530103
237	0x3c624677	0.013810745
238	0xbc514312	-0.012772338
239	0x3c03825b	0.008026685
240	0xbc9f4666	-0.019442748
241	0x3c8b725d	0.017022306
242	0xbbb567b8	-0.005536046
243	0x3a19afaf	0.0005862666
244	0xba444e36	-0.0007488461
245	0x3bb7ae50	0.0056054965
246	0xbcc0604e	-0.023483422
247	0xbc016e97	-0.007899902
248	0xbc85f580	-0.016352415
249	0xbc57b858	-0.01316651
250	0x3c562367	0.013069964
251	0xbc358797	-0.01107969
252	0xbbd11fab	-0.006381949
253	0x3bf9b9cb	0.007621025
254	0x3b9f54f3	0.0048624217
255	0x3beb1432	0.0071740383

action_model._continuous_distribution.mu.bias f4 [2]
0	0x00000000	0.0
1	0x00000000	0.0

action_model._discrete_distribution.branches.0.weight f4 [1, 128]
0	0xbafe074d	-0.0019380838
1	0xbc80d7d5	-0.015727917
2	0x3c038725	0.008027826
3	0xbb363c1b	-0.0027806822
4	0xbc73c960	-0.0148795545
5	0xbbcacf81	-0.006189287
6	0x3ba47ee3	0.005020009
7	0xbbdd12eb	-0.00674664
8	0xbc538a5f	-0.012911408
9	0xbc4fb530	-0.012677476
10	0xba49c6b2	-0.00076971494
11	0xbb9ce11e	-0.0047875782
12	0x3a7a2560	0.00095423125
13	0xbc01a394	-0.007912535
14	0xbc72f125	-0.014828001
15	0xbb85460b	-0.0040671877
16	0x3bb6de3a	0.0055806907
17	0xbc0c02cf	-0.0085455915
18	0x3a4c97c7	0.0007804599
19	0xba973897	-0.0011537251
20	0xbaa7c8a4	-0.0012800884
21	0xbbc6bd03	-0.0060650124
22	0x3bfd99eb	0.0077392957
23	0x3afc5047	0.0019249999
24	0xbbc6dad6	-0.0060685677
25	0xbb34fffd	-0.0027618401
26	0xbbff7f1d	-0.0077971355
27	0x3adf5eb0	0.0017041769
28	0xbba83f63	-0.0051345094
29	0x3b5aecd8	0.003340533
30	0xbb982d1e	-0.0046440503
31	0x3a995f86	0.0011701442
32	0xbc9249e5	-0.017857501
33	0xb663eeea	-3.3964702e-06
34	0x39aa5899	0.00032490937
35	0x3c5958aa	0.013265768
36	0x3c5d5027	0.013507879
37	0x3b657aad	0.0035015747
38	0x3ae77f5b	0.0017661856
39	0x3c30cc99	0.010790967
40	0x3bce5535	0.0062967786
41	0x3c067603	0.008206847
42	0x3ae82213	0.001771035
43	0x3bc3bb34	0.005973244
44	0xba019053	-0.00049424655
45	0xbc8f4f3f	-0.017493842
46	0x3ac26ffe	0.0014834402
47	0x3c496fe3	0.012294742
48	0x3bcfbbd2	0.0063395286
49	0xbb9fd4e9	-0.004877676
50	0xbc320bb4	-0.010867048
51	0xbbf23bcb	-0.007392382
52	0xbbdd3c4a	-0.006751572
53	0x3bc24f78	0.0059298836
54	0xbb076e5e	-0.002066515
55	0x3c366dd5	0.011134584
56	0x3b50b81f	0.0031848026
57	0x3a8abdcb	0.0010585127
58	0xbbc36183	-0.005962552
59	0x3b0b40e0	0.0021248385
60	0x3b872722	0.004124538
61	0x3c50cf0a	0.012744674
62	0x3bd49620	0.006487623
63	0x3c18a3bb	0.00931638
64	0xbca65fe9	-0.020309405
65	0xbb3b7b63	-0.002860748
66	0xbc4ed7dd	-0.012624708
67	0xbb887546	-0.0041643707
68	0xbb37dd8b	-0.0028055634
69	0xbb4d59af	-0.0031333973
70	0xbb5fbeb5	-0.003414077
71	0xbaf5e858	-0.001876126
72	0x3b3ad2ec	0.0028507067
73	0x3c6d4f78	0.014484279
74	0x3c2c4db5	0.010516574
75	0xbc0a39b5	-0.00843661
76	0x3c8e8cff	0.017401217
77	0x3c0ad640	0.008473933
78	0xbbfffe22	-0.0078122774
79	0x3c5d8507	0.013520486
80	0xbbc267aa	-0.005932768
81	0x3c15c9e6	0.009142375
82	0xba9c9a2f	-0.0011947806
83	0xbb8e07fb	-0.0043344474
84	0xb9462afb	-0.00018898763
85	0x3a461486	0.0007556159
86	0xbbca5be9	-0.0061755073
87	0x39c5de3a	0.0003774034
88	0x3b9d8526	0.0048071323
89	0x3a8d5a31	0.0010784325
90	0x3bbb2b3c	0.005711941
91	0xbb3d227f	-0.0028859673
92	0x36ec806d	7.048299e-06
93	0xbb9c9aa9	-0.004779179
94	0xbc71f47b	-0.014767761
95	0x3bfe1498	0.00775392
96	0x3b7cff1a	0.00386042
97	0x3c29f9ab	0.010374467
98	0xbc6e1ab3	-0.014532733
99	0xbb75f8a7	-0.0037532242
100	0xbc02252e	-0.007943435
101	0x3b68912f	0.0035486927
102	0xbc672115	-0.014107008
103	0xbbc703ea	-0.0060734646
104	0x3a8127c7	0.0009853774
105	0xbbb52a43	-0.0055287196
106	0xbbeba7a7	-0.0071916166
107	0x3c31dd0d	0.010855925
108	0xbb256209	-0.0025235435
109	0x3bc71bab	0.0060762963
110	0xbbbb5331	-0.0057167043
111	0xbc25487f	-0.010088085
112	0x3bfc80c5	0.00770578
113	0x3c4f75a0	0.012662321
114	0x3b1a5656	0.0023549995
115	0xbc7094ea	-0.014683941
116	0x3bb73922	0.0055915276
117	0xbc01f9fc	-0.007933136
118	0x3c1beb1d	0.009516505
119	0x3b4a16ef	0.0030836423
120	0x38cf7e2b	9.89403e-05
121	0x389fa07b	7.6116026e-05
122	0xbb475898	-0.0030417796
123	0xbccb4132	-0.024811361
124	0x38bdba1d	9.0468886e-05
125	0xbb0541d7	-0.0020333433
126	0x3bd9bf68	0.006645132
127	0xbc648b3d	-0.013949213
