Assets/Result/PlayerAgent_BehaviorCloning/PlayerAgent_0/PlayerAgent_0-8192.onnx (onnx, 78861 bytes, 7 tensors)

network_body._body_endoder.seq_layers.0.weight f4 [128, 8]
00000000: 41e8 cf3e e3a9 213f ece9 253e 9e53 1ebe
00000010: 4aef c8be 8820 703d e775 8abe a6c1 96be
00000020: 8f59 073f 26b2 8ebe 4ef9 08bf 0406 06bf
00000030: 7994 863d 5283 99be 824c 903d bf26 413e
00000040: e577 33be d1c2 a5be 8d59 a6be 3361 0e3c
00000050: 91e6 f1be 6b70 073f ad92 953e 009c db3e
00000060: 1c8b f0bd 6062 74be 90b9 e9be 61f0 843d
00000070: ec48 08bf 6b49 81bc e711 4bbd 92a3 ed3e
00000080: 53f2 323f a949 5dbd 46d3 c13e fc4c 08bf
00000090: a223 74be 894c 14be 38b3 463e 7e30 a63e
000000a0: 9851 a9bc 8b5d c83e 4e04 aebe 6827 373f
000000b0: 2ea4 7d3f 5465 83be f558 debe 3c66 0abf
000000c0: 5b2e 773e 11bf c4be 6801 1d3f 56df cdbd
000000d0: 9abe 1ebe 4074 09be c8c0 4dbd 5174 273e
000000e0: 7319 7f3e 1da9 48be c7f6 563e 8b91 37bf
000000f0: 6eec 8fbd 7dca 3bbe 444c 35be ada4 69bd
00000100: e26b af3e 3eae 22be 37b2 bcbe 5325 8f3e
00000110: 58db 94be 9884 18bf af32 ec3e 35b7 09be
00000120: dea2 003f 32e6 b7be 525a 1d3e ea69 07bc
00000130: 36df 18bf 444b 863e 3871 9abe 6696 5e3e
00000140: 2bb1 01bd cd3e 68be c29e 7a3d 1b6e e4be
00000150: 912b 9bbc a02d 10bf b4c2 86bf 5044 0dbe
00000160: b5c0 ccbc 3dc7 79be 2881 0cbf 9e0b 983e
00000170: 7a5b 50be 1577 b5be a2d1 bdbe 0f6d 91be
00000180: baf7 25be fcee 23be d3bc c3be f78b ebbe
00000190: 3713 3bbc dd4b 5c3e 2910 fa3d 2901 51be
000001a0: a25f 76bc e842 083f 186e 123f 16d4 fb3d
000001b0: 87ee dabd 68ba e9bd 9d17 1cbc b5bb 723e
000001c0: 5de3 98be b6ff b53e 513a 9bbe 9f3d b43e
000001d0: a002 c93e e4c6 603f bcfd 073f 0d9b 303d
000001e0: 018c 9abe e53d cbbe 3b9c 6b3c 97ea 9b3e
000001f0: 35a0 2abe 241c 88be 98fb a33d 6c19 71be
00000200: 70ad 0cbf 1132 703d 968d e9be b26f af3e
00000210: db4e 073e 7d27 93be 7141 e43e 8b72 0cbf
00000220: 569d c33e 74f9 253f 16ca bdbc cac2 663e
00000230: b6d3 6b3e c3e5 243f 9b06 72bb d166 733d
00000240: b341 9d3e aeae 903e 620d 313f f4cf 793f
00000250: 309d 22be 178d 12bf a323 c7be 0e0d d03d
00000260: 850a 1abf 2eb1 993e 8a72 e2bd 23b1 e53e
00000270: 58c5 96bd 64ff 983e 37b4 27be fccb 95be
00000280: d0c0 0e3f d25e 0a3d 7f04 97be 3785 d83d
00000290: d622 f93e f228 893d 527b a6be d1f6 c73e
000002a0: 7d5e fa3e 3cb5 9d3e 273f 0c3c 8708 c83e
000002b0: 84fa bfbd 73e2 0dbf 8bc9 b83e 741e 5bbe
000002c0: 4bd5 5c3e 554c ee3e efc0 83bf 49d6 a2bd
000002d0: c268 9abe c4a9 07be 0c6e 563e 78b0 c0be
000002e0: d819 9e3e 3243 58bd aa90 5ebe 8a66 e93e
000002f0: 27b2 c7bd ced7 803c 48fc cbbe 4a12 3ebe
00000300: d7b9 5b3e 04e5 1fbf 357e c63d eec0 bb3e
00000310: d7fd 763e 1b97 37be ef9a 20be a485 2b3f
00000320: f847 a13d 7525 c53e 9901 0a3c 8378 babd
00000330: a394 e13d f17b 0a3f 3747 77be 92a9 993e
00000340: 6d17 0c3e d477 febd fdbc 873e d73d 713e
00000350: 5ba9 493e 0b18 13bd e884 d83d 7999 1f3e
00000360: 99d7 87be 80fa bcbb 5e88 a8be 2301 6abe
00000370: 76ea ddbe b844 d13e f6a6 b03e bc7c 173f
00000380: 7682 023f 9a83 07bf cf48 423e 5b32 633e
00000390: 4c01 5ebe f539 afbe c67a ad3e 139f 6a3f
000003a0: fcef 183e 042d 173f 93fe a7be df4d 233f
000003b0: e874 0c3e 778c 153e f7fe 293d 30a1 2d3e
000003c0: 1f69 f63e 7dff 9bbe 27c3 22be f48d a13d
000003d0: 2346 81be 039c 37be 4536 453c 8a80 013e
000003e0: aeed 81bc 410f 343e c22d 99bd 5bf6 c8bd
000003f0: 51c1 9fbc 219a 23bf 30e3 cd3d 0f72 aa3c
0.40606883 0.6314985 0.16202515 -0.15461585 -0.39245063 0.058624774 -0.27043077 -0.29444617
0.5287103 -0.2787029 -0.5350541 -0.5235293 0.06571288 -0.29983002 0.07045843 0.18862437
-0.17526205 -0.32375196 -0.32490197 0.008690166 -0.4724622 0.5290591 0.29213467 0.42892456
-0.11745283 -0.23865652 -0.45649385 0.06491161 -0.5323627 -0.015782079 -0.04957762 0.46413857
0.6990101 -0.054025326 0.378565 -0.5324247 -0.23841718 -0.14482321 0.19404304 0.32458872
-0.02066879 0.39133868 -0.3398766 0.71544504 0.99078643 -0.25663245 -0.43427244 -0.5406225
0.24138777 -0.38427022 0.6133027 -0.100523636 -0.15502396 -0.13423252 -0.05023268 0.16352965
0.24912052 -0.19595762 0.20992576 -0.71706456 -0.07027517 -0.18338962 -0.17704874 -0.057041813
0.34261996 -0.1588678 -0.36854717 0.27958164 -0.29073596 -0.5957732 0.4613242 -0.13448794
0.50248516 -0.35917813 0.15366486 -0.008264998 -0.5971559 0.26229298 -0.30164504 0.2173706
-0.0316631 -0.22680207 0.06118656 -0.44615254 -0.018941673 -0.5631962 -1.0528169 -0.1379559
-0.024994234 -0.2439241 -0.54884577 0.29696363 -0.20347396 -0.35442415 -0.37074 -0.28403518
-0.16207781 -0.16009134 -0.3823 -0.46005222 -0.011418155 0.21513315 0.122101136 -0.20410599
-0.015037449 0.5322709 0.5719924 0.122963116 -0.10690027 -0.11412507 -0.009527114 0.23704417
-0.29860964 0.35546654 -0.3031793 0.35203263 0.39259815 0.87803483 0.5312154 0.043116618
-0.3018494 -0.3969566 0.01438051 0.30452415 -0.16662677 -0.2658397 0.08006972 -0.23544854
-0.54952145 0.058641497 -0.45615834 0.34264904 0.13213675 -0.28741065 0.44581178 -0.5486228
0.38205975 0.6483376 -0.023167651 0.22535244 0.2302998 0.6441309 -0.0036930207 0.059424225
0.30714187 0.2825827 0.69161046 0.97582936 -0.15880275 -0.57246536 -0.38894376 0.1015874
-0.601723 0.3001799 -0.11057003 0.44861707 -0.07361859 0.29882348 -0.1637734 -0.2925719
0.5576296 0.033781834 -0.29495618 0.10572284 0.4865939 0.06697263 -0.3251596 0.39055493
0.48900214 0.30802333 0.008559979 0.39069006 -0.09373954 -0.5542366 0.36091265 -0.21398336
0.2156574 0.46542612 -1.0293254 -0.07951028 -0.3015805 -0.13248354 0.20940417 -0.37634635
0.30879092 -0.052798457 -0.21734872 0.45586044 -0.09750777 0.015727904 -0.39840913 -0.18561664
0.21457611 -0.62458825 0.09692041 0.3667063 0.2412027 -0.17928736 -0.15684102 0.67000794
0.07875055 0.3850514 0.0084232325 -0.09105017 0.11014678 0.5409537 -0.2414826 0.30012184
0.13680811 -0.12425199 0.26511374 0.23558746 0.1969351 -0.0359116 0.10572225 0.15585889
-0.26531675 -0.0057671666 -0.3291654 -0.22851996 -0.43342942 0.4087274 0.3450238 0.59174705
0.5098032 -0.52935183 0.18973087 0.22187178 -0.21680182 -0.34223905 0.3388273 0.9164898
0.14935297 0.59053063 -0.32811412 0.63790697 0.13716471 0.14604364 0.04150292 0.1695602
0.48127076 -0.3046836 -0.15894757 0.078884035 -0.25248823 -0.17930607 0.012036865 0.1264669
-0.015860405 0.17583944 -0.07479431 -0.098126136 -0.01950136 -0.6390706 0.10053098 0.02080634

network_body._body_endoder.seq_layers.0.bias f4 [128]
00000000: 0000 0000 0000 0000 0000 0000 0000 0000
00000010: 0000 0000 0000 0000 0000 0000 0000 0000
00000020: 0000 0000 0000 0000 0000 0000 0000 0000
00000030: 0000 0000 0000 0000 0000 0000 0000 0000
00000040: 0000 0000 0000 0000 0000 0000 0000 0000
00000050: 0000 0000 0000 0000 0000 0000 0000 0000
00000060: 0000 0000 0000 0000 0000 0000 0000 0000
00000070: 0000 0000 0000 0000 0000 0000 0000 0000
00000080: 0000 0000 0000 0000 0000 0000 0000 0000
00000090: 0000 0000 0000 0000 0000 0000 0000 0000
000000a0: 0000 0000 0000 0000 0000 0000 0000 0000
000000b0: 0000 0000 0000 0000 0000 0000 0000 0000
000000c0: 0000 0000 0000 0000 0000 0000 0000 0000
000000d0: 0000 0000 0000 0000 0000 0000 0000 0000
000000e0: 0000 0000 0000 0000 0000 0000 0000 0000
000000f0: 0000 0000 0000 0000 0000 0000 0000 0000
00000100: 0000 0000 0000 0000 0000 0000 0000 0000
00000110: 0000 0000 0000 0000 0000 0000 0000 0000
00000120: 0000 0000 0000 0000 0000 0000 0000 0000
00000130: 0000 0000 0000 0000 0000 0000 0000 0000
00000140: 0000 0000 0000 0000 0000 0000 0000 0000
00000150: 0000 0000 0000 0000 0000 0000 0000 0000
00000160: 0000 0000 0000 0000 0000 0000 0000 0000
00000170: 0000 0000 0000 0000 0000 0000 0000 0000
00000180: 0000 0000 0000 0000 0000 0000 0000 0000
00000190: 0000 0000 0000 0000 0000 0000 0000 0000
000001a0: 0000 0000 0000 0000 0000 0000 0000 0000
000001b0: 0000 0000 0000 0000 0000 0000 0000 0000
000001c0: 0000 0000 0000 0000 0000 0000 0000 0000
000001d0: 0000 0000 0000 0000 0000 0000 0000 0000
000001e0: 0000 0000 0000 0000 0000 0000 0000 0000
000001f0: 0000 0000 0000 0000 0000 0000 0000 0000
0.0 0.0 0.0 0.0 0.0 0.0 0.0 0.0
0.0 0.0 0.0 0.0 0.0 0.0 0.0 0.0
0.0 0.0 0.0 0.0 0.0 0.0 0.0 0.0
0.0 0.0 0.0 0.0 0.0 0.0 0.0 0.0
0.0 0.0 0.0 0.0 0.0 0.0 0.0 0.0
0.0 0.0 0.0 0.0 0.0 0.0 0.0 0.0
0.0 0.0 0.0 0.0 0.0 0.0 0.0 0.0
0.0 0.0 0.0 0.0 0.0 0.0 0.0 0.0
0.0 0.0 0.0 0.0 0.0 0.0 0.0 0.0
0.0 0.0 0.0 0.0 0.0 0.0 0.0 0.0
0.0 0.0 0.0 0.0 0.0 0.0 0.0 0.0
0.0 0.0 0.0 0.0 0.0 0.0 0.0 0.0
0.0 0.0 0.0 0.0 0.0 0.0 0.0 0.0
0.0 0.0 0.0 0.0 0.0 0.0 0.0 0.0
0.0 0.0 0.0 0.0 0.0 0.0 0.0 0.0
0.0 0.0 0.0 0.0 0.0 0.0 0.0 0.0

network_body._body_endoder.seq_layers.2.weight f4 [128, 128]
00000000: c994 adbd dad3 ca3b bfc6 573e 8507 c8bb
00000010: b26d 84bb b9ca b2bc cefc 07be 2000 8cbd
00000020: 056d 0abe cb27 323e 7613 e23d 1da9 47bd
00000030: 961d bd3d ba81 933c 6959 73bd c4fd fdbc
00000040: dd84 553e 4078 903c 9865 bcbd b116 9dbc
00000050: dbf6 dcba d77f 41be bb16 133d aabf a0bd
00000060: 2d07 65bd 35df dc3d b3c2 553c 88b6 a23d
00000070: 51ff 36be 2c1d a43d 4e63 9ebd 9254 c6bc
00000080: b5c5 943d 54ed 24bc 021a ce3a 162b d6bd
00000090: 6105 0a3e ed56 7d3c 2cbe 23be d046 9ebd
000000a0: 1869 fa3d 6b05 19bc 5851 623d 72df 0c3d
000000b0: 303f e5bd 5e37 883d bc0a 983d 3fbf e23d
000000c0: 042f 12bd 01ca f23d a4fd 9d3d d456 e5bc
000000d0: 5ae7 cfbd 317d ba3d 10a8 a2bc 2188 0c3e
000000e0: baf3 ad3d 413f 7bbd 1a6b f7bd 47e9 143e
000000f0: 27a2 173d 386f 083e b688 9b3a 5ffd 533d
00000100: 2fa9 aebd 2e97 a53d 0001 78bd df16 e53d
00000110: 1a9c 10be 0a17 afbc b251 883b b74a 29bb
00000120: a52f 40be bc51 083e a0be a13d ca61 a43d
00000130: 06e0 71bd 9efe 3dbe 4030 a33c 1ff9 c1bd
00000140: 8d9a fc3d 6f90 b03d 0ca1 333e 05a3 2b3d
00000150: 57d5 1ebd 0912 c93c a0b9 373e 9b10 2dbd
00000160: 66e0 ebbd 987e 8ebd 2ee3 123b d5e7 94bd
00000170: eeb6 4bbd ca70 00be 3939 d53d 07ff 423c
00000180: bbd7 3abe b980 c2bd 1dc4 01bd 29bd 5ebd
00000190: 0180 e2bd ad76 abbd 9dc7 dcbd ae99 cd3c
000001a0: 726c c5bd 5007 583e 4b1a 6dbd e802 b63d
000001b0: 4bfa 13be 9315 0c3d 5c92 aa3d 705e 953c
000001c0: b3f1 173d 0490 34bd b6a2 30bd d445 3abd
000001d0: 1f62 423d 02ac 223d 2ae3 973d 5a44 f6bd
000001e0: bd00 2a3a 4b11 783d ce16 8d38 5166 06be
000001f0: daf7 503d 42d9 1d3c d0ac cd3d 7036 cb3d
00000200: 1a24 39bd 4cb3 d33d 5906 8ebc d1b8 c2bc
00000210: eb71 09bd 2c08 bdbc 1063 fc3d 5b8e 143d
00000220: de3c b53c 1eda 08bd 7873 31bd 8f88 abbd
00000230: 3540 7ebd 77e9 a9bc 192a 84bc e1bb 983c
00000240: 2923 9fbc 4e3e 40be e8f3 18bc 6344 c1ba
00000250: 1cfc 2bbc b767 423d c707 8a3d 9718 82bd
00000260: 0a17 edbc e267 42be 4375 023c 1ed4 253d
00000270: 7117 193d 3666 e3bd 483b 53bd 3749 afbd
00000280: 7064 713d 3fe7 a8bb 69b2 e9bd 36dd bfbb
00000290: ad03 a7bd b89c 53bd 221b e53d b17b 47be
000002a0: 3e2c dfbd 9a8a 423d 0dec 063e 5e14 6fbe
000002b0: 2f60 e33d ed5a ff3c 3308 a63d b80b 123d
000002c0: e5cf a83c 16fb 063e 5091 81bc 5b97 e03c
000002d0: 01f7 cf3d c4a8 283d 1422 ef3d 0f5f b2bd
000002e0: c1b4 5abb 3e07 14be e22f 08be 4b4d 843d
000002f0: 5720 b9bb de78 22be e158 4cbd cd2f 05be
00000300: 977a 3fbd b1da 4f3c 8c67 b13d 966b 363c
00000310: 5019 9dbb cd94 da3c 6c47 e8bd 041b 9d3d
00000320: d933 a5bd 3df0 033e 3775 35be ccf4 d0bd
00000330: a1ea a3bd 7168 9c3b b483 46bc 5aff 96bd
00000340: 4ab1 843d 4831 10bd cdb4 fe3c ba8a c83d
00000350: bbc5 74bc b78a 3cbe 8468 edbb 70b2 3dbe
00000360: c73b d83c 9f55 c7bd 6b12 f13d b305 c4bc
00000370: ed40 ee3d c72a 1dbb 6913 b4bd b335 44bd
00000380: 2911 7fbc 6953 ec3d 1bc0 723d 2f00 cf3c
00000390: c9d9 9c3d 321f 13be 2610 f53c 0eee 93bd
000003a0: f344 ce3d 7e1e fb3b 60ec 543d 3ec8 45bd
000003b0: 8d5b 7cbe 2726 1bbd 197b bf3d 6b91 05bd
000003c0: 46ee b33d aa49 d13d d45e 10be b3db 74be
000003d0: 8988 46bd 529f 0bbd d821 a53c bb07 25bd
000003e0: 9752 a4bd 37d9 81bc 7dbb e53a 878c e2bd
000003f0: dc2a 7f3d 7f25 e53d c6fd 9ebc 1c94 983d
-0.08475644 0.0061898055 0.2107191 -0.006104412 -0.004041397 -0.021825181 -0.13280031 -0.06835961
-0.1351815 0.17397992 0.11038868 -0.048745263 0.09234159 0.018006194 -0.05941144 -0.031004794
0.20851465 0.017635465 -0.09199065 -0.01917586 -0.0016858237 -0.18896423 0.03591035 -0.07849057
-0.055915046 0.10784761 0.013046908 0.07944971 -0.17870833 0.080133766 -0.077337846 -0.024210248
0.07264272 -0.010066349 0.0015724304 -0.10457437 0.13478614 0.015462619 -0.15990514 -0.0772835
0.12227076 -0.009339671 0.055253357 0.03439278 -0.11193693 0.066511855 0.074239224 0.110716335
-0.03568937 0.118549354 0.07714394 -0.027995504 -0.10151549 0.091059096 -0.01985553 0.13723804
0.08493753 -0.06133962 -0.12080975 0.14542113 0.037019875 0.13323677 0.0011866305 0.051755305
-0.08528363 0.08085476 -0.06054783 0.11186003 -0.14122048 -0.02137329 0.0041601295 -0.0025831887
-0.18768175 0.13312429 0.07897687 0.08026464 -0.059051536 -0.1855416 0.019920468 -0.09471344
0.12334166 0.086212985 0.17541903 0.041903514 -0.038777675 0.024544733 0.17941904 -0.042252164
-0.1151741 -0.069577396 0.0022413242 -0.07270781 -0.049735002 -0.12543026 0.10411305 0.011901624
-0.18246357 -0.09497208 -0.03168117 -0.054379616 -0.11059571 -0.08372245 -0.10780261 0.025097694
-0.09639825 0.2109654 -0.057886403 0.08887273 -0.14450948 0.034200262 0.08328697 0.018233508
0.037095737 -0.044082657 -0.043123923 -0.04547675 0.047456857 0.03971482 0.07416375 -0.12024756
0.00064850954 0.060563367 6.7276516e-05 -0.13124968 0.05101762 0.009634318 0.10042727 0.099224925
-0.045200445 0.103369325 -0.017337011 -0.023769768 -0.033555906 -0.023075186 0.12323582 0.036268573
0.02212375 -0.033411138 -0.04332301 -0.08375656 -0.06207295 -0.020741208 -0.016133355 0.018644275
-0.019425945 -0.18773767 -0.0093354955 -0.0014745112 -0.010497119 0.04746219 0.06739765 -0.063523464
-0.02894165 -0.1898494 0.007962528 0.040485494 0.03737587 -0.111034796 -0.051570207 -0.085588865
0.058933675 -0.00515452 -0.11410982 -0.005855228 -0.08154998 -0.05166313 0.11186816 -0.19480778
-0.108971104 0.047495462 0.13175984 -0.23347613 0.1110233 0.031171286 0.081070326 0.035655707
0.020606944 0.13181719 -0.01581636 0.027415922 0.10154534 0.041176572 0.11676422 -0.08709537
-0.0033371898 -0.14455888 -0.13299516 0.06460055 -0.005649607 -0.1586642 -0.04988945 -0.13006516
-0.04674777 0.012686417 0.08662328 0.011134049 -0.0047942773 0.026682282 -0.11341748 0.076711684
-0.0806653 0.12884612 -0.17720495 -0.10202941 -0.08003736 0.0047731926 -0.012116361 -0.07372923
0.06479128 -0.03520325 0.031092072 0.09792085 -0.014939721 -0.1841229 -0.0072451252 -0.185251
0.026395692 -0.09733128 0.11771091 -0.023928499 0.11633477 -0.0023981796 -0.08792765 -0.047902774
-0.015568056 0.11539347 0.059265237 0.025268642 0.07658727 -0.14367369 0.029914927 -0.0722314
0.10071745 0.007663547 0.051983237 -0.04828667 -0.24644299 -0.03787818 0.09349651 -0.032609385
0.087856814 0.102191284 -0.14098674 -0.23911934 -0.048470054 -0.034087487 0.02015774 -0.040290575
-0.08023565 -0.015850646 0.0017527189 -0.1106196 0.062296733 0.111887924 -0.019408118 0.074501246

action_model._continuous_distribution.log_sigma f4 [1, 2]
00000000: 0000 0000 0000 0000
0.0 0.0

action_model._continuous_distribution.mu.weight f4 [2, 128]
00000000: 252c efbc d0b9 063c afbd f13c f214 7bbc
00000010: 6c7c 8a3c 06a4 2b3d 6a00 d8bc e202 6f3b
00000020: 7945 963c 4a32 c13b 37bd c6bb 5f3e 043c
00000030: 9841 ed3c b269 d4bc 3b4c 043c af86 753d
00000040: 8d85 dc3c ad69 e6bc 7e34 433c eb2b 113d
00000050: 6ed3 16bc 1a8f 19bc 0b03 93bb a572 aeba
00000060: bf93 2cbd b5fa de3c dfb4 353c 4ad5 833c
00000070: 91c3 9bbb 1953 a7bb 7ac2 09bd 5d8c bd3b
00000080: b0ab b83b 4333 9cbc 0fee 45bb 7540 febb
00000090: 31ae cabc ebf8 903b 98ed b4bc db9d fc3c
000000a0: 7975 30bc 00ae d3bb 498f 803c 21e5 953c
000000b0: 038d 1fbb 6b66 d43c cfb0 45bb 1d8b 56ba
000000c0: 9d3f d63b 1a09 b33b 6164 b4bb d3cf 3cbc
000000d0: 0f69 d23b 603b 4f3c c884 fd3b c79b 10bd
000000e0: 92d3 543c 5eb0 2abb 4ba1 0b3d 461d 01bc
000000f0: 9863 5e3c 00fb fe3b df9b 643c 7cf2 a1ba
00000100: 5814 223c bcec b63c 10eb 5c3b 2f70 92ba
00000110: 8a2e 603c 5053 3e3c 4d71 a43c faf2 c63c
00000120: 1f9d 76bc f34a 6bbc 6d1e febb 9793 f9bc
00000130: 6542 eb3a 84af 0abc 85e2 c3bb 6561 f9bb
00000140: fb62 8139 af4c aabc 312b cb3c e012 823b
00000150: dc00 373b 77c5 223c aeac 06ba 6f4e d6bc
00000160: 80d1 46bc 3f8f db3b af2e 8ebc 8d6b 20bc
00000170: f2e1 673c edee a23c 0937 bfbc 32d2 dabc
00000180: e838 14bc 1b53 6cbc b3ab 3dbc b892 2fbc
00000190: 8b0d 073d 8f65 b3bc 53d7 5e3c 7f39 90bb
000001a0: 97c7 573c 6d7d 77bc bd2f 623c b6dc 3aba
000001b0: c2b8 b33c 8495 2dbb 9ba8 643c 6cb9 2abb
000001c0: b711 d83c b36f 92bb 6895 0d3c 70db 9e3c
000001d0: 8065 bf3c 2c7a 99ba 6bb1 283c 3b13 0abc
000001e0: 93b5 93bc 5411 c6bc 7826 fe38 ac13 0b3c
000001f0: 72ea 57bc e5ef 1a3c 71ab 413b 2d3a 9ebc
00000200: b7ca d9bc fb05 a93c 9e79 963c 1863 813b
00000210: db1b 51bc 1704 8d3b 1458 3abc 51f7 29bd
00000220: ae91 843b 2db7 003b 0851 2cbd 5568 11bc
00000230: 0d11 9fbc 131d fcba eec5 c3bc 62aa babc
00000240: 4309 89bb a90a be3c 93c4 ff3c 93bc e7bb
00000250: eecf 043c 8469 033d 70f1 9fbc e0d3 4e3c
00000260: 783a 05bc 8af7 49bc 671c d739 4acd 22bc
00000270: 9b2c b03c 0a81 213d 20a2 d33c b03a 273b
00000280: 6708 4239 e543 d83b fd5c 08bd 2ddd 51bc
00000290: 8f45 813c 6bbe ccbb c5bd 05bc 838b 9e3c
000002a0: ab04 b7bc 071b 52bb 65d7 bbbc b7a5 ea3b
000002b0: d310 e0bc 8a41 e4bc 6ed0 163c dc30 4b3c
000002c0: 5b32 9fbc 5a24 62bb 0576 5abc f56c e23a
000002d0: 922a c83c ba7e 263c a2e5 423d bf50 283c
000002e0: 837f 72bc 450e c83c 8df2 513b 6014 da3b
000002f0: 5345 afbc 8e31 8b3a 3cdd 9a3b 5333 7c3c
00000300: 7b18 85bb 944e 13bc 487d babc b3cc 9b3c
00000310: 56e4 8dbc d3ab f03c b431 863c e231 b43b
00000320: 0b7e 01bd 4052 bb3c 28e9 d5bb 8de3 e43c
00000330: 03a2 133c 18f3 bebc 8dd3 923c dff9 813c
00000340: 13cf 1fbd f2a5 2c3c 9f79 32bd 687f c5bc
00000350: bdfe 07bd e215 eabc dd14 97bc b660 9bbc
00000360: c55b 71bc 52ab 4f3c d817 663c f9c4 8e3c
00000370: 534b babb e570 84bc 0863 7e3c 1d5a f13b
00000380: 52de 613b f320 86bc 97dd b0bc da06 81bc
00000390: 45e4 6a3c cf6d cf3b 9158 80bc 4247 8e3c
000003a0: 9613 a4bc 6519 60bc ed22 2bba d05e 6f3b
000003b0: e060 d5bc 7dec 293b f1bd 853b b44d 4abc
000003c0: 1297 663c d6e2 92bc 3a67 5c3c b738 8dbc
000003d0: 2205 343c b710 debc e23e 32bc 58f6 1d3d
000003e0: b6a4 a7bc 562c 00bc b392 a0bc 4d8f ea3a
000003f0: 8abf dbbb 9567 9bbc 226f 8fbc 3f93 863c
-0.029195854 0.008223012 0.029509393 -0.015324818 0.016905032 0.04190447 -0.026367385 0.0036470224
0.018343674 0.0058958875 -0.0060650366 0.008071511 0.028961942 -0.025929306 0.008074815 0.059942897
0.02691915 -0.028126562 0.011914371 0.035442274 -0.009205682 -0.009372497 -0.0044864467 -0.0013309313
-0.04213309 0.027219156 0.011090486 0.016092915 -0.004753538 -0.0051063416 -0.033632733 0.005784555
0.005635701 -0.019067412 -0.0030201708 -0.0077591487 -0.024741264 0.0044242046 -0.02208595 0.03083699
-0.010770195 -0.0064599514 0.015693324 0.018297734 -0.0024345524 0.025927743 -0.00301652 -0.00081841816
0.006538345 0.0054637315 -0.00550513 -0.0115241585 0.0064212154 0.012648433 0.007736776 -0.03530481
0.012989895 -0.0026045064 0.034089368 -0.0078805145 0.01357355 0.0077813864 0.013953178 -0.0012355591
0.009892546 0.02232968 0.0033709444 -0.0011172349 0.013682971 0.011616543 0.020073557 0.024285782
-0.015052109 -0.014361131 -0.007755092 -0.030465884 0.0017948864 -0.008464698 -0.005977931 -0.0076104873
0.00024678544 -0.020788519 0.024800869 0.003969535 0.0027924096 0.009934775 -0.00051374256 -0.026160447
-0.01213491 0.006700426 -0.017356245 -0.009791267 0.014152991 0.01988932 -0.023341672 -0.026711557
-0.009046771 -0.014424111 -0.011576581 -0.010716133 0.0329719 -0.021899013 0.013601142 -0.0044013853
0.0131701445 -0.015105587 0.013805327 -0.00071282254 0.021938685 -0.0026486823 0.013956214 -0.0026050461
0.026375635 -0.004468882 0.008641578 0.019391745 0.023363829 -0.0011709384 0.010296206 -0.008427436
-0.018030917 -0.024178185 0.00012118829 0.008488577 -0.013178455 0.009456609 0.002955165 -0.01931485
-0.02658592 0.020632735 0.018368538 0.0039485805 -0.012762989 0.004303466 -0.0113735385 -0.041495625
0.0040456867 0.0019640431 -0.042069465 -0.008874972 -0.01941731 -0.0019234739 -0.023898091 -0.022786323
-0.0041820123 0.023198443 0.031221664 -0.0070720403 0.008106215 0.03208305 -0.019524306 0.012623757
-0.008131616 -0.012327084 0.00041029157 -0.00993664 0.021505645 0.039429702 0.025834143 0.0025517158
0.00018504412 0.0065998905 -0.033291806 -0.01280908 0.015780238 -0.0062482855 -0.00816292 0.019353634
-0.022341093 -0.0032059567 -0.022929857 0.007160868 -0.027351772 -0.027863283 0.009204967 0.012401786
-0.019433191 -0.003450653 -0.013333802 0.0017274903 0.024434362 0.01016205 0.047582276 0.010273158
-0.014800909 0.024420867 0.003203544 0.006655261 -0.021395361 0.0010619627 0.00472608 0.015393096
-0.004061756 -0.008990902 -0.022764817 0.019018507 -0.017320793 0.029378807 0.016381122 0.0054991106
-0.031614345 0.022866368 -0.0065280385 0.027940536 0.009010795 -0.023309276 0.01792314 0.015866218
-0.03901584 0.010537611 -0.04357302 -0.024108604 -0.03320192 -0.028574888 -0.018442566 -0.018967014
-0.014731352 0.012675123 0.014043771 0.017427908 -0.005685249 -0.016167114 0.015526541 0.0073654787
0.0034464789 -0.016373133 -0.021590037 -0.015750337 0.01433665 0.006330229 -0.015667232 0.017367963
-0.02002887 -0.0136779295 -0.00065283367 0.0036525019 -0.02604717 0.0025928312 0.0040814807 -0.012347627
0.014074104 -0.01793043 0.0134523455 -0.017238958 0.010987552 -0.02710758 -0.01087925 0.03856501
-0.020464282 -0.0078230705 -0.019601202 0.001789549 -0.006706183 -0.01897029 -0.017509047 0.016427634

action_model._continuous_distribution.mu.bias f4 [2]
00000000: 0000 0000 0000 0000
0.0 0.0

action_model._discrete_distribution.branches.0.weight f4 [1, 128]
00000000: 2f7e 333c 10c1 573c d5b0 b839 e3d3 1b3c
00000010: a7b5 2cbc 8454 95bc eac3 57bb 646b 02bc
00000020: cb48 633b 066b 33bc b0a0 263c 7566 4e3c
00000030: 5d87 083c 9e89 27bb 13ea 88bb 730a f93b
00000040: 586a 603c b864 253b c781 c238 5e7a 87bb
00000050: d7e4 fb3a 812e a3bc a7a8 ee39 0fea ddbb
00000060: 6e0a cabb 4249 8dbc 7323 473a 5b43 93ba
00000070: dcc6 b63c 0b58 24bc e777 b4ba 2732 443c
00000080: d248 7dbb f0cf e33b 4a66 f53b 15c1 93bb
00000090: 3931 15bc 7be3 24ba 05a2 f23b 40e4 8bba
000000a0: d394 033c 3749 0bba 02c5 023c 22ca 1abb
000000b0: 210a 05bc 5a66 133c 5ec0 09bb 1f52 15bc
000000c0: 5556 323c 0386 9c3a 2699 80bc cf1c 19bb
000000d0: df9d 15bc 1ed5 2dbb b29a 9fbc b35c 293b
000000e0: 7b84 c83c c5e9 07bc d761 853b 8b20 f23a
000000f0: b416 0dbc 24d7 36bb 5a04 8bbb 11e6 4bbb
00000100: 77be a2bb cb89 8e3a 57a1 fcba 4b4b 8fbb
00000110: dcdd 2dbb b71c 8b3c 5baa f5bb f362 37bc
00000120: 68a0 553b c5c1 d8ba 0728 b8bb 53bd bb3b
00000130: b5e3 77bc 1768 eabb e3a7 82bc 1732 be3a
00000140: 5870 373c f008 d6ba 8d92 8dbb 4774 123c
00000150: f3fa eebb 1a15 d63b f0f5 e239 cc81 3abc
00000160: c8f0 6ebb d7a7 963c 8b65 b43b afc0 ae3c
00000170: c257 1bbb c5aa c5bb f6d1 893b 8270 5e3b
00000180: 3f8b c83a ae59 033c 4f58 0e3a ab56 933b
00000190: e1ff 8b3c 2117 bc3a b7b7 17bc 10d6 3abc
000001a0: 5cb8 a03b 32c8 f33a a899 703b 21c9 2eba
000001b0: f047 c83b 74e6 08bc 6d5e afba 359a 733c
000001c0: 9b5e 0d3c 0343 b43b 8343 a4bb 91be 9bb9
000001d0: 14ae 49bb 981a 59bc 562a 9f3b 3fa4 9fb7
000001e0: 2921 2bbc 159d 54bc 22b9 d5bb 9fa8 9bba
000001f0: 74c1 053a 6b8f 5d3c a8d8 ebbb 09a9 c43a
0.0109553775 0.013168588 0.00035226965 0.009510967 -0.010541356 -0.018228777 -0.003292317 -0.007960174
0.003468084 -0.010950809 0.010170147 0.01259767 0.008333054 -0.0025564204 -0.0041782944 0.0076001226
0.013697229 0.0025237035 9.274814e-05 -0.0041344604 0.001921798 -0.019919636 0.00045520553 -0.0067722867
-0.006165794 -0.017246846 0.000759653 -0.0011235283 0.02231162 -0.010030757 -0.0013768644 0.011974848
-0.003864814 0.0069522783 0.0074890004 -0.004509101 -0.009105974 -0.0006290001 0.007404568 -0.0010672882
0.008031088 -0.0005313339 0.007981541 -0.0023619016 -0.008120091 0.0089965705 -0.00210192 -0.0091138175
0.010884841 0.0011941794 -0.015698027 -0.0023363119 -0.009131878 -0.0026524733 -0.019482944 0.0025842607
0.024477234 -0.008295481 0.0040705013 0.0018472833 -0.00861137 -0.002789923 -0.004242462 -0.0031112472
-0.004966553 0.0010874806 -0.0019274157 -0.0043729893 -0.0026529944 0.016981466 -0.0074971146 -0.011193025
0.003259683 -0.001653724 -0.005620006 0.0057293563 -0.015129973 -0.0071535218 -0.015949195 0.0014510778
0.011196218 -0.0016329568 -0.0043204487 0.0089388555 -0.007293099 0.006533277 0.00043289317 -0.011383485
-0.0036459435 0.01839058 0.005505269 0.021332113 -0.002370343 -0.00603232 0.0042059375 0.0033941572
0.0015300288 0.008016987 0.0005430029 0.0044964156 0.017089786 0.0014350155 -0.00926011 -0.011403576
0.00490479 0.0018599092 0.003671268 -0.0006667544 0.0061120912 -0.008355726 -0.0013379582 0.014868309
0.008628513 0.0055011525 -0.005012931 -0.00029705887 -0.0030773925 -0.013250969 0.0048573418 -1.903076e-05
-0.010444918 -0.012976904 -0.0065223137 -0.0011875815 0.0005102374 0.013522963 -0.0071974583 0.001500399
