Assets/Result/PlayerAgent_BehaviorCloning/PlayerAgent_0/PlayerAgent_0-21843.onnx (onnx, 80338 bytes, 8 tensors)

network_body._body_endoder.seq_layers.0.weight f4 [128, 10]
0	0x3eb173e6	0.34658736
1	0xbe2dc176	-0.1696833
2	0xbd2e39d2	-0.04253561
3	0xbe82be1b	-0.25535664
4	0xbe61912c	-0.22028035
5	0xbf16a292	-0.5884181
6	0x3e8bc99d	0.27302256
7	0x3e9d15e9	0.3068078
8	0x3f027bc1	0.50970083
9	0x3ecea135	0.40357366
10	0xbd8bd57a	-0.06827827
11	0xbe974f7a	-0.29552823
12	0x3e86eb11	0.26351216
13	0x3ca296af	0.019847242
14	0xbcac8e68	-0.021063998
15	0x3c9f1fa9	0.019424276
16	0xbdc6ab94	-0.09700695
17	0x3f255338	0.64580107
18	0xbe0c260a	-0.13686386
19	0x3ec573a3	0.38564786
20	0x3cc861dd	0.024460727
21	0x3f0f0eb8	0.55881834
22	0x3d55e896	0.052223764
23	0x3db1baa8	0.0867818
24	0x3f249ba9	0.6430002
25	0x3e7afd3c	0.24510664
26	0xbe77621d	-0.24158521
27	0xbf17e9b8	-0.59341
28	0x3e8aad56	0.2708537
29	0xbe8af5ec	-0.27140749
30	0xbf16c355	-0.58891803
31	0xbf17d7ed	-0.5931385
32	0xbe562e1b	-0.20916025
33	0xbf0db7f2	-0.55358803
34	0xbe862262	-0.26198107
35	0xbeeba13c	-0.4602145
36	0xbe7f3fc2	-0.24926665
37	0x3ed6eaab	0.41975912
38	0x3dbc691f	0.09199738
39	0xbf12fbcf	-0.5741548
40	0xbe827129	-0.2547696
41	0xbea5c47c	-0.32376468
42	0xbe0e6438	-0.13905418
43	0x3df5d363	0.120032094
44	0xbf09d63a	-0.5384251
45	0x3f118e52	0.5685779
46	0x3e1ad8b4	0.15121728
47	0x3d861f43	0.065489314
48	0x3ec603f0	0.3867488
49	0xbdda110a	-0.10647781
50	0xbe0c7ab5	-0.13718684
51	0xbe7ac34c	-0.24488562
52	0x3e479109	0.1948892
53	0xbd564600	-0.05231285
54	0xbe944365	-0.28957668
55	0x3b4af4a3	0.0030968569
56	0xbe498f77	-0.19683634
57	0x3e42cc1b	0.19023173
58	0xbe70f63a	-0.23531428
59	0x3e575e84	0.21032149
60	0x3ecc8db7	0.3995187
61	0xbd69e0bf	-0.0570991
62	0x3e0bd57b	0.13655655
63	0x3da539bb	0.08067652
64	0xbde7a92d	-0.113115646
65	0xbe84b2d9	-0.259177
66	0xbeaccb5a	-0.33748895
67	0x3e0d84a8	0.13820136
68	0x3e70b9ce	0.23508379
69	0xbedddc3a	-0.43332082
70	0xbf067a9e	-0.5253085
71	0x3dde6343	0.108587764
72	0xbeb8a1f3	-0.36061057
73	0xbd74f0cd	-0.059799958
74	0xbe6daad6	-0.232097
75	0x3db77ba1	0.08959127
76	0xbe6e7d72	-0.23290041
77	0xbe620250	-0.22071195
78	0xbee21eeb	-0.44164214
79	0x3e5eb52c	0.21748799
80	0xbe302646	-0.172021
81	0xbd0a8220	-0.033815503
82	0xbea7f7eb	-0.32806334
83	0xbe8a19a5	-0.2697269
84	0x3e01b9f8	0.12668598
85	0x3ea1fb4f	0.31637046
86	0x3df2ff6e	0.118651256
87	0xbea4c084	-0.32178128
88	0xbf2e64fd	-0.68122846
89	0xbf6048ec	-0.8761127
90	0xbe5a7d42	-0.21336845
91	0xbe59f719	-0.21285667
92	0xbd9ff9f6	-0.07811348
93	0xbe8d02f3	-0.27541313
94	0xbe7113cc	-0.23542708
95	0xbc7d7db8	-0.015471868
96	0xbdc2880d	-0.09498606
97	0x3ed104ce	0.40823978
98	0x3eeefbf5	0.46676603
99	0x3d782c64	0.06058921
100	0x3da0f188	0.078585684
101	0xbea37de6	-0.3193199
102	0xbcf121e2	-0.029435102
103	0xbc29a9e6	-0.010355448
104	0xbe0dd3ed	-0.13850375
105	0xbea243c5	-0.3169233
106	0xbf2ac09a	-0.66700137
107	0x3d771f05	0.060332317
108	0x3ebac714	0.3648001
109	0xbed76d80	-0.4207573
110	0x3ee29105	0.44251266
111	0x3e1bf345	0.15229519
112	0x3d720786	0.059089206
113	0xbdefd997	-0.11711424
114	0x3ddf96c6	0.109174296
115	0xbc7c0342	-0.015381636
116	0x3e43e076	0.19128594
117	0xbe9726c0	-0.2952175
118	0x3f268496	0.6504606
119	0x3e66b91f	0.22531556
120	0x3c32fec6	0.0109250005
121	0xbc6ba6e0	-0.014383048
122	0x3dd1b780	0.10240078
123	0x3dcca91a	0.09993191
124	0x3d4f94ef	0.050679144
125	0xbcb11f55	-0.021621386
126	0xbd327d79	-0.04357669
127	0x3ef48ab2	0.47762066
128	0xbeb5f941	-0.35541728
129	0xbec3482f	-0.3814101
130	0xbe4fb870	-0.20285201
131	0x3f415eab	0.75535077
132	0x3ebe2e01	0.37144473
133	0xbe70e87b	-0.23526184
134	0xbe710aa4	-0.23539215
135	0x3e8d14c9	0.2755492
136	0xbf3633f0	-0.71173
137	0x3e25d9eb	0.1619641
138	0xbe4e07ec	-0.2012021
139	0x3ceee07a	0.029159773
140	0xbde687f3	-0.11256399
141	0x3ebb3859	0.36566427
142	0xbdcd7671	-0.100323565
143	0x3ed66f38	0.41881728
144	0xbe72f86c	-0.23727578
145	0x3e8891e9	0.2667382
146	0x3c9231d7	0.017846031
147	0xbe4af2c7	-0.19819175
148	0xbeb53c5d	-0.35397616
149	0xbf607fce	-0.87695014
150	0x3ee12de9	0.4398034
151	0xbdcc703e	-0.09982346
152	0x3e4dcc55	0.20097478
153	0x3ec427ff	0.38311765
154	0x3f22a320	0.6353016
155	0x3da11750	0.07865775
156	0x3e9b9b75	0.30392042
157	0xbdd916cb	-0.106000505
158	0x3f19f7d6	0.6014379
159	0x3c4ec183	0.012619379
160	0x3e0dae67	0.1383606
161	0xbec8acb7	-0.3919427
162	0xbe9494d5	-0.290198
163	0xbc0ac28b	-0.008469234
164	0x3e354546	0.17702207
165	0xbf6a40d8	-0.91505194
166	0x3e8faeb6	0.2806298
167	0x3d0ff3a0	0.03514445
168	0xbe912e22	-0.2835551
169	0xbf0fe07b	-0.56201905
170	0xbefdd7b0	-0.4957862
171	0x3ecdeb4b	0.40218577
172	0xbe171b49	-0.14756502
173	0x3e9dda0d	0.30830422
174	0xbc29ee0b	-0.010371695
175	0x3e89c1db	0.26905712
176	0xbf3def2e	-0.74193084
177	0x3e770a3c	0.24124998
178	0x3eceb78f	0.4037442
179	0xbf020e41	-0.50803
180	0xbf0b12fa	-0.5432583
181	0xbe4ff506	-0.20308313
182	0xbe98faec	-0.29878938
183	0xbe458091	-0.19287325
184	0x3f19a795	0.60021335
185	0x3f15ddfd	0.5854185
186	0x3d3bc986	0.045846485
187	0x3e57b53a	0.21065226
188	0x3e8c07c3	0.27349672
189	0x3f18dac5	0.59708816
190	0x3e8b635b	0.2722424
191	0xbe626d30	-0.22111964
192	0xbec7739d	-0.38955393
193	0x3ed7dda2	0.4216128
194	0xbd6fea79	-0.05857322
195	0xbf074d80	-0.5285263
196	0x3e72b860	0.23703146
197	0xbe471cc1	-0.19444562
198	0x3e8b6641	0.2722645
199	0xbe89001a	-0.2675789
200	0xba23fb9a	-0.0006255448
201	0x3ef8f54e	0.48624653
202	0xbbc5d8fc	-0.0060378294
203	0xbe185957	-0.1487783
204	0x3b3efe3f	0.0029143242
205	0x3e701d6a	0.2344872
206	0xbd043e54	-0.032286003
207	0xbf25e9a5	-0.6480964
208	0x3dc37e8a	0.0954562
209	0xbca0d06e	-0.019630637
210	0xbeedd9e4	-0.464553
211	0xbebb1f5a	-0.36547357
212	0x3de26cb0	0.11055887
213	0xbf325943	-0.6966745
214	0x3d1c44e1	0.038151626
215	0x3d3311ab	0.04371802
216	0x3e8c7882	0.2743569
217	0xbe9aa5cc	-0.30204618
218	0x3eb593ca	0.35464317
219	0xbc998d6f	-0.018744199
220	0x3e547fae	0.20751831
221	0xbe90ce6d	-0.2828249
222	0xbcfad581	-0.030619385
223	0xbdba7fc7	-0.09106403
224	0xbde3e44d	-0.11127529
225	0x3d20fe41	0.039304975
226	0xbedecf7b	-0.4351767
227	0x3e37f7cd	0.17965622
228	0x3f03604d	0.5131882
229	0x3d94484d	0.07240353
230	0x3eb46ebf	0.35240743
231	0xbf0af274	-0.54276204
232	0xbc493d63	-0.012282702
233	0xbe0f4495	-0.13991006
234	0x3ef9d3fe	0.4879455
235	0x3e9470d1	0.28992322
236	0xbd450d44	-0.048108354
237	0xbd9e0cd2	-0.07717289
238	0xbe6798b3	-0.22616844
239	0xbe63762b	-0.22213046
240	0xbee67051	-0.45007566
241	0xbe2a2ab6	-0.16617855
242	0x3b3599c9	0.0027710071
243	0xbdf59fd0	-0.119933724
244	0xbd840eb5	-0.06448118
245	0x3e84fcf5	0.2597424
246	0x3e4f31c3	0.20233826
247	0xbf07de6a	-0.5307375
248	0x3d4820ac	0.048859283
249	0x3d5e9b7a	0.054347493
250	0xbdec5f82	-0.11541654
251	0xbe1696f3	-0.1470602
252	0x3e75d5b5	0.24007304
253	0x3ea1c37f	0.31594464
254	0x3f13e032	0.5776397
255	0xbd78ed83	-0.060773384

network_body._body_endoder.seq_layers.0.bias f4 [128]
0	0x3ccf5eda	0.025313783
1	0xbc8c5271	-0.017129155
2	0x3bcda0ed	0.0062752874
3	0x3d1993e0	0.03749454
4	0xbd96bb04	-0.07359889
5	0xbca7c058	-0.020477459
6	0xbca410ae	-0.020027485
7	0xbc18adad	-0.009318751
8	0x3b87d29d	0.00414498
9	0xbc41716a	-0.011806825
10	0xbd7d4ab6	-0.061838828
11	0x3c36f072	0.011165725
12	0xbd26fef7	-0.040770497
13	0xbaa861a2	-0.001284648
14	0xbcab72a6	-0.020928692
15	0xbcd2b95b	-0.02572315
16	0xbc68324e	-0.01417215
17	0xbc8354db	-0.016031673
18	0x3ce007a7	0.027347399
19	0x3ca729f1	0.020405741
20	0xbc741e5c	-0.014899816
21	0xbd406cf9	-0.046978924
22	0xbcb63fa3	-0.022247141
23	0x3c83b59f	0.016077815
24	0xbcf4527c	-0.029824488
25	0x3ca0b0aa	0.01961549
26	0xbd947de9	-0.07250578
27	0xbcffc5b7	-0.031222207
28	0x39c485f7	0.00037483845
29	0x3be71dfe	0.007053136
30	0xbbfe702f	-0.007764838
31	0xbc7271a7	-0.014797605
32	0x3db58a8f	0.088643186
33	0xbc62ac83	-0.013835075
34	0x3b68b505	0.0035508287
35	0xba431772	-0.00074421533
36	0x3d5c2884	0.053749576
37	0xbca369b9	-0.019947873
38	0x3c93558d	0.01798513
39	0x3bb5680a	0.005536084
40	0x3d2137b2	0.039359756
41	0x3ca58dea	0.020209271
42	0xbd0eabae	-0.034831695
43	0xbd655f44	-0.055999056
44	0x3c6cc25b	0.014450635
45	0xbd08f86d	-0.033440042
46	0xbcc2afe9	-0.023765521
47	0xbce7643f	-0.028246043
48	0x3d37e0dc	0.044892177
49	0xbd6a0afa	-0.057139374
50	0xbd954957	-0.07289379
51	0x3d1893f6	0.03725048
52	0xbdcd4345	-0.10022596
53	0xbc9924dd	-0.018694336
54	0xbcbfedda	-0.023428846
55	0x3d5965fd	0.05307578
56	0xbb1a13a4	-0.0023510242
57	0x3da594b0	0.080850005
58	0xbc93f386	-0.018060457
59	0xbcc43a75	-0.023953656
60	0x3cc57447	0.024103297
61	0xbd044c49	-0.032299314
62	0x3d0384fc	0.032109246
63	0xbc24d5a9	-0.010060706
64	0xbd37b969	-0.044854555
65	0xbc1efeb6	-0.0097042825
66	0xbbfa036c	-0.0076298025
67	0x3ccc2a21	0.024922432
68	0x3a918728	0.0011102902
69	0x3d0d28e7	0.034462836
70	0xbcbc8cf1	-0.023016425
71	0xbd7668e9	-0.060158644
72	0xbc91cff4	-0.017799355
73	0xbd841016	-0.06448381
74	0xbd014d81	-0.031568054
75	0x3c028362	0.007965894
76	0xbd378fa1	-0.04481471
77	0x3b73d893	0.0037207946
78	0xbd65efd8	-0.056136936
79	0xbd24405b	-0.040100437
80	0x3d4432f6	0.047900163
81	0x3aea7a1f	0.0017889178
82	0xbca85fe1	-0.020553531
83	0xbc80cd2f	-0.01572284
84	0x3bb13b90	0.0054087117
85	0x3d8ecc5c	0.06972572
86	0xbd562123	-0.052277695
87	0xbcd81e28	-0.026381567
88	0xbdb1cf5f	-0.08682131
89	0xbd0c6ed5	-0.034285385
90	0xbbe80d8a	-0.007081692
91	0x3c82db52	0.01597372
92	0x3dac957b	0.08426949
93	0x3d53a5a6	0.051671647
94	0x3ae206bc	0.0017244439
95	0xbd7d54aa	-0.06184832
96	0xbd235e29	-0.03988472
97	0x3c7cb3e4	0.015423749
98	0xbd1ade62	-0.037809737
99	0x3cab5d99	0.020918654
100	0xbc086bdc	-0.008326497
101	0xbd065bc7	-0.03280237
102	0xbd82d978	-0.06389135
103	0xbcba7d37	-0.022764785
104	0x3a440138	0.0007476988
105	0xbd5171b2	-0.05113382
106	0xbbadb81a	-0.0053014876
107	0xbc51661a	-0.012780691
108	0xbcf7497f	-0.030186413
109	0x39cd2fbc	0.00039136212
110	0x3c5b6598	0.013390921
111	0x3bbac1e1	0.0056993817
112	0xbc66699d	-0.014063266
113	0xbd03afd6	-0.032150112
114	0xbc8e0534	-0.017336465
115	0xbd3c932f	-0.046038803
116	0xbcf45874	-0.029827334
117	0xbcc83dc4	-0.024443515
118	0xbd9d1568	-0.076700985
119	0xbd4d83c9	-0.05017451
120	0x3cae4c66	0.021276664
121	0xba3eaec8	-0.0007273969
122	0x390b4ec4	0.00013285415
123	0xbb8853b9	-0.004160371
124	0xbcd20d39	-0.02564107
125	0xbc02c36b	-0.007981162
126	0xbd15fbe8	-0.03661719
127	0x3b0b0ba9	0.0021216667

network_body._body_endoder.seq_layers.2.weight f4 [128, 128]
0	0xbbeb401e	-0.007179274
1	0x3d6212a7	0.05519357
2	0x3d37947b	0.044819336
3	0xbc73b583	-0.014874819
4	0x3d37e6c3	0.044897806
5	0xbd2c9172	-0.042130895
6	0x3d39a39d	0.04532205
7	0xbd41abc9	-0.047282968
8	0x3cc52e59	0.024069952
9	0xbe16529c	-0.1467995
10	0x3db154f4	0.08658782
11	0xbe2be41b	-0.16786234
12	0x3d471da6	0.04861226
13	0xbc93b9dd	-0.018032962
14	0x3e00bd4f	0.12572215
15	0xbd434c09	-0.047679935
16	0x3d662d82	0.056195743
17	0x3dd1cb48	0.10243851
18	0x3d688bd3	0.05677397
19	0x399cc8bb	0.00029904195
20	0x3d2bf52c	0.04198186
21	0x3d997391	0.07492746
22	0x3e133f2e	0.1437957
23	0x3ce7ccd0	0.028295904
24	0x3e3e64b8	0.18593109
25	0xbd27f5e6	-0.04100599
26	0xbd227b82	-0.039668567
27	0x3db04e70	0.08608711
28	0x3d534b53	0.051585507
29	0x3d8235dc	0.06357929
30	0xbb1c9174	-0.0023890408
31	0xbd23388d	-0.039848853
32	0xbe3d3b95	-0.1847976
33	0xbcd26e8a	-0.025687475
34	0x3cb18a7c	0.02167248
35	0xbdce04b9	-0.100594945
36	0xbd97d8d7	-0.07414406
37	0xbbd8a370	-0.00661128
38	0x3d014af6	0.03156563
39	0x3d6b5801	0.057456974
40	0x3ab9c327	0.001417254
41	0xbb91a705	-0.004444959
42	0xbd3e3dce	-0.04644566
43	0xbe3b28ef	-0.18277334
44	0x3e0ef214	0.13959533
45	0x3e0a0d9c	0.13481754
46	0xbdfef295	-0.124486126
47	0xbbc60f0f	-0.0060442756
48	0x3c9887e5	0.018619487
49	0x3c33da23	0.010977301
50	0xbcffe17e	-0.031235453
51	0xbe0ab7ac	-0.13546628
52	0xbdd7d99f	-0.10539555
53	0xbe20a660	-0.15688467
54	0xbe10961a	-0.14119759
55	0xbe24f127	-0.16107617
56	0x3df6da86	0.12053399
57	0xbcc3d864	-0.023906894
58	0xbbd6c65d	-0.0065544085
59	0x3ce92882	0.028461698
60	0xbc6a9fd6	-0.014320334
61	0x3cc0318a	0.023461122
62	0x3e2315a9	0.15926231
63	0xbe14f03b	-0.14544766
64	0xbdc77015	-0.09738175
65	0xbcd225b8	-0.025652751
66	0xbc54ac7c	-0.012980577
67	0xbcacb40f	-0.021081952
68	0xbe543815	-0.20724519
69	0x3bc8acda	0.006124121
70	0xbd660700	-0.05615902
71	0xbd332bb7	-0.04374286
72	0x3e08f909	0.1337625
73	0xbd935455	-0.071938194
74	0xbd40c526	-0.047063015
75	0xbd908972	-0.070574656
76	0xbd92e00a	-0.07171638
77	0x3dbfabcd	0.0935894
78	0xbc363976	-0.011122098
79	0xbe405952	-0.18784073
80	0xbe565e33	-0.20934372
81	0xbd90adc2	-0.07064392
82	0xbdb7f2eb	-0.0898188
83	0x3cccfb26	0.0250221
84	0x3e2cd7e4	0.1687923
85	0x3d1f577e	0.0389018
86	0x3e04135c	0.1289801
87	0xbdafcfef	-0.08584582
88	0x3db0614d	0.08612309
89	0x3ac6106c	0.0015111095
90	0x3d85d67c	0.0653505
91	0xbe461a21	-0.19345905
92	0x3d1d198e	0.03835445
93	0xbe5a6a25	-0.21329553
94	0xbe473d12	-0.1945689
95	0xbca0d7bb	-0.019634118
96	0x3c7e9154	0.015537579
97	0x3de99400	0.11405182
98	0xbc198b75	-0.009371628
99	0xbd6aa5f3	-0.057287168
100	0xbc7a79bc	-0.015287813
101	0xbdd3c189	-0.10339648
102	0xbc2c8063	-0.010528657
103	0xbc2486aa	-0.010041872
104	0x3d25d0ee	0.040482454
105	0xbda59a73	-0.080860995
106	0xbdb3b27e	-0.08774279
107	0xbd2873ce	-0.041126065
108	0xbc089c36	-0.008338025
109	0x3c5ad079	0.013355368
110	0x3dd245c1	0.10267211
111	0x3b80fc6e	0.003936342
112	0xbd6e18cf	-0.058129128
113	0x3d36701e	0.044540517
114	0xbde13534	-0.10996476
115	0xbd012f75	-0.0315394
116	0x3db16d5b	0.08663436
117	0xbd549c70	-0.051907003
118	0x3dc9cb65	0.098532476
119	0xbcafc8a6	-0.021457981
120	0xbd74efcf	-0.05979901
121	0xbe18510e	-0.1487467
122	0xbd260ad5	-0.040537674
123	0x3d4c9c6d	0.049953867
124	0xbdb1cc27	-0.08681517
125	0x3e5e5434	0.21711808
126	0x3d218404	0.03943254
127	0x3d95e9ef	0.0732001
128	0xbd9846b9	-0.07435364
129	0xbd92a215	-0.07159821
130	0xbd5a1b37	-0.05324861
131	0xbd0d67eb	-0.034522932
132	0x3dbc283a	0.0918736
133	0x3c88b794	0.0166891
134	0x3d912a9b	0.070882045
135	0xbd3eb659	-0.04656062
136	0xbdc81727	-0.09770041
137	0xbd858aa7	-0.065205865
138	0xbd57c75a	-0.05268035
139	0x3e185f27	0.14880048
140	0xbdcb1f14	-0.09918037
141	0x3d63dcd5	0.055630524
142	0x3de36d55	0.11104838
143	0xbd9dba48	-0.07701546
144	0xbd41f948	-0.047356874
145	0xbb294fdb	-0.002583495
146	0xbd327a94	-0.04357393
147	0x3db7c427	0.0897296
148	0xbda924f0	-0.082589984
149	0x3db87977	0.090075426
150	0x3cbe24f4	0.02321098
151	0xbdcae1f1	-0.09906376
152	0xbc813129	-0.015770512
153	0xbe06a385	-0.13148315
154	0x3d80cac6	0.06288676
155	0x3d836235	0.06415216
156	0x3e5b3a45	0.21408947
157	0x3c12be3a	0.008956486
158	0xbdf7b388	-0.1209479
159	0x3dc2a66a	0.09504397
160	0x3d4d3f1d	0.050109018
161	0xbd5acb55	-0.05341657
162	0xbb794ab7	-0.0038038918
163	0xbccd791c	-0.025082164
164	0x3da1e65b	0.07905265
165	0x3a9c5340	0.0011926666
166	0x3d78f857	0.06078371
167	0xbddd89e7	-0.108173184
168	0x3c5929a9	0.013254561
169	0xbd8f2cec	-0.0699099
170	0xbdd9f4dc	-0.10642406
171	0x3d9470e4	0.07248095
172	0x3dfcf0d0	0.12350619
173	0x3c50dcb5	0.012747933
174	0xbd3b031c	-0.045657262
175	0x3d352d00	0.04423237
176	0xbd7aa200	-0.06118965
177	0x3d3d1213	0.046159815
178	0x3de0b596	0.10972135
179	0xbe0ed4be	-0.13948342
180	0xbd26da1c	-0.04073535
181	0xbc607ecd	-0.013702107
182	0xbd713b0f	-0.058894213
183	0xbe046591	-0.1292937
184	0xbd93c539	-0.072153516
185	0x3d0c352d	0.0342304
186	0xbd745d13	-0.059659075
187	0xbe51345f	-0.20430134
188	0x3d8e88d1	0.069596894
189	0x3d7aa983	0.061196815
190	0xbd837650	-0.06419051
191	0xbdb94e42	-0.090481296
192	0xbe31f28a	-0.17377678
193	0xbbd6e928	-0.006558556
194	0xbe079d7f	-0.13243674
195	0xbd085708	-0.033286124
196	0x3d9109ca	0.07081945
197	0x3d165c29	0.036708985
198	0x3e0a9908	0.1353494
199	0xbd5a046a	-0.053226866
200	0x3e2ce5ac	0.16884488
201	0x3da7a41f	0.081856005
202	0x3d571fe5	0.05252065
203	0xbd9b35a9	-0.07578594
204	0x3d2234f7	0.039601292
205	0xbc592fbf	-0.013256012
206	0xbe3ac420	-0.18238878
207	0xbd2e24c9	-0.04251555
208	0xbd569836	-0.052391253
209	0xbd0458c0	-0.0323112
210	0xbd7a43d6	-0.06109985
211	0x3d6eaffe	0.058273308
212	0x3c78be9a	0.015182162
213	0x3c2b8c15	0.01047041
214	0xbdb71a98	-0.08940619
215	0xbd3352bd	-0.043780077
216	0x3de3f666	0.11130981
217	0xbe4b6487	-0.19862567
218	0x3af1c5a4	0.0018445742
219	0xbd4369fb	-0.047708493
220	0xbe0517fa	-0.12997428
221	0x3e098938	0.13431251
222	0xbd67715c	-0.056504592
223	0x3c5f84c2	0.013642492
224	0xbe035167	-0.12824021
225	0xbd9b64b0	-0.07587564
226	0x3d8a6326	0.06757192
227	0xbde21102	-0.110384
228	0xbc1ecd33	-0.009692478
229	0xbd9e271d	-0.07722304
230	0x3cd0e4e4	0.025499769
231	0x3cb39d6b	0.021925649
232	0x3c04cb27	0.008105076
233	0xbdb02f42	-0.08602764
234	0x3d81cb8b	0.06337651
235	0x3e4108a2	0.1885095
236	0x3e2de423	0.16981559
237	0x3db90b4a	0.09035356
238	0xbd8dd8e7	-0.069261365
239	0x3bbc237e	0.0057415357
240	0xbe015533	-0.12630157
241	0x3c97bc46	0.018522393
242	0x3d615948	0.055016786
243	0x3cf4b46f	0.029871194
244	0x3de120a8	0.10992557
245	0x3e0cd614	0.1375354
246	0xbe463a3e	-0.19358155
247	0xbdf43fb7	-0.11926215
248	0xbcadbb77	-0.021207554
249	0x3e07af93	0.1325057
250	0x3dfde147	0.12396484
251	0x3e03ded3	0.1287797
252	0xbbd544d9	-0.0065084514
253	0xbca9faa3	-0.020749396
254	0x3d211ce5	0.039334197
255	0xbc79457e	-0.015214322

network_body._body_endoder.seq_layers.2.bias f4 [128]
0	0x3b11820c	0.0022202758
1	0xbc42b4e3	-0.011883947
2	0xbc8c947a	-0.017160643
3	0xbc620fd2	-0.013797717
4	0xbc250ea3	-0.01007429
5	0xbc94b80f	-0.018154172
6	0xbcf8d641	-0.030375602
7	0x3c9d5882	0.019207243
8	0x3ccfd531	0.025370212
9	0xbce246af	-0.027621595
10	0xbcc61748	-0.024181023
11	0xbc6995e7	-0.014256931
12	0xbcecc0c2	-0.028900508
13	0xbd11792a	-0.03551594
14	0xbccc1c25	-0.024915764
15	0xbb8adbf5	-0.0042376467
16	0x3d0ad739	0.03389666
17	0xbd16b0a6	-0.03678956
18	0x3c824ede	0.015906747
19	0xbbb74342	-0.0055927346
20	0xbb771486	-0.0037701442
21	0x3a7dade8	0.0009677098
22	0xbc905f51	-0.017623575
23	0x3a9c35f9	0.001191794
24	0xbca9a2c7	-0.020707501
25	0xbd2a8839	-0.04163382
26	0xbce28cf0	-0.027655095
27	0x3c7ca0bf	0.015419184
28	0xbcd84d6d	-0.026404107
29	0xbc604e99	-0.013690614
30	0x3bd5b290	0.0065215304
31	0x3b1236ea	0.0022310563
32	0xbba3e9e8	-0.005002249
33	0xbc366c6d	-0.011134249
34	0xbc867549	-0.016413348
35	0xbcfc6ccc	-0.030813597
36	0xbcbcb4ae	-0.023035374
37	0xbc37c5f5	-0.01121663
38	0xbc212d00	-0.009837389
39	0xbd16e0a7	-0.03683534
40	0x3c82790d	0.015926862
41	0xbb1abfb6	-0.0023612804
42	0xbcb81f6a	-0.022475917
43	0xbd0f6c84	-0.035015598
44	0xbb8da566	-0.0043226955
45	0xbd1dbdc2	-0.038511045
46	0xbae59f2e	-0.0017518753
47	0xbce70536	-0.028200727
48	0x38b5209f	8.636829e-05
49	0xbcd16a47	-0.025563372
50	0x3bcfaa68	0.0063374527
51	0xbcd3a18f	-0.025833873
52	0x3cbb0c7f	0.022833107
53	0xbbaffba7	-0.0053705755
54	0xbbb08517	-0.0053869593
55	0x3c27e07f	0.010246395
56	0xbcb4a9d0	-0.02205363
57	0xbd4ab3b4	-0.049487785
58	0x3c97d11c	0.018532328
59	0x3cde83c7	0.027162446
60	0xbafea4ee	-0.0019427815
61	0x3d3270b3	0.04356451
62	0xbc7f81f2	-0.015594946
63	0xbc7ce57a	-0.015435571
64	0xbc31cb1f	-0.0108516505
65	0xbd1c1dcd	-0.038114358
66	0xbd113699	-0.03545246
67	0xbca1050e	-0.01965573
68	0xbd76ab68	-0.06022206
69	0xbb4807e5	-0.0030522284
70	0xbd479ed1	-0.048735444
71	0xbcdd240d	-0.02699473
72	0xbce5c9fd	-0.028050417
73	0x3c458487	0.012055523
74	0xbc24684d	-0.010034633
75	0xbc847746	-0.016170155
76	0x3c4e9d8b	0.012610803
77	0xbc8cb60b	-0.017176649
78	0xbcc6b758	-0.024257347
79	0xbc473a05	-0.012159829
80	0xbc70fe93	-0.014709133
81	0xbd137986	-0.036004566
82	0xbcf7ba68	-0.030240253
83	0xbce84c1e	-0.028356608
84	0x3cd51446	0.026010644
85	0xbc7f7c9f	-0.015593677
86	0xbda0be18	-0.078487575
87	0xbd0f3993	-0.034967016
88	0xbcbb5734	-0.02286873
89	0xbcc814a1	-0.0244239
90	0xbd806027	-0.062683396
91	0xbd888d1d	-0.0666754
92	0xbc1ad8f3	-0.009451139
93	0xbc91552e	-0.017740812
94	0xbca558bc	-0.020183913
95	0xbd107c60	-0.035274863
96	0xbd5cf434	-0.053943828
97	0xbc9177a2	-0.01775724
98	0x3cd9cdee	0.026587453
99	0xbc270466	-0.01019392
100	0x3c0c7163	0.008571955
101	0x3d01c2bc	0.031679854
102	0xbc6f2274	-0.014595617
103	0xbcd6f5b9	-0.026240217
104	0xbd23365d	-0.039846767
105	0xbc9a6449	-0.018846648
106	0xbbd5479d	-0.006508781
107	0xbd243c84	-0.040096775
108	0xbc4264a5	-0.011864816
109	0x3ca0fcb5	0.01965175
110	0xbbc06ebc	-0.0058725756
111	0xbccdd57c	-0.025126211
112	0xbac900f3	-0.0015335366
113	0xbc6a06df	-0.014283865
114	0x3c2e5d02	0.010642292
115	0xbca7fc90	-0.020506173
116	0xbd113485	-0.035450477
117	0xbd03d1e9	-0.032182608
118	0xbc0b679a	-0.008508587
119	0xbc3c6b05	-0.011500125
120	0xbcbdbe30	-0.023161978
121	0x3c62960e	0.013829721
122	0xbc89aca9	-0.016805964
123	0xbc7f779d	-0.015592483
124	0xbbbc8ab4	-0.0057538394
125	0xbc200d89	-0.009768852
126	0xbbfbea0c	-0.0076878127
127	0x3d88c9cf	0.06679117

action_model._continuous_distribution.log_sigma f4 [1, 2]
0	0xbeb0fc0d	-0.345673
1	0xbeb41a57	-0.35176346

action_model._continuous_distribution.mu.weight f4 [2, 128]
0	0x3c0e850c	0.008698713
1	0xbc4ac505	-0.012376075
2	0xb9317264	-0.00016922649
3	0x3d1bf633	0.03807659
4	0xbc58fed1	-0.013244347
5	0x3bc5b6ae	0.00603374
6	0xbbaf03c0	-0.005341023
7	0xbc3fcb41	-0.011706174
8	0xbcf8452a	-0.030306417
9	0xb9dd9cc6	-0.0004226921
10	0xbacab5cc	-0.0015465557
11	0x3b0e7868	0.0021739248
12	0xbc279b16	-0.010229846
13	0x383d1b3c	4.5086475e-05
14	0xbb305d77	-0.0026911178
15	0x3ca6a6a7	0.020343138
16	0x3b390bb6	0.002823574
17	0x3b96b1c3	0.0045988276
18	0xbb8e10de	-0.004335507
19	0xbc32a48a	-0.010903487
20	0xbd0a541c	-0.03377162
21	0xbc9f5a43	-0.01945222
22	0xbc44fe49	-0.012023517
23	0xbc37faa3	-0.01122919
24	0xb9a41b66	-0.0003130093
25	0xbbad90fb	-0.005296824
26	0x3ca83bcf	0.020536331
27	0xbc4d5052	-0.012531357
28	0xbb18aab9	-0.0023295118
29	0x3c66b2bb	0.014080699
30	0x3caf7600	0.021418571
31	0x3cc4dc0c	0.024030708
32	0x3b67e437	0.003538383
33	0xbd42db01	-0.04757214
34	0xbc250b15	-0.010073443
35	0x37bbac49	2.2372364e-05
36	0xbc3b4015	-0.011428853
37	0x3c0a6c77	0.008448712
38	0x3cbb091d	0.022831494
39	0x3ad5eb9f	0.0016320831
40	0xbd8802ee	-0.06641184
41	0x3c5f2d25	0.013621603
42	0x3a44583f	0.00074899563
43	0xbd6a5cca	-0.057217397
44	0x3c9d79f0	0.019223183
45	0xbac7ff35	-0.0015258553
46	0xbc724952	-0.014787989
47	0xbcb7efe7	-0.022453262
48	0x3c2c1178	0.010502212
49	0xb8bdf4fc	-9.057854e-05
50	0xbd92d054	-0.07168642
51	0x3b342399	0.0027487038
52	0xbcdce413	-0.026964223
53	0x3b866249	0.004101072
54	0xbcb31ea5	-0.021865198
55	0x3c1a5196	0.009418866
56	0xbaf54193	-0.0018711559
57	0xbda879a2	-0.082263246
58	0xbca60378	-0.020265326
59	0xbcef23cb	-0.029191872
60	0x3ca93838	0.02065669
61	0x3d189afb	0.037257176
62	0x3c618316	0.0137641635
63	0xbbef9fa4	-0.007312732
64	0xbcab7f2b	-0.020934662
65	0x3d1f4c6b	0.038891237
66	0x3bd513a6	0.0065025864
67	0xbbdaebe5	-0.006680953
68	0x3cbc6d78	0.023001418
69	0xbb9bdaac	-0.0047562923
70	0x3969c623	0.00022294423
71	0x3c5329f7	0.012888423
72	0xbcc231eb	-0.023705443
73	0x3cce2054	0.0251619
74	0xbc6e6d02	-0.014552357
75	0xbcceaf4c	-0.025230072
76	0x3cce3ddf	0.025175987
77	0x3c6318f9	0.013860934
78	0x3cbbcdaf	0.022925226
79	0x3c2c8290	0.010529175
80	0xbb03b664	-0.0020097727
81	0xbbd0d8c3	-0.0063734963
82	0x3c8b7453	0.017023241
83	0x3c4a8332	0.012360381
84	0xbd1eca8e	-0.03876739
85	0x3ca72a03	0.020405775
86	0x3d203b79	0.039119218
87	0x3d6820aa	0.056671776
88	0x3bc651a7	0.006052214
89	0xbde4a9d8	-0.111652076
90	0x3d0e884e	0.03479796
91	0x3d9a8893	0.07545581
92	0x3c1d512b	0.0096018715
93	0x3c26bcb0	0.010176823
94	0xbb7a0af9	-0.0038153513
95	0xbbff3ba9	-0.0077890945
96	0x3d4c8d41	0.049939398
97	0xbc1ffe5b	-0.009765233
98	0x3ceee73b	0.029162994
99	0xbcd8a729	-0.026446896
100	0x3d15095d	0.036385883
101	0xbd12d131	-0.03584403
102	0x3c88635e	0.016648944
103	0xbbb3ce7a	-0.0054872604
104	0xb831c955	-4.2387594e-05
105	0xbab8acf9	-0.0014089636
106	0x3c266eac	0.010158222
107	0xbc15e6b7	-0.009149245
108	0x3be4cefe	0.006982683
109	0xbcd41440	-0.025888562
110	0x3c894154	0.016754784
111	0x3d0a5188	0.03376916
112	0x3d26088b	0.04053549
113	0x3ca08214	0.019593276
114	0x3d192a57	0.037393894
115	0xbc9d467c	-0.019198649
116	0x3b47776e	0.0030436176
117	0xb95e9dd0	-0.0002123036
118	0x3cde4edd	0.027137214
119	0x3abc8fb0	0.0014386084
120	0x3c9a43e6	0.018831205
121	0xbd2318ad	-0.039818455
122	0x3c47bd78	0.012191169
123	0x3bf08065	0.0073395246
124	0xbc3cc9df	-0.011522739
125	0x3c2f132d	0.010685724
126	0xbd28569b	-0.04109822
127	0xbd010587	-0.031499412
128	0xbb0f7429	-0.0021889305
129	0xbc4839d5	-0.0122208195
130	0xbae21c96	-0.0017250951
131	0x3bc2c51a	0.0059439065
132	0x3b1bd50d	0.0023778111
133	0xbcebbf50	-0.028777748
134	0x3a0c588a	0.00053537695
135	0xbd021859	-0.0317615
136	0x3c9d8fdd	0.019233638
137	0xbb809626	-0.003924149
138	0xbbf64f39	-0.0075167683
139	0xbce231d4	-0.02761165
140	0x3b7a2f3b	0.0038175124
141	0x3b17a08e	0.002313647
142	0xbb460503	-0.003021539
143	0x3d357f69	0.04431096
144	0xbd1aa2a0	-0.037752748
145	0x388364cb	6.265341e-05
146	0xbc935704	-0.017985828
147	0xbbd1b27d	-0.0063994513
148	0x3c4cd285	0.012501364
149	0xbc6ac68c	-0.014329564
150	0x3c239b0e	0.009985698
151	0x3d1b7a0e	0.037958197
152	0x3cc12ffa	0.023582447
153	0x3ae2fc68	0.0017317655
154	0x3c090db5	0.008365084
155	0x3c6d021c	0.014465835
156	0x3c11c3b9	0.008896762
157	0x3d03c126	0.032166623
158	0xbb559c79	-0.0032594486
159	0x3cabb6b7	0.020961149
160	0x3b061f41	0.0020465406
161	0x3bb6feab	0.005584558
162	0x3ca22dda	0.019797254
163	0x3cc2ca6f	0.023778168
164	0x3b4dafa2	0.0031385203
165	0xbc4374c0	-0.011929691
166	0xbb9124d4	-0.004429439
167	0xbb7c97e8	-0.0038542692
168	0x3c047793	0.008085149
169	0x3ccc6bab	0.024953684
170	0x3ba5d785	0.0050610923
171	0xbd2e8ce0	-0.042614818
172	0xbd03fcfa	-0.03222368
173	0x3ae7e04c	0.0017690747
174	0x3c683a3a	0.014174039
175	0xbd72a41f	-0.05923855
176	0xbd3f7ec6	-0.04675176
177	0xbb2ebaa1	-0.0026661532
178	0x3d5246e9	0.051337156
179	0x3bc281cf	0.0059358845
180	0x38999e0f	7.325049e-05
181	0xba935f0e	-0.0011243538
182	0x3cb4bd7e	0.022063013
183	0x3d251c16	0.040309988
184	0xbb0054e1	-0.0019581842
185	0x3d9f1a21	0.077686556
186	0x3d610c6d	0.05494349
187	0xbd872cc7	-0.066003375
188	0xbcd2039c	-0.025636487
189	0xbd08cf33	-0.033400726
190	0x3d13ac99	0.036053274
191	0x3cb583bd	0.022157544
192	0x39eb49a2	0.00044877554
193	0x3d33ebff	0.043926235
194	0x3c3e9794	0.011632819
195	0x3cab1af9	0.020886885
196	0x3c16075b	0.009157027
197	0x3adeb21a	0.0016990334
198	0x3ae1d772	0.0017230345
199	0xbc789b6e	-0.015173776
200	0x3c366162	0.011131616
201	0x3d49c497	0.04925975
202	0xbb88f09d	-0.004179074
203	0xbc46b8db	-0.012129034
204	0xbd19e58a	-0.03757242
205	0x3b4a727a	0.0030890987
206	0x3c9cc501	0.019136908
207	0x3cb28f3a	0.021796811
208	0x3a53fd44	0.0008086751
209	0xb855c016	-5.096205e-05
210	0x3c8ef22a	0.017449457
211	0xbc189a4d	-0.009314132
212	0xbc588ddc	-0.013217416
213	0x3cb8aa9f	0.022542296
214	0x3d09bc0f	0.033626612
215	0x3da723af	0.08161103
216	0x3c4dd540	0.01256305
217	0xbd896d95	-0.06710354
218	0xbd37a533	-0.04483528
219	0xbcdc8d0c	-0.026922725
220	0x3c2af6a0	0.010434777
221	0xbc083bf7	-0.008315078
222	0xbb9a39f4	-0.0047066156
223	0xbc6903cf	-0.014222099
224	0xbc4ed3c6	-0.012623733
225	0xbb9f39ac	-0.00485917
226	0x3c398426	0.011323011
227	0x3c532d24	0.01288918
228	0xbbd561c0	-0.006511897
229	0xbcad521d	-0.021157319
230	0xbb817539	-0.0039507416
231	0x3b2de413	0.0026533648
232	0xbbb21c66	-0.0054355143
233	0xbb30fd9b	-0.002700663
234	0xbc67aaaa	-0.014139811
235	0x3c8c5e18	0.017134711
236	0xbc8fc026	-0.017547678
237	0x3c1e862b	0.009675543
238	0x3c89a375	0.016801575
239	0x3cd84416	0.026399653
240	0x3b8a6d20	0.0042244345
241	0xbcf5388b	-0.029934188
242	0x3b91a2a8	0.004444439
243	0x3c227e8c	0.009917866
244	0xbbbe8616	-0.005814324
245	0xb9c5825f	-0.00037671902
246	0xba8a4b58	-0.0010551019
247	0xbc25d194	-0.010120768
248	0x3c7e50af	0.015522166
249	0xbc49359f	-0.012280851
250	0xbc0ba922	-0.008524211
251	0xbb8e1692	-0.0043361867
252	0xbbe3de89	-0.0069540185
253	0x3c59174f	0.013250186
254	0xbd1a319f	-0.03764498
255	0x3da3071d	0.07960341

action_model._continuous_distribution.mu.bias f4 [2]
0	0xbbacf6e7	-0.0052784565
1	0xbbb63e34	-0.0055616144

action_model._discrete_distribution.branches.0.weight f4 [1, 128]
0	0xb9c10f4f	-0.00036823234
1	0x3b38e4ad	0.0028212473
2	0x3c94cf8b	0.01816537
3	0xbbfad110	-0.0076543167
4	0xbc02f784	-0.007993583
5	0xbac9bb71	-0.0015390945
6	0xbb9a53c1	-0.0047096913
7	0x3c062050	0.008186415
8	0xbc225eb0	-0.009910271
9	0x3ca74df5	0.020422915
10	0xbb474f5d	-0.0030412294
11	0x3b58cee7	0.0033082308
12	0x3c2a892b	0.01040868
13	0xbbdc48a0	-0.0067225248
14	0xbbd93513	-0.0066286414
15	0xbab6ea72	-0.0013955368
16	0x3baaaf45	0.005208882
17	0x3a89fd33	0.001052773
18	0x3bce0f77	0.0062884646
19	0xbb4ceff3	-0.003127095
20	0x3a8c9b03	0.001072735
21	0x3bf64bfa	0.0075163813
22	0x3be58217	0.0070040333
23	0xbb88ad9a	-0.0041710855
24	0xbc76ec28	-0.0150709525
25	0xbb52f1d7	-0.0032187605
26	0xbc09ef5e	-0.008418886
27	0x39f6cf48	0.00047075213
28	0xbc5e66a0	-0.013574272
29	0xbc14d985	-0.009085064
30	0x3c8f99bb	0.01752936
31	0x3b982bf7	0.004643913
32	0x3c80ade3	0.015707916
33	0x3bf6e3af	0.007534466
34	0xbc2a486c	-0.010393243
35	0x3c0c560d	0.008565438
36	0xbbb2c03b	-0.0054550446
37	0x3b354a4f	0.00276627
38	0x39931533	0.0002805382
39	0x36c54f82	5.8803134e-06
40	0xbbffd2cd	-0.007807112
41	0x3c3f40f2	0.011673199
42	0x3c3ef800	0.0116558075
43	0x3b30e430	0.002699148
44	0xbc08aa8d	-0.008341444
45	0xbb8eb87b	-0.004355488
46	0xbb92a3ab	-0.004475077
47	0x3c270f6d	0.010196549
48	0x3bab6dba	0.0052315863
49	0xba813b07	-0.000985951
50	0x3c3a05bd	0.011353907
51	0xbb1f6642	-0.0024322425
52	0xbbfbd13d	-0.0076848553
53	0xbc3b62a2	-0.01143709
54	0xbab15d3f	-0.0013531818
55	0x3c235bd9	0.009970629
56	0xbb6886cb	-0.0035480733
57	0xbc9c905c	-0.019111805
58	0xbc26d024	-0.0101814605
59	0x3c157214	0.009121437
60	0x3c936f9d	0.017997557
61	0xbbaf9570	-0.0053583905
62	0xbb27c915	-0.0025602032
63	0xbac3ea5b	-0.0014947163
64	0x3a99a88d	0.0011723206
65	0x3bebd83f	0.0071974094
66	0x3c126f83	0.008937719
67	0x3cbebdeb	0.02328392
68	0xbc08f2f8	-0.0083587095
69	0xbbd4df43	-0.0064963414
70	0x3ba0c6c3	0.0049065067
71	0xbc97afb3	-0.018516397
72	0xbb960621	-0.0045783673
73	0x3b990d13	0.004670748
74	0x3b8d4c1d	0.004312052
75	0x3b23a52f	0.0024970283
76	0x3be224a8	0.0069013424
77	0x3c195de1	0.009360761
78	0x3b967760	0.0045918673
79	0x3c39ab72	0.01133238
80	0xbbdd6a3a	-0.006757048
81	0xbbcf680f	-0.0063295434
82	0x3cd66a80	0.02617383
83	0x3acfc8cd	0.001585269
84	0x3c60e458	0.013726316
85	0x3bb22268	0.0054362305
86	0x3bc833bf	0.0061096842
87	0x3bbc5b67	0.0057482007
88	0x3ba38b3b	0.004990963
89	0x3ca9b44b	0.020715853
90	0xbbd5657d	-0.0065123425
91	0x3bb7617b	0.0055963374
92	0xbb55b082	-0.0032606428
93	0xbb8ebbc2	-0.0043558786
94	0x3c8a9332	0.016915891
95	0xbc5c0678	-0.013429277
96	0x3bf33467	0.0074220183
97	0xbaa071b2	-0.0012240915
98	0xbcacf237	-0.02111159
99	0xba22decb	-0.00062130083
100	0x37c105d4	2.3010107e-05
101	0x3c4f441f	0.012650519
102	0x3c644b70	0.013934001
103	0xbbe06c73	-0.0068488657
104	0xbbffe1fd	-0.0078089223
105	0xbb258af7	-0.0025259831
106	0xbb75bf93	-0.003749822
107	0xbaff8177	-0.001949354
108	0x3a075afb	0.00051633985
109	0xbc3ef798	-0.011655711
110	0xbc09011a	-0.008362079
111	0xbc6310c8	-0.013858981
112	0x3b73e60f	0.0037215983
113	0x3b9a18d4	0.004702667
114	0xb923d9db	-0.00015626049
115	0xbba167e7	-0.004925716
116	0x3b9df206	0.004820111
117	0xbb35aad4	-0.002772023
118	0xbbb5b071	-0.005544715
119	0x3c1cf22b	0.009579222
120	0xbb75a7da	-0.003748408
121	0xbc10981b	-0.008825327
122	0xbae514ff	-0.0017477571
123	0xbbf1ddcf	-0.007381178
124	0x3bfde11a	0.0077477815
125	0x3c517782	0.012784841
126	0x3b9cd37b	0.0047859526
127	0xbc79ccdb	-0.015246595
