Assets/Result/PlayerAgent_BehaviorCloning/PlayerAgent_0/PlayerAgent_0-12641.onnx (onnx, 80338 bytes, 8 tensors)

network_body._body_endoder.seq_layers.0.weight f4 [128, 10]
0.24283002 -0.44816825 0.5320498 -0.52529037 -0.110528134 0.319902 -0.2676009 0.16852334
-0.13452056 -0.40928227 0.01672015 -0.080110766 0.2904877 0.12025881 0.43798333 -0.31649828
-0.5521324 0.2276079 0.6895926 -0.18237557 0.12065704 -0.01941409 -0.46422362 0.19788702
-0.24188781 -0.015398179 -0.0719925 0.5946778 -0.39405328 -0.0931177 0.4027965 -0.23104335
-0.09884258 -0.14393108 0.10133605 -0.13348117 -0.14764978 -0.7507481 0.024460692 0.11877537
-0.35143924 0.28138518 0.30531478 0.027322823 -0.19971418 0.25547558 0.19541389 0.13374215
0.22789425 -0.3075483 -0.64912343 0.64987445 -0.4023054 -0.041649066 -0.29914942 0.1616058
-0.058220413 0.40656474 -0.039484646 0.24524635 0.2158838 -0.34838122 -0.47246754 -0.55926836
-0.47604975 0.35812357 -0.22161101 -0.21151428 0.076369606 0.058392722 -0.024045695 0.38655856
0.75660783 -0.42074478 -0.07263419 -0.058583546 -0.099128604 -0.45106813 -0.04904574 0.644206
-0.42830747 -0.078696184 -0.13869488 -0.4479172 0.6128082 -0.026960509 -0.06061777 -0.19914529
0.015352325 0.28351608 0.17580512 -0.55508566 -0.08051092 0.5205223 0.25600126 0.4663699
-0.02164839 0.0012816053 0.21924534 0.15085016 -0.059397656 0.17225786 0.038841113 0.4711321
0.2168921 -0.23691015 -0.3042085 0.40261793 -0.16032884 0.29972702 0.3731498 -0.42285573
-0.17779957 0.11905533 0.16581471 0.083777815 0.08396881 0.17127137 0.5363229 -0.07124336
0.24871312 -0.30009872 0.829087 0.13137466 -0.36159027 -0.5449624 -0.11395293 0.5332117
0.36731803 0.35197896 -0.28637013 -0.4549525 0.19308183 -0.004545349 -0.015866052 -0.20125236
-0.34580094 0.18240397 -0.64855045 0.2696454 -0.7524017 0.5956859 -0.15311709 -0.03383001
-0.08459489 -0.13490953 0.47162178 0.37305745 0.15299666 0.26903078 0.18257193 0.06813454
0.008289527 -0.27881634 0.90558714 -0.14395006 0.2064528 -0.12006624 0.106522985 0.14418101
0.0007744396 -0.27260938 0.14600678 0.06751527 0.0004593209 -0.009818373 -0.27790764 0.15475994
-0.084642954 0.013649258 0.3062917 0.18412377 0.26511288 0.35008937 -0.3377205 0.030807331
0.20845307 0.3213486 -0.11238676 0.09653767 -0.15307511 -0.09691451 0.07317636 -0.3716698
-0.2114018 -0.033675488 -0.27557644 0.43328527 -0.12857646 -0.6389318 -0.0092936 -0.004691408
-0.265027 0.06097628 0.004953091 0.39952528 -0.14483882 0.13381274 -0.22000931 -0.14230545
-0.084165126 0.14281273 0.15984216 -0.3118744 0.069875285 -0.2298842 0.004671927 -0.2074825
-0.29330397 0.103577554 0.11055433 -0.32334805 0.010376284 0.30120966 -0.05578784 0.17558387
-0.21074635 0.19772819 0.17662515 0.019498505 -0.17899139 0.33693203 -0.18293612 -0.7651087
0.12511787 -0.32036257 -0.58237165 0.11421995 0.38922283 -0.6264769 0.30797237 0.045904484
-0.14630109 -0.59339565 0.35466132 0.19478685 -0.47134838 0.06577185 0.20253015 -0.41647837
-0.12023123 0.13622645 -0.18486944 -0.57514805 -0.16338404 -0.6189033 0.43811786 0.123447366
0.23771456 0.26340652 0.37954015 -0.22186156 0.3142093 -0.17325665 -0.24429068 0.6146719
00000000: 6fa8 783e 4f76 e5be 6a34 083f 6e79 06bf
00000010: 935c e2bd 32ca a33e fc02 89be 6291 2c3e
00000020: c2bf 09be 728d d1be b2f8 883c 1d11 a4bd
00000030: ceba 943e 404a f63d 5a3f e03e 100c a2be
00000040: 8d58 0dbf 0c12 693e 2489 303f a9c0 3abe
00000050: 0a1b f73d 4c0a 9fbc b8ae edbe e5a2 4a3e
00000060: 70b1 77be a548 7cbc ce70 93bd ce3c 183f
00000070: 5ac1 c9be 7eb4 bebd 583b ce3e a196 6cbe
00000080: fb6d cabd ab62 13be 4689 cf3d 4aaf 08be
00000090: 8131 17be 0731 40bf ca61 c83c 8040 f33d
000000a0: d8ef b3be b811 903e 3852 9c3e 1dd4 df3c
000000b0: e081 4cbe b2cd 823e 941a 483e b4f3 083e
000000c0: 1c5d 693e f976 9dbe f42c 26bf 2c5e 263f
000000d0: f9fa cdbe 3698 2abd 1d2a 99be fe7b 253e
000000e0: 8778 6ebd 4129 d03e a7ba 21bd dc21 7b3e
000000f0: a510 5d3e 065f b2be 44e7 f1be 362c 0fbf
00000100: cbbc f3be f95b b73e ffed 62be 3397 58be
00000110: ab67 9c3d 352d 6f3d 7afb c4bc 01eb c53e
00000120: 0db1 413f dc6b d7be 3cc1 94bd 4df5 6fbd
00000130: f003 cbbd 67f2 e6be 30e4 48bd afea 243f
00000140: 1e4b dbbe 772b a1bd 0806 0ebe 6755 e5be
00000150: 00e1 1c3f 49dc dcbc 574a 78bd beec 4bbe
00000160: 5188 7b3c 0529 913e 4206 343e 181a 0ebf
00000170: e9e2 a4bd f340 053f 9912 833e 09c8 ee3e
00000180: f757 b1bc 8afb a73a da81 603e 7778 1a3e
00000190: f54a 73bd 5d64 303e dc17 1f3d 3a38 f13e
000001a0: f618 5e3e 9398 72be 37c1 9bbe f023 ce3e
000001b0: 3e2d 24be d275 993e 7e0d bf3e 8c80 d8be
000001c0: 1711 36be 48d3 f33d 55cb 293e b493 ab3d
000001d0: d7f7 ab3d c361 2f3e 754c 093f 0ae8 91bd
000001e0: a7ae 7e3e 8aa6 99be 0c3f 543f 1487 063e
000001f0: 5c22 b9be a882 0bbf 2760 e9bd 9080 083f
00000200: 1c11 bc3e 9636 b43e 1b9f 92be 89ef e8be
00000210: 3eb7 453e 27f1 94bb 86f9 81bc 1915 4ebe
00000220: d20c b1be 1bc8 3a3e 6707 26bf f60e 8a3e
00000230: 669d 40bf df7e 183f baca 1cbe 5691 0abd
00000240: 1640 adbd b925 0abe 6978 f13e 6301 bf3e
00000250: 28ab 1c3e 67be 893e 23f4 3a3e 1f8a 8b3d
00000260: ccd0 073c 04c1 8ebe 8fd4 673f a567 13be
00000270: 5d68 533e 4ae5 f5bd b928 da3d 30a4 133e
00000280: c303 4b3a 7593 8bbe cd82 153e 7245 8a3d
00000290: 02d1 f039 3edd 20bc e949 8ebe 6479 1e3e
000002a0: 4959 adbd 23a1 5f3c 44d2 9c3e f18a 3c3e
000002b0: e0bc 873e ea3e b33e b4e9 acbe a85f fc3c
000002c0: b974 553e ce87 a43e 082b e6bd 8bb5 c53d
000002d0: b9bf 1cbe 1d7b c6bd 7ddd 953d 814b bebe
000002e0: b779 58be 4fef 09bd 5b18 8dbe 91d7 dd3e
000002f0: 8ca9 03be 0991 23bf 2f44 18bc 62ba 99bb
00000300: 9eb1 87be 44c2 793d 8a4d a23b 948e cc3e
00000310: a150 14be 3506 093e 1f4a 61be 85b8 11be
00000320: c45e acbd 803d 123e aaad 233e 00ae 9fbe
00000330: c61a 8f3d c466 6bbe f716 993b 4b76 54be
00000340: f02b 96be 7820 d43d 4f6a e23d e08d a5be
00000350: 4a01 2a3c 2738 9a3e ca81 64bd 42cc 333e
00000360: e4cd 57be 4279 4a3e 39dd 343e 54bb 9f3c
00000370: 8549 37be 5b82 ac3e 9b53 3bbe 2ade 43bf
00000380: e61e 003e 9006 a4be 4f16 15bf 26ec e93d
00000390: 3748 c73e ca60 20bf 8eae 9d3e 5706 3c3d
000003a0: f4cf 15be c7e8 17bf 2b96 b53e 3476 473e
000003b0: 9354 f1be 64b3 863d 1064 4f3e a73c d5be
000003c0: cb3b f6bd f27e 0b3e 6a4e 3dbe e73c 13bf
000003d0: 254e 27be 7270 1ebf fc50 e03e f9d1 fc3d
000003e0: 726b 733e 38dd 863e 1653 c23e ad2f 63be
000003f0: 0be0 a03e 316a 31be 5627 7abe 235b 1d3f

network_body._body_endoder.seq_layers.0.bias f4 [128]
-0.013610825 0.0018063674 0.021008708 -0.02565718 -0.022931784 0.0070471484 -0.018653441 -0.008829065
0.0023282447 -0.032210883 0.0016283236 -0.01257408 0.012331453 0.026761856 -0.009582332 0.012107777
0.0023630287 -0.016649902 -0.017832367 -0.0489887 -0.015990883 0.009404987 -0.036260754 -0.01841297
-0.0057244217 -0.013971903 -0.016679779 0.02729266 0.0036263168 -0.0027455916 0.02750194 0.00471896
-0.032680806 0.015391435 -0.011101918 0.0128743 -0.02054993 -0.00857465 0.035975542 -0.030175049
-0.00936561 -0.024816658 -0.012048976 0.0017117377 -0.0026585478 0.018053584 0.025974574 -0.023968967
-0.027712692 -0.007483016 0.016255327 -0.023402967 -0.039028995 0.025456319 0.033386003 -0.0072823083
0.00052706513 -0.017083906 -0.057357956 -0.01247844 -0.0074583786 -0.0031577793 0.040172122 0.012062739
0.015393528 -0.017120462 -0.032071363 0.0062712654 -0.0066948496 -0.015292071 -0.033156026 0.012137394
-0.0016900226 -0.037140355 -0.009071171 -0.024109485 -0.0036912735 -0.020531666 0.017826652 0.026265852
-0.012985326 -0.011349056 -0.014707713 -0.0074529117 -0.0024437408 0.024810083 -0.026017494 -0.005151864
0.010594972 -0.020811561 -0.016499989 0.010154125 -0.025429714 -0.014409944 0.0075149178 -0.006500617
0.0058937375 -0.024910497 -0.0054140724 -0.011358009 0.012867749 -0.02585133 0.054495532 -0.03639906
-0.009955163 -0.0071110222 -0.013063667 -0.014548099 -0.02453196 0.0312835 -0.0019968282 0.017547082
-0.03360614 -0.02918907 -0.010528466 -0.013092347 -0.0017603199 0.03514078 -0.0028421988 -0.016783299
0.010902391 -0.0111859925 0.013413037 -0.008900796 0.009155372 -0.0066855242 0.00024910521 -0.019967098
00000000: f0ff 5ebc a2c3 ec3a 741a ac3c 022f d2bc
00000010: 70db bbbc c4eb e63b 1acf 98bc c8a7 10bc
00000020: 7795 183b 8fef 03bd 796d d53a 8403 4ebc
00000030: dd09 4a3c ae3b db3c 37ff 1cbc b35f 463c
00000040: 0bdd 1a3b 6065 88bc 2f15 92bc 60a8 48bd
00000050: 50ff 82bc 6017 1a3c 2886 14bd ccd6 96bc
00000060: ee93 bbbb 69ea 64bc 08a4 88bc db94 df3c
00000070: 80a7 6d3b 62ef 33bb c04b e13c 81a1 9a3b
00000080: 4fdc 05bd 5b2c 7c3c d2e4 35bc baee 523c
00000090: 5458 a8bc b07c 0cbc 175b 133d aa31 f7bc
000000a0: 3772 19bc 4e4c cbbc 1169 45bc 635c e03a
000000b0: 083b 2ebb 1ce5 933c a1c8 d43c 915a c4bc
000000c0: ba05 e3bc 1634 f5bb e429 853c 94b7 bfbc
000000d0: dedc 1fbd c589 d03c c3bf 083d 6ea0 eebb
000000e0: be2a 0a3a 8cf3 8bbc 2df0 6abd 5f72 4cbc
000000f0: 6a65 f4bb bff2 4ebb 868b 243d cba2 453c
00000100: 2335 7c3c 3640 8cbc 435d 03bd 307f cd3b
00000110: 7860 dbbb 988b 7abc 9dce 07bd ecdb 463c
00000120: c083 ddba 7c20 18bd 409f 14bc 4181 c5bc
00000130: 4be9 71bb 0632 a8bc 3309 923c 7c2b d73c
00000140: 68c0 54bc 64f1 39bc 9ff8 70bc 8e37 f4bb
00000150: 2b27 20bb 843e cb3c a422 d5bc f8d0 a8bb
00000160: 8996 2d3c 027d aabc fc2a 87bc 7d5d 263c
00000170: fa51 d0bc b017 6cbc b33f f63b 2103 d5bb
00000180: 4120 c13b 1911 ccbc 8868 b1bb f116 3abc
00000190: 40d3 523c 2bc6 d3bc b536 5f3d 2e17 15bd
000001a0: fb1a 23bc 9403 e9bb fe08 56bc 265b 6ebc
000001b0: 40f7 c8bc 2123 003d 38dd 02bb e6be 8f3c
000001c0: 98a6 09bd eb1d efbc 967f 2cbc 4981 56bc
000001d0: 89ba e6ba c7ef 0f3d 2f44 3abb 217d 89bc
000001e0: f19f 323c 7445 37bc 5bc2 5b3c a5d4 11bc
000001f0: 6a00 163c 3e12 dbbb 569a 8239 0a92 a3bc

network_body._body_endoder.seq_layers.2.weight f4 [128, 128]
0.03609518 -0.07684578 -0.05379041 -0.09036904 0.12883948 0.009626256 -0.12568343 0.07492023
-0.024019023 -0.025747586 0.09081019 0.05414311 -0.08471041 -0.07137631 0.036654636 -0.117228344
0.11852485 0.0679031 0.0141497 0.12664162 0.22573948 -0.026694143 -0.019195477 -0.051417682
0.13150156 0.070683375 -0.06925428 0.086998425 -0.013008083 -0.10966496 0.01887628 -0.03743153
0.026043303 -0.16335031 -0.036349002 -0.03914385 -0.06920152 -0.023761027 -0.038988654 -0.08212638
-0.11060805 0.018654922 0.05188558 0.029753158 -0.010205879 0.0052668364 0.05518319 -0.059071098
0.00349624 -0.12759332 0.16070656 -0.08872246 -0.083292834 -0.04125457 0.089519076 0.00824379
-0.076906815 -0.01604829 -0.26536974 0.07575644 -0.051100675 0.032505985 -0.026334578 -0.0457292
0.059377745 -0.20782296 -0.01756607 -0.09659925 0.084173605 -0.13180797 -0.08820879 0.0003798985
0.0038286059 0.09686254 0.006727578 -0.011208297 -0.0052626594 0.10551767 -0.11147057 -0.08514712
-0.12557241 -0.048630565 0.02722495 0.04737824 0.02072025 -0.1325872 -0.015829261 0.07687755
-0.036248066 -0.008955761 0.0110712685 0.02200517 -0.039564326 0.13509609 -0.037607655 -0.1139855
-0.12330961 0.16389297 0.02672392 -0.07396424 0.048187926 -0.009086082 0.028991476 -0.0520505
0.10202482 0.11307627 -0.0076347515 0.0118551785 -0.004256115 0.18327308 -0.06922533 -0.027086675
0.011934097 0.06259093 -0.2021856 0.02519622 0.086403385 0.056164548 -0.062817246 -0.10096118
0.009377213 0.025346575 -0.07154912 0.048691493 -0.040749844 0.04051566 -0.105322964 -0.10739429
-0.0045552338 -0.13964114 -0.09739484 0.2100103 -0.10190567 -0.16912156 0.09991921 -0.13877626
-0.06638056 -0.11714242 0.039810024 0.067857996 -0.09127751 -0.020542232 0.010615161 -0.0722681
0.05432589 -0.056708 -0.15168287 -0.15267392 0.12717853 0.0026211964 -0.06250733 0.032836102
-0.014952637 0.059540737 -0.10058576 0.08347085 -0.04345061 0.0499381 -0.09018837 -0.02948429
0.30007905 -0.0621317 -0.23668046 -0.0062604025 -0.08746518 0.06814345 0.02124661 0.0042107967
-0.07464374 -0.017384684 0.066998705 -0.06678323 0.11689257 0.12147731 0.11600513 -0.13304287
0.055525254 0.0060090455 -0.00075021014 0.03850586 0.024025308 0.023633499 -0.08150995 0.037764758
-0.22571735 0.06310698 0.14614952 0.12841368 0.054685898 -0.12544101 0.1384818 0.019932745
0.022401119 0.09338129 0.03862548 -0.02486987 0.042365924 -0.029917948 0.044413988 -0.08195157
-0.028784513 -0.08653276 0.1971562 -0.088388175 0.03002094 -0.11305614 -0.06322624 0.05811846
0.01840489 -0.007924371 -0.06603716 0.14975639 0.046075594 -0.17618635 -0.23180957 -0.09918986
-0.031279437 0.02303539 0.010440779 -0.07019635 0.13303472 0.017401667 -0.05577621 -0.07573227
0.055065706 -0.08107363 0.103614256 0.16099112 0.048102897 0.01387564 -0.016217697 -0.06284931
0.0069401194 -0.10306614 0.014052681 -0.0125092 -0.072307885 0.004519916 0.099266864 0.026150385
-0.066049255 -0.039889697 -0.112700865 0.08082648 0.014169359 -0.058896143 -0.018252548 -0.12095987
0.07928708 -0.011343717 -0.02832908 -0.038821593 -0.2230914 -0.084850505 0.017226595 -0.07953765
00000000: 8ad8 133d 5261 9dbd 5553 5cbd 6713 b9bd
00000010: 7fee 033e 72b7 1d3c 28b3 00be c76f 993d
00000020: 8bc3 c4bc 9aec d2bc b1fa b93d 2ac5 5d3d
00000030: a77c adbd be2d 92bd 2c23 163d 6a15 f0bd
00000040: 28bd f23d c810 8b3d 25d4 673c 57ae 013e
00000050: 4028 673e adad dabc d53f 9dbc 599b 52bd
00000060: 58a8 063e 72c2 903d 30d5 8dbd 3b2c b23d
00000070: db1f 55bc 0698 e0bd 6ea2 9a3c ce51 19bd
00000080: c458 d53c 4e45 27be b1e2 14bd 4d55 20bd
00000090: 87b9 8dbd 7ca6 c2bc 91b2 1fbd e031 a8bd
000000a0: 7986 e2bd 35d2 983c f985 543d e5bc f33c
000000b0: 8f36 27bc 6d95 ac3b c507 623d 89f4 71bd
000000c0: 2c21 653b d3a7 02be 4390 243e 1fb4 b5bd
000000d0: 6f95 aabd 8dfa 28bd c755 b73d f610 073c
000000e0: 5281 9dbd b477 83bc 8bde 87be 3126 9b3d
000000f0: f14e 51bd ff24 053d 9dbb d7bc 8b4e 3bbd
00000100: 1436 733d 8bcf 54be b8e6 8fbc d4d5 c5bd
00000110: 3663 ac3d abf8 06be cfa6 b4bd 1d2d c739
00000120: 59e9 7a3b de5f c63d 0473 dc3b 01a3 37bc
00000130: 6372 acbb a619 d83d af4a e4bd 9d61 aebd
00000140: 0e96 00be d830 47bd dc06 df3c af0f 423d
00000150: 84bd a93c f0c4 07be 5eac 81bc fa71 9d3d
00000160: da78 14bd 2fbb 12bc 4464 353c 3044 b43c
00000170: 340e 22bd a156 0a3e 7c0a 1abd 3b71 e9bd
00000180: c089 fcbd 8fd3 273e 1fec da3c 907a 97bd
00000190: b460 453d cadd 14bc 887f ed3c e832 55bd
000001a0: 64f2 d03d 8894 e73d f02c fabb 393c 423c
000001b0: e176 8bbb f0ab 3b3e 03c6 8dbd e0e4 ddbc
000001c0: 3b87 433c ac2f 803d be09 4fbe 4e68 ce3c
000001d0: 42f4 b03d cc0c 663d 54a6 80bd bcc4 cebd
000001e0: e2a2 193c 9fa3 cf3c 5888 92bd bb70 473d
000001f0: 4fe9 26bd c0f3 253d 91b3 d7bd 8af1 dbbd
00000200: 1244 95bb 16fe 0ebe f276 c7bd f10c 573e
00000210: ebb3 d0bd 342e 2dbe 71a2 cc3d 5d1b 0ebe
00000220: 88f2 87bd 5de8 efbd d60f 233d 22f9 8a3d
00000230: b4ef babd 2f48 a8bc 36eb 2d3c 4c01 94bd
00000240: d384 5e3d a646 68bd c152 1bbe 8d56 1cbe
00000250: 173b 023e 61c8 2b3b d803 80bd 267f 063d
00000260: e8fb 74bc fde0 733d e8ff cdbd c4f2 aa3d
00000270: 44f9 31bd e58b 4c3d aeb4 b8bd 0a89 f1bc
00000280: f6a3 993e cf7d 7ebd 5d5c 72be 1024 cdbb
00000290: f220 b3bd cb8e 8b3d 5f0d ae3c b9fa 893b
000002a0: d1de 98bd 536a 8ebc 9e36 893d a5c5 88bd
000002b0: 5f65 ef3d 19c9 f83d 1994 ed3d 643c 08be
000002c0: 736e 633d 87e7 c43b c0a9 44ba 52b8 1d3d
000002d0: b9d0 c43c 0a9b c13c b0ee a6bd 38af 1a3d
000002e0: 7322 67be 3b3e 813d 38a8 153e e07e 033e
000002f0: 52fe 5f3d 9c73 00be 2cce 0d3e ff49 a33c
00000300: 8d82 b73c b13e bf3d c035 1e3d e6bb cbbc
00000310: e487 2d3d 7c16 f5bc 71eb 353d 3ad6 a7bd
00000320: 80cd ebbc 1638 b1bd 51e3 493e dc04 b5bd
00000330: 79ee f53c fa89 e7bd c27c 81bd 9f0d 6e3d
00000340: dac5 963c 39d5 01bc 7e3e 87bd bd59 193e
00000350: c3b9 3c3d 326a 34be 7d5f 6dbe 0e24 cbbd
00000360: de1e 00bd b7b4 bc3c cd0f 2b3c 1bc3 8fbd
00000370: 413a 083e f18d 8e3c 9875 64bd 8519 9bbd
00000380: 948c 613d ee09 a6bd b633 d43d dbda 243e
00000390: 8b07 453d a756 633c fada 84bc 24b7 80bd
000003a0: f169 e33b 5714 d3bd 373d 663c 63f3 4cbc
000003b0: 2816 94bd ce1b 943b 6d4c cb3d 5539 d63c
000003c0: d544 87bd 6163 23bd b6cf e6bd 5b88 a53d
000003d0: 9926 683c 153d 71bd 5e86 95bc cfb9 f7bd
000003e0: 4461 a23d ffda 39bc 6312 e8bc 6403 1fbd
000003f0: 1272 64be 1ac6 adbd ca1e 8d3c a3e4 a2bd

network_body._body_endoder.seq_layers.2.bias f4 [128]
-0.015038371 -1.1972246e-06 0.00027787304 -0.020379495 8.484818e-05 -0.021171678 -0.0014006316 -0.0017865234
-0.010410362 -0.027924342 -0.011505201 -0.0108444365 -0.0053391354 -0.002434496 -0.008339793 -0.012751294
-0.016212951 0.0027465129 -0.010891992 -0.00199302 -0.012611323 -0.009744142 -0.016013905 -0.0104104085
-0.010067224 0.012745199 -0.001552297 -0.01635675 -0.0056169163 0.0061118454 -0.023012336 -0.0053767725
-0.00910421 0.0005920904 -0.009335189 -0.0028234567 -0.028845565 -0.013177102 -0.01400699 -0.002747321
-0.01798195 -0.007989822 -0.013558218 -0.0036343941 0.0077539287 -0.031168086 -0.026419565 -0.0155974
0.0001770669 0.007938975 -0.010893627 -0.012862586 -0.011004265 -0.0063431365 -0.013341723 0.0052698143
-0.01677963 -0.00028199077 -0.01536806 -0.009953629 -0.015319504 -0.005136377 -0.005001866 -0.011515087
-0.010988378 0.0068996106 -0.0077113155 0.0020058283 -0.008459761 0.017531043 -0.011208401 -0.041323803
0.01652467 0.0007594327 -0.007579472 -0.020065237 -0.019837458 -0.022723353 0.0035278406 -0.01311399
-0.010575766 1.4237476e-05 -0.026870554 -0.023116937 -0.015202422 6.0243972e-05 -0.02649376 -0.01441923
-0.008872585 -0.0018506324 -0.021780996 0.019874362 -0.015614539 -0.012664514 -0.023922607 0.0046419385
-0.0027561642 -0.020344857 -0.005042299 -0.021502895 0.00271332 -0.016120808 -0.02693974 -0.0087790815
-0.0108491145 -0.009377463 0.005276351 0.010828124 -0.019300982 -0.004030234 -0.016864821 -0.031775594
-0.00092185696 -0.0165242 -0.017604614 0.004234039 -0.024977438 -0.00087683264 -0.03147496 0.016182141
-0.027237697 -0.0074334154 0.02441271 0.016690288 -0.017761528 -0.013670369 0.008097748 -0.0266799
00000000: 8063 76bc 53b0 a0b5 7daf 9139 e6f2 a6bc
00000010: 85f0 b138 3a70 adbc 6695 b7ba c729 eaba
00000020: 3990 2abc 97c1 e4bc 5080 3cbc ddac 31bc
00000030: eaf3 aebb 118c 1fbb a1a3 08bc ceea 50bc
00000040: 06d1 84bc d7fe 333b 5374 32bc 549d 02bb
00000050: b99f 4ebc e5a5 1fbc 982f 83bc 6b90 2abc
00000060: fff0 24bc 3dd1 503c 7276 cbba 97fe 85bc
00000070: 1c0e b8bb e045 c83b 5e84 bcbc a32f b0bb
00000080: d329 15bc 8436 1b3a 9ff2 18bc be09 39bb
00000090: 894d ecbc c6e4 57bc 937d 65bc 660c 34bb
000000a0: e24e 93bc bee7 02bc 4a23 5ebc 042f 6ebb
000000b0: ab14 fe3b 3754 ffbc d86d d8bc 3d8c 7fbc
000000c0: 09ab 3939 7912 023c 2f7b 32bc 99bd 52bc
000000d0: 3c4b 34bc 16da cfbb 3e97 5abc 68ae ac3b
000000e0: 6f75 89bc 29d8 93b9 51ca 7bbc 8c14 23bc
000000f0: a8fe 7abc 0e4f a8bb b1e6 a3bb c7a9 3cbc
00000100: 9908 34bc 2116 e23b 34af fcbb 3774 033b
00000110: cf9a 0abc 439d 8f3c 71a3 37bc 2643 29bd
00000120: bf5e 873c aa14 473a 385d f8bb da5f a4bc
00000130: 2a82 a2bc 5326 babc 5833 673b 10dc 56bc
00000140: fa45 2dbc 7edd 6e37 a31f dcbc bb5f bdbc
00000150: 9413 79bc 79ae 7c38 7109 d9bc a23e 6cbc
00000160: 525e 11bc eb90 f2ba 0f6e b2bc 8fcf a23c
00000170: 20d4 7fbc d27e 4fbc 58f9 c3bc 671b 983b
00000180: c3a0 34bb 42aa a6bc df39 a5bb d726 b0bc
00000190: f5d1 313b c90f 84bc bbb0 dcbc 23d6 0fbc
000001a0: 7cc0 31bc eea3 19bc 3de5 ac3b 7268 313c
000001b0: 181d 9ebc 0e10 84bb 1828 8abc 2027 02bd
000001c0: c6a8 71ba c25d 87bc 8d37 90bc b2bd 8a3b
000001d0: 7c9d ccbc 3edb 65ba e3eb 00bd 6990 843c
000001e0: 9721 dfbc 0294 f3bb 2afd c73c 12ba 883c
000001f0: a080 91bc aff9 5fbc 6bac 043c ce8f dabc

action_model._continuous_distribution.log_sigma f4 [1, 2]
-0.10114848 -0.12124705
00000000: ef26 cfbd 6050 f8bd

action_model._continuous_distribution.mu.weight f4 [2, 128]
-0.007249346 -0.016033046 0.03236076 -0.006188375 0.007986604 0.0009361745 -0.026885472 0.016728278
-0.0016042062 0.0016075186 0.022791909 0.0125325 -0.009299458 0.028319241 -0.027324356 -0.023689594
0.026272623 -0.029115709 -0.031246116 -0.0051985392 -0.0035288632 0.011054757 0.01375417 0.0023892894
0.000227527 0.025796555 0.01323696 -0.025888827 -0.0030318964 -0.036658376 0.014411749 -0.04076068
-0.0112498 -0.007511752 0.0014442385 -0.014287299 0.02416804 0.02275415 0.0101079205 0.007842765
0.007233452 -0.008289451 0.005321694 0.014954277 -0.0052619777 0.0053304695 -0.0036825996 0.007554376
-0.014975882 0.031941045 2.539406e-05 -0.017238373 -0.002395517 -0.010997817 0.015077067 0.013389824
0.0045696883 -0.018627059 -0.003582388 -0.0017050476 -0.004379995 -0.003581679 0.03407961 -0.0040877187
0.0083583165 -0.0313168 -0.003941122 -0.02719904 -0.005863182 -0.022367712 -0.009782004 -0.023630163
0.0042000078 0.016758546 0.020817049 -0.0005838269 -0.01025962 0.009562407 0.046038892 -0.026487028
-0.006912294 -0.012337827 0.00300319 1.636727e-05 -0.01782006 0.002008843 0.0035855074 0.0103562595
0.011466848 0.019848635 -0.024203701 -0.040500402 -0.0013020076 -0.003305129 0.010375896 -0.015000017
0.0128159495 0.012024928 -0.000575612 -0.0020335834 0.026626123 0.0047432813 -0.0009843173 -0.009670974
0.008135779 0.006789002 -0.01192551 0.023443734 -0.0026181412 -0.002796805 -0.011424352 -0.0057884916
0.02922154 -0.012591581 -0.005248459 0.023219839 -0.0050939093 -0.026306305 -0.00057444203 -0.013033305
-0.013253205 0.008500603 -0.0022624752 -0.048565913 -0.005370706 0.00077624584 -0.009977424 -0.0036633539
0.007078485 -0.025829315 -0.003057273 0.005099474 0.001638481 -0.008453778 0.0027915072 0.01381053
-0.026946705 0.005603439 0.0005874087 0.025196534 -0.014300539 -0.042487744 -0.005297034 0.016418695
-0.013098785 0.0035591119 -0.017873496 0.022664873 0.0076723224 0.0008982399 0.015905108 0.005557748
-0.014056736 0.062133394 0.034105334 0.01820723 0.008151024 -0.0006194653 -0.002729989 0.017118644
0.004786981 0.037548438 -0.024854455 -0.0015322614 -0.0023556664 -0.001232564 -0.007640809 -0.007336526
0.014179064 0.0050355755 0.012153689 0.00034062954 0.030051025 0.0049693775 -0.00045398125 0.009205665
-0.01187177 0.034694124 0.042710695 0.011919267 -0.0063393977 -0.006496399 0.0007474695 -0.026093153
0.00424292 0.004923177 0.012059497 0.021743136 0.015604027 -0.0065808017 0.0043065846 0.013299472
0.0022198933 -0.0077145994 0.0021747944 -0.01562485 0.01354304 -0.023931643 0.012090584 0.018269222
-0.03352503 0.0012963591 -0.0028388465 0.0067678806 -0.017963648 -0.00023964109 -0.04272243 0.009548757
0.027414156 -0.016478408 0.004940129 0.00053384504 0.008815951 0.027814034 0.00037424517 0.009186919
-0.032981556 0.0024728044 0.009532716 0.009535925 -0.010927875 -0.0006644791 0.012374817 0.00015812834
-0.0100417705 0.011026696 -0.009024175 -0.001735336 0.005208457 -0.012315466 0.0013711217 0.012524673
-0.00499784 -0.016878597 -0.04289507 -0.052780394 0.006169947 0.0396651 0.0003888719 -0.020971699
-0.029246312 0.017549189 -0.010779181 0.019483697 0.014572227 0.026406964 0.00488366 0.018226631
-0.00604607 0.00011858946 -0.033105154 0.020139907 -0.0027089235 0.02245784 0.036159877 8.119949e-05
00000000: ec8b edbb bc57 83bc b78c 043d dac7 cabb
00000010: 3fda 023c 9b69 753a ec3e dcbc be09 893c
00000020: 3a44 d2ba 60b3 d23a 19b6 ba3c 1d55 4d3c
00000030: c15c 18bc c1fd e73c 54d7 dfbc ae10 c2bc
00000040: af39 d73c 1184 eebc dbf7 ffbc 8258 aabb
00000050: 8044 67bb 031f 353c 2c59 613c a095 1c3b
00000060: 5094 6e39 4c53 d33c d6df 583c ce14 d4bc
00000070: c8b2 46bb 1827 16bd 421f 6c3c acf4 26bd
00000080: 1551 38bc 2525 f6bb 9a4c bd3a 4615 6abc
00000090: 0efc c53c e966 ba3c b19b 253c f17e 003c
000000a0: 9806 ed3b 7ad0 07bc 9b61 ae3b c902 753c
000000b0: ab6c acbb 38ab ae3b c557 71bb b38a f73b
000000c0: 675d 75bc 9dd4 023d 5405 d537 7d37 8dbc
000000d0: 1bfe 1cbb 3030 34bc cd05 773c fe60 5b3c
000000e0: 53bd 953b c697 98bc 7fc6 6abb e77b dfba
000000f0: 1086 8fbb 9aba 6abb 1097 0b3d 45f2 85bb
00000100: 52f1 083c 0b46 00bd 8724 81bb 85d0 debc
00000110: ef1f c0bb 7e3c b7bc b344 20bc 0b94 c1bc
00000120: 38a0 893b 3849 893c 8488 aa3c f60b 19ba
00000130: f717 28bc a4ab 1c3c 4793 3c3d 53fb d8bc
00000140: 8680 e2bb 9924 4abc 2bd1 443b 724c 8937
00000150: 60fb 91bc cba6 033b d5fa 6a3b 4dad 293c
00000160: 72df 3b3c 9b99 a23c d746 c6bc c0e3 25bd
00000170: 20a8 aaba dd9a 58bb a9ff 293c a2c2 75bc
00000180: fdf9 513c 3404 453c abe4 16ba de45 05bb
00000190: 071f da3c 876d 9b3b 3504 81ba 0173 1ebc
000001a0: ee4b 053c 4776 de3b 3763 43bc 130d c03c
000001b0: 1f95 2bbb 9a4a 37bb 352d 3bbc 63ad bdbb
000001c0: 0362 ef3c eb4c 4ebc 44fb abbb 8837 be3c
000001d0: cfea a6bb 5280 d7bc 2796 16ba a589 55bc
000001e0: f923 59bc 1d46 0b3c 0946 14bb 0ded 46bd
000001f0: bffc afbb fa7c 4b3a 5978 23bc e114 70bb
00000200: a3f2 e73b 0098 d3bc 885c 48bb 7d19 a73b
00000210: 4dc2 d63a b781 0abc b8f1 363b 9045 623c
00000220: 56bf dcbc 0e9d b73b 55fc 193a f668 ce3c
00000230: cf4c 6abc a107 2ebd be92 adbb 8080 863c
00000240: 499c 56bc fd3f 693b 706b 92bc afab b93c
00000250: 1b68 fb3b dc77 6b3a 6e4b 823c c51d b63b
00000260: 394e 66bc 967f 7e3d 09b2 0b3d 5427 953c
00000270: df8b 053c 9d63 22ba 9de9 32bb 663c 8c3c
00000280: 1bdc 9c3b 64cc 193d 929b cbbc 29d6 c8ba
00000290: 8661 1abb fc8d a1ba c05f fabb 3e67 f0bb
000002a0: 4e4f 683c 7801 a53b 4420 473c 8696 b239
000002b0: 912d f63c 29d6 a23b 5504 eeb9 5cd3 163c
000002c0: d081 42bc 6d1b 0e3d 69f1 2e3d 0749 433c
000002d0: b9ba cfbb bfdf d4bb d4f1 433a 4fc1 d5bc
000002e0: 3108 8b3b 9a52 a13b 3295 453c a91e b23c
000002f0: 08a8 7f3c c4a3 d7bb 401e 8d3b 07e6 593c
00000300: a17b 113b c0ca fcbb ff86 0e3b 5fff 7fbc
00000310: a0e3 5d3c 4b0c c4bc 9617 463c 56a9 953c
00000320: 8b51 09bd 98ea a93a f10b 3abb 19c5 dd3b
00000330: 8028 93bc 2a48 7bb9 b7fd 2ebd 6472 1c3c
00000340: a793 e03c bafd 86bc cee0 a13b bcf1 0b3a
00000350: c770 103c 42da e33c 5636 c439 bb84 163c
00000360: ab17 07bd c60e 223b 1c2f 1c3c 923c 1c3c
00000370: d40a 33bc 7030 2eba bfbf 4a3c 41cf 2539
00000380: 3d86 24bc 51a9 343c 22da 13bc 3774 e3ba
00000390: b4ab aa3b cfc6 49bc 36b7 b33a 4934 4d3c
000003a0: ecc4 a3bb fc44 8abc beb2 2fbd 4130 58bd
000003b0: 442d ca3b df77 223d 81e1 cb39 d7cc abbc
000003c0: f695 efbc 51c3 8f3c 299b 30bc 469c 9f3c
000003d0: 5ac0 6e3c 6b53 d83c 1c07 a03b 0450 953c
000003e0: 1c1e c6bb 3bb3 f838 4599 07bd 72fc a43c
000003f0: 3288 31bb 81f9 b73c 611c 143d a549 aa38

action_model._continuous_distribution.mu.bias f4 [2]
-0.003673243 -0.013430313
00000000: cbba 70bb d10a 5cbc

action_model._discrete_distribution.branches.0.weight f4 [1, 128]
0.009089154 -0.0053505083 0.0018779425 -0.0008026757 -0.0087042665 -0.0056996346 -0.028949777 0.0021458983
-0.0021728405 0.006191123 0.015145125 0.0041143075 0.0068117455 -0.0030940322 0.0049447524 0.005467697
0.0028771095 0.007031107 0.0005231432 -0.023643715 0.011566373 0.010905529 -0.0055817124 0.00020424645
-0.011207037 -0.012879518 0.00791433 -0.003362606 0.0044621876 -0.0015780677 -0.008344944 0.007667237
-0.0075891055 -0.0021191372 -0.0052322145 0.0118455235 -0.0066750445 0.0031757646 0.0048115146 0.009557446
-0.010057492 -0.0017328619 -0.008582717 -0.010345474 0.0076384135 -1.0730227e-05 0.004094694 0.00026043536
-0.009247031 0.014362909 -0.006803962 0.0041737556 0.015796153 0.0046270466 0.0064637098 -0.0037168835
0.004226913 -0.0057504233 -0.0048693037 -0.014476078 0.009768594 -0.010011423 -0.0028931908 0.008356
0.007473983 0.007735736 -0.02528672 -0.00230211 0.004501565 -0.0008679161 0.0040871496 0.016656829
-0.010973411 0.0029234146 0.0026211261 -0.01240131 0.0006263615 -0.0013662464 0.001441106 -0.0029800572
0.0036128305 -0.008478682 0.016865982 -0.0063607483 0.006443426 -0.0022723908 -0.00074968627 -0.0052274796
0.00430626 -0.0006230694 -0.0014694362 -0.01534894 0.0048130993 0.001810226 0.0111669395 0.005549369
-0.0048836637 -0.0014828466 -0.004532411 -0.0064517544 -0.0148614 -0.0031252638 -0.012284237 -9.386055e-05
0.011454054 -0.013548017 9.997916e-05 0.010100293 0.0033842493 -0.0078019015 -0.0024109853 -0.01009995
0.0015574645 -0.0049120495 -0.004689661 -0.0022771878 0.021469135 -0.0005613244 0.009665164 0.008642988
0.017032504 -0.0017200386 -0.0065268497 -0.0016855823 -0.0055375057 -0.0058220057 -0.0053168805 0.004566501
00000000: adea 143c 5153 afbb 4b25 f63a a86a 52ba
00000010: 579c 0ebc 00c4 babb 1528 edbc 33a2 0c3b
00000020: 3766 0ebb e7de ca3b 4223 783c 50d1 863b
00000030: 1035 df3b 3fc5 4abb 9707 a23b 5e2a b33b
00000040: e38d 3c3b 3365 e63b 8c23 093a 77b0 c1bc
00000050: e280 3d3c 1bad 323c cce6 b6bb fd2a 5639
00000060: b89d 37bc 9d04 53bc 1bab 013c 2b5f 5cbb
00000070: 8b37 923b 2ad7 ceba 3bb9 08bc 723d fb3b
00000080: 08ae f8bb 39e1 0abb ff72 abbb ba13 423c
00000090: 55ba dabb 7d20 503b e9a9 9d3b d696 1c3c
000000a0: 2ec8 24bc 3221 e3ba 869e 0cbc 1080 29bc
000000b0: a84b fa3b f905 34b7 c82c 863b 0b8b 8839
000000c0: dc80 17bc 6852 6b3c c5f3 debb 00c4 883b
000000d0: ef66 813c 7b9e 973b 87cd d33b f596 73bb
000000e0: eb81 8a3b 0c6e bcbb ae8e 9fbb 122d 6dbc
000000f0: 740c 203c f406 24bc b09b 3dbb 9be7 083c
00000100: 50e8 f43b 0f7c fd3b 1826 cfbc ffde 16bb
00000110: dd81 933b dd84 63ba 7fed 853b e773 883c
00000120: d2c9 33bc c296 3f3b 33c7 2b3b dd2e 4bbc
00000130: 6932 243a 9f13 b3ba 7ee3 bc3a 104d 43bb
00000140: 3dc5 6c3b 2bea 0abc 872a 8a3c d36d d0bb
00000150: 6023 d33b 64ec 14bb 9886 44ba 474b abbb
00000160: 871b 8d3b 7b55 23ba 199a c0ba 1f7a 7bbc
00000170: 34b7 9d3b 1b45 ed3a 8af5 363c 7bd7 b53b
00000180: 2407 a0bb 135c c2ba 9f84 94bb 3d69 d3bb
00000190: 3b7d 73bc 3ad1 4cbb d343 49bc 00d7 c4b8
000001a0: c9a9 3b3c 80f8 5dbc e7ab d138 b37b 253c
000001b0: 48ca 5d3b 18a7 ffbb 9f01 1ebb 437a 25bc
000001c0: d623 cc3a 42f5 a0bb baab 99bb df3c 15bb
000001d0: 0ae0 af3c d825 13ba a35a 1e3c 529b 0d3c
000001e0: c087 8b3c eb72 e1ba 2fdf d5bb c2ee dcba
000001f0: f773 b5bb 86c6 bebb 3a39 aebb 96a2 953b
