Assets/Result/PlayerAgent_BehaviorCloning/PlayerAgent_0/PlayerAgent_0-6917.onnx (onnx, 80338 bytes, 8 tensors)

network_body._body_endoder.seq_layers.0.weight f4 [128, 10]
0	0x3e4c5a30	0.19956279
1	0x3e259823	0.16171317
2	0x3e6ae478	0.22938716
3	0xbdb6462d	-0.08900104
4	0xbe73a2e3	-0.23792605
5	0xbea1b597	-0.31583855
6	0x3e26ffba	0.1630849
7	0x3b71e560	0.00369104
8	0x3c791a51	0.015204028
9	0x3e089256	0.13337073
10	0x3e7c3432	0.24629286
11	0x3eb31a4c	0.34981
12	0x3ee17740	0.44036293
13	0xbe2bdbd4	-0.16783077
14	0xbeb20eb0	-0.3477683
15	0x3eb6478b	0.35601458
16	0xbe5f8fbe	-0.21832177
17	0xbe26837a	-0.16261092
18	0x3ebff108	0.3748858
19	0x3e82f939	0.25580767
20	0xbe95042d	-0.29104748
21	0x3c3e63ba	0.011620456
22	0x3eeeed1a	0.4666527
23	0xbe92bc52	-0.28659302
24	0x3f463bf9	0.7743526
25	0x3e7ee252	0.24891022
26	0xbe29a028	-0.16565001
27	0x3f0b3bcd	0.54388124
28	0xbee20657	-0.44145462
29	0xbbbccfc8	-0.005762074
30	0xbe979f8a	-0.29613906
31	0xbf097468	-0.53693247
32	0x3d228980	0.03968191
33	0x3e9a81ad	0.3017706
34	0xbe64dede	-0.22350642
35	0xbdec9067	-0.1155098
36	0xbe45c716	-0.19314227
37	0xbee7e42c	-0.4529127
38	0x3e7c96b4	0.24666864
39	0xbe9a681a	-0.30157548
40	0x3efba663	0.4915038
41	0x3f065bf1	0.5248404
42	0xbe8c0668	-0.27348638
43	0x3dbd454c	0.09241733
44	0xbd8d23cc	-0.06891593
45	0x3debb14f	0.11508428
46	0x3e775c25	0.24156244
47	0x3f18a2a1	0.5962315
48	0xbeb36ca3	-0.3504382
49	0xbec5ec24	-0.38656723
50	0xbf154fb0	-0.5832472
51	0x3e852be5	0.2601005
52	0xbe9ae085	-0.3024942
53	0xbd96e6f1	-0.07368267
54	0x3f360603	0.71102923
55	0xbe55a3de	-0.20863292
56	0x3e59942d	0.21247931
57	0xbd8b322a	-0.067966774
58	0xbf030de8	-0.51193094
59	0x3f3988e3	0.724745
60	0xbe975d18	-0.29563212
61	0xbea0cdcc	-0.3140701
62	0x3d57b7c7	0.052665498
63	0x3e8f238d	0.2795681
64	0x3e21feda	0.15819874
65	0xbd4914fe	-0.049092285
66	0x3e58a8ef	0.21158193
67	0xbda22eee	-0.079191074
68	0xbe9edc5f	-0.31027505
69	0xbd0044ae	-0.031315498
70	0xbe575c43	-0.21031289
71	0x3b84d595	0.0040537813
72	0x3e370db7	0.17876326
73	0x3d9f45ff	0.077770226
74	0xbe836cdc	-0.2566899
75	0xbea6aa1b	-0.32551655
76	0x3ebfdd27	0.37473413
77	0x3eb1ed3f	0.34751317
78	0x3ccc5a42	0.024945382
79	0xbd189bbc	-0.037257895
80	0xbd1e4c27	-0.038646843
81	0xbe6542bd	-0.2238874
82	0x3e6ce38f	0.23133682
83	0x3dd0a1e6	0.1018713
84	0xbdf61ad4	-0.12016836
85	0x3da01f25	0.0781844
86	0xbdf4a28f	-0.11945068
87	0x3d88810d	0.066652395
88	0x3e9c565c	0.30534637
89	0xbe6ab6c0	-0.22921276
90	0x3e231dee	0.15929386
91	0x3de7ebfa	0.11324306
92	0x3e96d6d0	0.29460764
93	0xbdf408c6	-0.11915736
94	0xbeb7ce9c	-0.35899818
95	0x3d60eb7c	0.054912075
96	0x3e9e1286	0.30873507
97	0xbef18d31	-0.47178033
98	0x3e5506c4	0.20803362
99	0x3e3a2424	0.18177849
100	0xbdc687f9	-0.096939035
101	0x3e81e63a	0.2537096
102	0xbe051f92	-0.13000324
103	0xbd3ca07c	-0.046051487
104	0xbe2ca63a	-0.16860285
105	0x3eba2f56	0.3636424
106	0x3e4599a8	0.19296896
107	0x3e63be20	0.22240496
108	0x3df532eb	0.119726025
109	0xbe4b3eb5	-0.1984814
110	0xbe48e0c1	-0.19616987
111	0xbe6b1da1	-0.22960521
112	0x3db2d287	0.08731561
113	0x3e345652	0.17611054
114	0x3da7c563	0.081919454
115	0x3d02cff0	0.031936586
116	0xbdf58af1	-0.119893916
117	0xbcf3155c	-0.02967327
118	0xbdf91623	-0.12162425
119	0xbefb1ef5	-0.49047056
120	0x3d31234b	0.04324655
121	0xbef3567d	-0.47526923
122	0xbdd1a343	-0.10236218
123	0x3e936621	0.28788856
124	0x3e186b74	0.1488474
125	0xbed96297	-0.4245803
126	0xbebc0d00	-0.36728668
127	0xbdf6fd20	-0.120599985
128	0xbeb5a3b4	-0.35476458
129	0xbe826b17	-0.25472328
130	0x3d11d3f3	0.03560252
131	0x3e4f1843	0.20224099
132	0x3efa641e	0.48904508
133	0xbc4338d9	-0.011915409
134	0x3ec5b847	0.38617155
135	0x3e8631ec	0.26209962
136	0xbdbb663d	-0.0915036
137	0x3eaa2dc1	0.33238032
138	0xbd4fc7b9	-0.05072758
139	0xbe97057c	-0.29496372
140	0x3f436a60	0.7633419
141	0x3e5a5ff8	0.21325672
142	0x3de444ce	0.11145936
143	0xbe55327a	-0.20820037
144	0xbf155b91	-0.58342844
145	0xbebf964d	-0.37419358
146	0xbf17be37	-0.5927462
147	0xbe9c1e0c	-0.30491674
148	0x3e7d0693	0.24709539
149	0x3e27582a	0.16342226
150	0xbec4d3da	-0.3844288
151	0x3e5427dd	0.20718332
152	0x3eabb457	0.33536026
153	0x3e8fcc67	0.28085634
154	0xbe8211c5	-0.25404182
155	0xbe6e286e	-0.2325761
156	0xbec697b4	-0.38787615
157	0x3e07e9f5	0.13272841
158	0x3f02fdfc	0.511688
159	0x3e3308c9	0.1748382
160	0xbe9e5f05	-0.3093187
161	0x3e35d6b1	0.1775768
162	0xbe33fe64	-0.17577511
163	0x3e2e83c1	0.17042448
164	0xbe35a718	-0.17739522
165	0xbd9d92f2	-0.07694043
166	0xbdaedcf9	-0.08538241
167	0x3e9a5702	0.30144507
168	0xbc4f49c1	-0.012651862
169	0x3eaa42dc	0.33254135
170	0x3e33730f	0.1752436
171	0xbe5155eb	-0.20442931
172	0x3f11368b	0.5672385
173	0xbe673f51	-0.22582747
174	0x3ed63f85	0.41845337
175	0x3eae1790	0.34002352
176	0xbe8f7c4d	-0.2802452
177	0xbdf317af	-0.11869752
178	0xbbd6e370	-0.0065578744
179	0x3ebb96ad	0.36638394
180	0xbea6db25	-0.3258907
181	0x3f33bf6e	0.70213974
182	0xbe9c6617	-0.30546638
183	0x3e556636	0.20839772
184	0xbdb37020	-0.087616205
185	0xbe196c93	-0.14982824
186	0xbe6d0808	-0.23147595
187	0x3ef709fc	0.48249805
188	0xbdc8c269	-0.09802706
189	0x3e15109a	0.14557114
190	0x3e8fd9e9	0.2809594
191	0xbed07a39	-0.40718248
192	0xbe3872fb	-0.18012612
193	0xbeeddd67	-0.4645798
194	0x3efff8dc	0.49994552
195	0x3ef9b568	0.48771214
196	0xbefe597c	-0.49677646
197	0xbeea547c	-0.4576758
198	0x3e39f10a	0.18158355
199	0x3e98a4bb	0.2981318
200	0xbe620b1f	-0.22074555
201	0xbd4612e3	-0.048357856
202	0x3da711e9	0.08157713
203	0x3df8658e	0.12128745
204	0x3cd346a3	0.025790518
205	0x3eed614c	0.46363294
206	0xbf2f88e6	-0.68568265
207	0x3e4f43b3	0.20240669
208	0x3da6ef54	0.08151117
209	0x3e50d5c6	0.20394048
210	0x3c1a8ab5	0.009432484
211	0xbe834acb	-0.25643
212	0xbf14f99f	-0.5819339
213	0xbec3b2ac	-0.38222253
214	0x3e9a6d86	0.30161685
215	0xbce76169	-0.028244691
216	0x3e45b45f	0.19307087
217	0xbd10984d	-0.035301495
218	0xbeb4ec37	-0.35336468
219	0xbf0d9323	-0.5530264
220	0xbe835167	-0.25648043
221	0x3e55c5eb	0.20876281
222	0xbcbf5343	-0.023355132
223	0x3e91d8f1	0.28485826
224	0xbe27dd49	-0.16393007
225	0x3e44cdea	0.19219175
226	0x3e90e4cd	0.2829956
227	0xbe93f18c	-0.28895223
228	0xbdf10245	-0.11768011
229	0x3db76a65	0.0895584
230	0xbdcaf1a4	-0.099093705
231	0xbee1634e	-0.44021076
232	0x3eba8369	0.36428383
233	0x3eab4cc9	0.3345702
234	0x3c3cee71	0.011531458
235	0xbec7a4ee	-0.3899302
236	0xbec3355e	-0.38126653
237	0x3ec2b761	0.38030532
238	0xbeddea3f	-0.43342778
239	0x3eca3983	0.39497003
240	0xbe12ad7e	-0.14323995
241	0xbdd61e7f	-0.104550354
242	0x3ed17482	0.409092
243	0xbd53faa4	-0.0517527
244	0xbe5a215e	-0.21301791
245	0xbdd95fe5	-0.106139936
246	0x3d779c98	0.060452074
247	0x3edcfa72	0.43159825
248	0xbdd6a1af	-0.104800574
249	0x3e2e9545	0.1704913
250	0xbe8a85d8	-0.2705524
251	0x3d2c3eaf	0.042051967
252	0xbcf77a69	-0.030209737
253	0xbebda280	-0.3703804
254	0xbe8c1478	-0.27359366
255	0xbeec4577	-0.46146747

network_body._body_endoder.seq_layers.0.bias f4 [128]
0	0xbd21b306	-0.03947737
1	0xbc8681d8	-0.016419336
2	0xbcacc333	-0.021089172
3	0xbbf46168	-0.007457901
4	0xbc603df7	-0.013686649
5	0xbbbdb717	-0.0057896483
6	0xbafe35cb	-0.0019394694
7	0xbcf9daa5	-0.030499766
8	0xbbbb6ef4	-0.0057200138
9	0x3bc0f612	0.005888709
10	0x3c5c7cba	0.0134574715
11	0x3c048561	0.008088441
12	0xbab8cc87	-0.001409904
13	0xbbe38b24	-0.006944077
14	0xbd007a30	-0.031366527
15	0xbc16863b	-0.0091872765
16	0xbb42d6d2	-0.0029730094
17	0xbd0c2c7d	-0.034222115
18	0x3c94033c	0.018067949
19	0xbaae0805	-0.0013277536
20	0x3c846dce	0.01616564
21	0x3c8a12b0	0.016854614
22	0xbcc80e2f	-0.024420826
23	0xbc454b36	-0.0120418575
24	0xbbfe473c	-0.0077599566
25	0x3c7bd73a	0.015371138
26	0xbcc2f37e	-0.023797747
27	0x3b08ec2e	0.0020892727
28	0x38d7fc54	0.00010298999
29	0xbc470c9c	-0.012149002
30	0xbc29bb44	-0.010359589
31	0x3c651b19	0.013983511
32	0x3a3b7c93	0.0007152047
33	0xbc7310e3	-0.014835569
34	0xbc08ad5e	-0.008342115
35	0xbc5e1088	-0.013553746
36	0xbbacc277	-0.0052722055
37	0x3c60f7a0	0.013730913
38	0xbb8d1190	-0.004305072
39	0xbc915861	-0.017742338
40	0xbd32e5d4	-0.043676212
41	0xbca903da	-0.02063172
42	0x3bd60c03	0.0065321936
43	0x3bcab179	0.006185707
44	0xbbe2c63b	-0.0069206036
45	0xbce4495b	-0.02786701
46	0x3aa24fbc	0.0012383382
47	0xbb44171e	-0.0029921005
48	0xbb8d63dd	-0.004314883
49	0xbcdd7529	-0.027033405
50	0xbbfff4d3	-0.0078111677
51	0x3a41ccf9	0.0007392909
52	0x3d0e4926	0.03473773
53	0xbc563ddc	-0.013076272
54	0xbc5fa50a	-0.013650188
55	0xbc2e3952	-0.010633783
56	0xbcb13ff0	-0.021636933
57	0x3bdbb59f	0.0067050005
58	0xbbe2fe49	-0.006927286
59	0xbabeff7c	-0.001457199
60	0x3bce4fc6	0.006296131
61	0xbc8715b4	-0.016489841
62	0xbcb16e81	-0.021659138
63	0xbc79d1d2	-0.015247779
64	0xbcc18c64	-0.023626514
65	0xba8f837c	-0.001094922
66	0xbc5d273c	-0.013498124
67	0xbcd8ab63	-0.026448911
68	0x3c13874a	0.009004423
69	0xbcd0046b	-0.025392732
70	0xbc78b1ac	-0.015179079
71	0x3b2846ee	0.0025677043
72	0x3c71073d	0.014711198
73	0xbba83dd5	-0.005134324
74	0xbc5a492b	-0.013323109
75	0xbcb3bc82	-0.021940473
76	0x3c15e424	0.009148631
77	0x3bfad609	0.0076549095
78	0xbc730477	-0.0148326075
79	0x3b7c9ffb	0.0038547504
80	0xbc8610e1	-0.01636547
81	0x3b8a2ecf	0.004217006
82	0x3c793a8a	0.015211711
83	0xbd11c0e7	-0.035584357
84	0xbb5a78ac	-0.0033336086
85	0xbb2a51e8	-0.0025988761
86	0xbd06dcdc	-0.03292547
87	0xbad11cde	-0.0015954038
88	0xbcb67f1e	-0.022277411
89	0xbbb5af47	-0.0055445763
90	0xbc3ffd60	-0.011718124
91	0xbc9af999	-0.018917846
92	0xbc2bd6d0	-0.010488227
93	0xbbf2bc9a	-0.007407737
94	0x3c07aacf	0.00828047
95	0xbad39d20	-0.0016144849
96	0x3c8ba648	0.017047063
97	0x3ab12324	0.0013514501
98	0xbd322fc9	-0.043502603
99	0xbc9c3cbd	-0.019071931
100	0x3bd03ac7	0.006354663
101	0xbac8aeeb	-0.0015310919
102	0x3c06611d	0.008201865
103	0xbc3f09e0	-0.011660069
104	0xbcdb2607	-0.026751531
105	0xbb039929	-0.0020080304
106	0xbd2bd584	-0.04195167
107	0xbca0f25c	-0.019646816
108	0x3c99465b	0.018710306
109	0x3cc389da	0.023869444
110	0xbc1d6c7f	-0.009608387
111	0xbc057f10	-0.00814797
112	0x3c31d9e0	0.010855168
113	0x3c35cede	0.011096684
114	0xbc93d799	-0.01804714
115	0x3c0f5ca6	0.008750116
116	0x3c82bd82	0.015959505
117	0xbc13930e	-0.009007229
118	0xbc96bc39	-0.018400298
119	0xbc0357d5	-0.008016546
120	0xbcf2f08d	-0.02965572
121	0xbc1b7d9b	-0.009490396
122	0xbcbb5130	-0.022865862
123	0xbbff2da2	-0.0077874223
124	0x3ad8e48c	0.0016547604
125	0xbbf69236	-0.007524754
126	0xbcc76d77	-0.02434419
127	0xbbc4e446	-0.0060086576

network_body._body_endoder.seq_layers.2.weight f4 [128, 128]
0	0x3cb74333	0.02237091
1	0x3e8b2a47	0.27180693
2	0x3d53a38f	0.051669654
3	0x3e68c42e	0.22731087
4	0x3dc1030f	0.094244115
5	0xbdd6039a	-0.10449906
6	0x3d2954b4	0.041340545
7	0x3caf5277	0.021401627
8	0xbbad2da9	-0.005284984
9	0xbe3dce3f	-0.18535708
10	0x3d3aa9d6	0.045572124
11	0xbd682ce2	-0.05668343
12	0xbd983cc1	-0.07433463
13	0xbd8b912c	-0.06814799
14	0xbd2e1e76	-0.04250952
15	0x3da1dff0	0.07904041
16	0x3cae3bd8	0.02126877
17	0x3a4a104d	0.00077081175
18	0x3e96b20f	0.29432723
19	0xbc8aafc5	-0.016929517
20	0x3c13b8ff	0.0090162745
21	0xbd05c947	-0.032662656
22	0x3c7c7027	0.015407599
23	0x3daceaf5	0.08443252
24	0x3d4c3331	0.049853507
25	0x3e974195	0.29542223
26	0xbc1bcb66	-0.009508943
27	0xbceca976	-0.028889399
28	0x3d69bb88	0.05706361
29	0x3d892c52	0.066979066
30	0xbdc6ef3a	-0.097135976
31	0x3e3da378	0.1851939
32	0xbe004ef1	-0.12530114
33	0x3de0f0db	0.109834395
34	0x3c23c347	0.009995288
35	0xbd91ad84	-0.071131736
36	0xbe38f690	-0.18062806
37	0x3dadf912	0.08494772
38	0xbd4b6daf	-0.04966515
39	0x3cd58bd0	0.026067644
40	0xbd8ec9b8	-0.069720685
41	0xbd99f30d	-0.075170614
42	0x3cf7a341	0.030229213
43	0x3d6778af	0.056511577
44	0x3cb7a5e2	0.022417966
45	0xbe5b3c75	-0.21409781
46	0x3d813665	0.06309203
47	0x3cfdabb4	0.030965663
48	0x3e041e54	0.12902194
49	0xbdc7c368	-0.09754068
50	0x3c8e1e29	0.017348366
51	0xbe460a78	-0.19339931
52	0x3d1c730d	0.03819566
53	0x3b824b06	0.0039762286
54	0x3d1d1d51	0.038358036
55	0x3cf292b2	0.029610965
56	0xbd68d4c5	-0.056843538
57	0xbe0a6034	-0.13513261
58	0x3cf03dce	0.029326346
59	0xbe390926	-0.18069896
60	0xbc17a6cb	-0.009256075
61	0x3da6e45a	0.08149023
62	0x3d8bb1e6	0.06821041
63	0x3df618a6	0.1201642
64	0xbccce16f	-0.025009839
65	0xbd52adcc	-0.051435277
66	0xbc3bd15a	-0.0114634875
67	0xbcf99d6a	-0.030470569
68	0xbc768db4	-0.015048433
69	0x3e2cfad7	0.16892563
70	0x3dacbece	0.084348306
71	0xbcac90bc	-0.021065108
72	0xbd420521	-0.047368173
73	0x3b6d87df	0.0036244316
74	0x3d7775e3	0.06041516
75	0xbc6949c1	-0.014238776
76	0xbd1234fc	-0.03569506
77	0xbe1f4fda	-0.15557805
78	0x3b40ab87	0.0029399113
79	0x3e32580b	0.17416398
80	0xbc2e514e	-0.010639502
81	0x3d36470a	0.044501342
82	0x3cb41890	0.021984369
83	0x3c6e9a83	0.014563206
84	0xbe678844	-0.22610575
85	0x3dd76c40	0.10518694
86	0xbae967fb	-0.0017807478
87	0x3d5afff9	0.05346677
88	0xbc57b620	-0.013165981
89	0x3c0979f8	0.008390896
90	0x3e13ff2a	0.14452806
91	0xbdd47ae5	-0.10375003
92	0x3d6af8a8	0.057366043
93	0xbdc69d3b	-0.09697958
94	0x3dd6116e	0.10452543
95	0x3b3bcbf3	0.0028655499
96	0x3d0b7d60	0.034055114
97	0x3db15cc9	0.086602755
98	0x3dd45ccf	0.10369264
99	0x3e0a13b2	0.13484076
100	0xbd409cc2	-0.047024496
101	0xbcbcddd4	-0.023054995
102	0xbdf8e287	-0.12152582
103	0x3dced677	0.100995
104	0xbe0e1203	-0.13874058
105	0xbd05ee37	-0.032697883
106	0x3d20bc91	0.03924233
107	0x3be8aa84	0.007100405
108	0x3dd2105b	0.10257026
109	0x3c97838f	0.01849535
110	0xbe1fe5ac	-0.15614957
111	0xbd4c21a8	-0.049836785
112	0x3e1eef3c	0.15520948
113	0x3c43c295	0.011948247
114	0x39732044	0.00023186306
115	0xbda532bc	-0.080663174
116	0xbe21b4f8	-0.1579169
117	0xbc81fc3c	-0.015867345
118	0x3d19a3c5	0.0375097
119	0x3b076d45	0.0020664495
120	0x3dd44ae6	0.10365848
121	0xbdec8748	-0.1154924
122	0xbde33dcb	-0.110957704
123	0x3d1f24af	0.038853344
124	0x3e17673a	0.14785472
125	0x3c9979cd	0.018734837
126	0x3daf6d5d	0.08565781
127	0x3cb26eab	0.021781286
128	0x3e1e0d42	0.15434745
129	0xbceba1e9	-0.028763728
130	0x3ccfe20f	0.025376348
131	0xbcaca596	-0.021075051
132	0xbd0560c9	-0.032563005
133	0xbd2a57f7	-0.041587796
134	0x3d238356	0.039920174
135	0xbe02ea65	-0.12784727
136	0x3d7bf33e	0.06151127
137	0x3ce82f7d	0.028342957
138	0xbbd6f58f	-0.0065600346
139	0xbbc5ffd7	-0.0060424614
140	0x3d1f43e9	0.038883124
141	0x3dff25e1	0.12458397
142	0xbdc73b9f	-0.09728169
143	0x3d2e0ae9	0.042490873
144	0x3d7d153c	0.06178783
145	0xbc720182	-0.014770867
146	0x3c876c6a	0.016531188
147	0xbd71e7d1	-0.059058968
148	0x3dc33c1e	0.09532951
149	0x3d2ff3f7	0.042957272
150	0xbd630be8	-0.055431277
151	0x3bfaf497	0.007658552
152	0xbdf00869	-0.11720354
153	0xbde87aef	-0.11351573
154	0x3c55bbdb	0.0130452765
155	0xbd0a53dc	-0.03377138
156	0xbc98bd4e	-0.018644955
157	0xbd9b35e8	-0.07578641
158	0xbc4a38b2	-0.012342619
159	0x3d4f1398	0.050555795
160	0x3d6b478f	0.05744129
161	0x3d7a26f6	0.061072312
162	0xbd6739cd	-0.056451607
163	0xbc4595dd	-0.012059656
164	0x3b097e3d	0.0020979785
165	0x3bbfe600	0.0058562756
166	0xbd97241e	-0.07379936
167	0x3df542e3	0.11975648
168	0xbc4f285c	-0.0126439
169	0xbc14989b	-0.009069587
170	0xbe1e9bcd	-0.15489121
171	0x3df81033	0.12112465
172	0xbd6d313f	-0.057908293
173	0xbe3c9514	-0.18416244
174	0xbe3c0525	-0.18361337
175	0x3d08b081	0.033371452
176	0xbdaa3574	-0.083109766
177	0xbdce01eb	-0.100589596
178	0xbbe349ed	-0.006936303
179	0xbcf2f96a	-0.029659946
180	0x3c78b5db	0.0151800765
181	0xbd267e54	-0.04064782
182	0x3c0b11e4	0.008488152
183	0x3e2e0f06	0.16997918
184	0x3d8ede40	0.069759846
185	0xbc94ed6c	-0.018179618
186	0x3dfc1545	0.12308744
187	0x3c95e214	0.018296279
188	0xbc6a6931	-0.014307306
189	0x3c0f3392	0.008740323
190	0x3d8f96d0	0.07011187
191	0x3c2deddf	0.010615795
192	0xbceaaeb3	-0.028647756
193	0xbce4d093	-0.027931487
194	0x3c45e25f	0.012077897
195	0x3d896d06	0.06710248
196	0xbdb446a3	-0.088025354
197	0xbc2632f0	-0.01014398
198	0x3d913419	0.07090015
199	0xbc7b6481	-0.015343786
200	0xbd695863	-0.056969058
201	0xbb842794	-0.0040330384
202	0xbd1e1349	-0.03859261
203	0xbe07ed9a	-0.13274232
204	0xbe2fcbb9	-0.17167558
205	0x3e1ef636	0.1552361
206	0xbc2161f2	-0.009850012
207	0xbb78bc27	-0.0037953944
208	0x3dc69a6e	0.09697424
209	0xbd5de644	-0.054174677
210	0x3dcd28d6	0.100175545
211	0x3d2ffbdd	0.042964805
212	0xbcb81942	-0.022472981
213	0x3ae6fcac	0.001762291
214	0x3d61eefb	0.05515955
215	0xbd306e26	-0.043073796
216	0x3d82c0e1	0.06384445
217	0xbe0ce892	-0.13760594
218	0xbdbeda62	-0.09318997
219	0x3d80c58c	0.06287679
220	0xbd0b8aa6	-0.034067772
221	0xba8b9f8a	-0.0010652405
222	0x3e1e9f74	0.15490514
223	0x3c303190	0.010754004
224	0xbd21510e	-0.03938394
225	0xbdd1a88f	-0.10237228
226	0xbc472a6f	-0.012156113
227	0xbdfadb4a	-0.12248857
228	0x3d0b4cfd	0.03400897
229	0xbdc656ca	-0.096845224
230	0x3e000d04	0.12504965
231	0xbd9bc09b	-0.07605096
232	0x3ca4d032	0.020118807
233	0x3cc4b88b	0.024013778
234	0xbde6a0f6	-0.112611696
235	0x3dcd47e7	0.1002348
236	0xbe28ef1b	-0.16497461
237	0x3e2d9877	0.16952692
238	0xbd3416da	-0.043967105
239	0xbe2e6e77	-0.17034326
240	0x3d22ec1f	0.039775964
241	0x3e05db59	0.13071956
242	0x3d3df9a7	0.046380665
243	0x3e471974	0.19443303
244	0x3e1a029a	0.15040055
245	0x3d79fa11	0.061029498
246	0xbce270a6	-0.027641606
247	0xbda4a16f	-0.080386035
248	0xbdc279d6	-0.094958946
249	0x3d63bc3c	0.055599436
250	0xbb133c58	-0.0022466388
251	0x3d8a0745	0.06739668
252	0x3e26e23d	0.1629724
253	0xbe31d747	-0.17367278
254	0x3d43aeb4	0.04777403
255	0xbe06c742	-0.13161948

network_body._body_endoder.seq_layers.2.bias f4 [128]
0	0xbba8520d	-0.0051367343
1	0xbb21acb8	-0.0024669599
2	0xbc97b04d	-0.018516684
3	0xbc1ee5f1	-0.009698377
4	0xbc86c170	-0.01644966
5	0xbb856972	-0.004071408
6	0x3c49d23c	0.01231819
7	0xbc61ced9	-0.0137822265
8	0xbbd6c5fd	-0.0065543638
9	0xbc1af79e	-0.009458451
10	0xbc922ad4	-0.017842688
11	0xbab0ebd2	-0.0013498014
12	0x3bb04e60	0.005380437
13	0xbc5f9ade	-0.013647763
14	0xbc09db0b	-0.00841404
15	0xbc6f98ee	-0.014623864
16	0xbb65befb	-0.003505646
17	0xbc093943	-0.008375469
18	0xbc1e1279	-0.009647959
19	0x3ace38bf	0.0015733464
20	0xbc5f82e9	-0.013642051
21	0xbc4eff06	-0.0126340445
22	0xbc750eed	-0.014957172
23	0xbb92bb1c	-0.0044778716
24	0x38b58e0c	8.657211e-05
25	0xbc0ebd46	-0.0087121185
26	0xbc374246	-0.011185234
27	0xbbfa6e65	-0.0076425546
28	0x3baeed23	0.0053383275
29	0xbbe0df90	-0.006862588
30	0xbc3d97e2	-0.011571856
31	0xbc819f96	-0.015823167
32	0xbbf1dab7	-0.007380809
33	0xbc23b927	-0.009992874
34	0xbc6ba69b	-0.014382984
35	0x3ab7536e	0.0013986656
36	0x3c1d69b7	0.009607724
37	0xbc48bb59	-0.012251698
38	0xbc2dad66	-0.010600423
39	0xbb99d801	-0.004694939
40	0xbc263fed	-0.010147077
41	0xbc79af46	-0.015239542
42	0xbcb02ce9	-0.02150579
43	0xbc6bf5e3	-0.014401886
44	0x3ba84fb4	0.0051364545
45	0xbc7f5f34	-0.015586663
46	0xbc9d11f0	-0.019173592
47	0xbc53aa33	-0.012918997
48	0xbcbe6ed4	-0.023246206
49	0xbbff703d	-0.0077953623
50	0xbc197d5c	-0.009368267
51	0xbb36c4db	-0.002788833
52	0x3c4d3f7c	0.012527343
53	0xbc61c6e6	-0.013780331
54	0xbbd8bb1d	-0.0066141025
55	0xbc756751	-0.014978246
56	0xbbe71b87	-0.007052842
57	0xbacfa5ff	-0.0015842317
58	0xbc2f5be5	-0.010703062
59	0x3aa6ddd3	0.0012730904
60	0xbc34fc9c	-0.011046555
61	0x3b2deda7	0.0026539357
62	0xbba0084b	-0.004883801
63	0xbc56605a	-0.013084495
64	0xbbe1d084	-0.006891312
65	0xbb2167d4	-0.0024628537
66	0x3be1844b	0.0068822256
67	0xbbf7f530	-0.0075670704
68	0xbad0bbbd	-0.0015925091
69	0xbc973679	-0.018458592
70	0xbbb0fdb0	-0.0054013357
71	0xbbcf0dd7	-0.0063187885
72	0xbca53eae	-0.02017149
73	0xbbdd91e2	-0.0067617754
74	0xbc87000a	-0.01647951
75	0xbbfbbe48	-0.0076825954
76	0xbc82a81a	-0.015949298
77	0xbbc0827e	-0.005874931
78	0x3c100a2a	0.008791486
79	0xbc8f78be	-0.017513629
80	0x3bb45f0c	0.0055044945
81	0xbc850c57	-0.016241236
82	0xbc88550c	-0.016642116
83	0xbc11be06	-0.008895403
84	0xbc2f633f	-0.010704814
85	0xbc284b85	-0.0102719115
86	0x3bd46f19	0.0064829704
87	0xbbbc5b00	-0.0057481527
88	0xbc96a556	-0.018389385
89	0xbb1da6fa	-0.0024055825
90	0xbbc7ca7e	-0.006097137
91	0xbc5ff822	-0.013669999
92	0xbbf59431	-0.0074944724
93	0xbc0df645	-0.008664672
94	0xbc689a91	-0.014197008
95	0xbc57e7c8	-0.01317782
96	0xbc6ab661	-0.014325709
97	0xbc6b3d36	-0.014357856
98	0xbafd9336	-0.001934624
99	0xbc7b1f96	-0.015327355
100	0xbb9f6317	-0.0048641074
101	0xbc8963a5	-0.016771147
102	0x3c06b599	0.008222007
103	0xbc553880	-0.013013959
104	0xbcd4fa55	-0.025998274
105	0x38bb79d7	8.939549e-05
106	0x3c33e281	0.010979296
107	0xba9673c9	-0.0011478598
108	0xbc8e9882	-0.017406706
109	0xbc5f2027	-0.013618506
110	0xbba6c3ee	-0.0050892746
111	0xbaac4fce	-0.0013146342
112	0xbb8f03b1	-0.0043644537
113	0xbb2e7dc0	-0.0026625246
114	0xbb9616d8	-0.00458036
115	0xbb815a4c	-0.003947532
116	0xbc8014e3	-0.01563496
117	0xbc9204dc	-0.017824583
118	0xbb31dc9a	-0.0027139545
119	0xbc3836f8	-0.011243574
120	0xbc52e814	-0.012872715
121	0xbc05faed	-0.008177501
122	0xbc34b3fa	-0.011029238
123	0x3b5f9292	0.0034114462
124	0xbca7ecd8	-0.020498678
125	0x3b82cf2e	0.003991983
126	0xbc79d948	-0.015249558
127	0xbc7ce1ae	-0.015434666

action_model._continuous_distribution.log_sigma f4 [1, 2]
0	0xbdae1dcb	-0.08501776
1	0xbd26e5e7	-0.040746596

action_model._continuous_distribution.mu.weight f4 [2, 128]
0	0xbc8bcfc6	-0.017066848
1	0xbc127455	-0.0089388685
2	0x3c41b16a	0.011822084
3	0xbc8fbd05	-0.017546186
4	0x3c83f992	0.016110215
5	0xbb544fcc	-0.0032396195
6	0xbd347df7	-0.044065442
7	0xbba1ff92	-0.0049437964
8	0xbd0505f7	-0.03247639
9	0x3b40ae67	0.0029400827
10	0xbaa6c91b	-0.0012724729
11	0x3c8a0556	0.016848247
12	0x3963d532	0.00021727828
13	0x3c511e9d	0.012763646
14	0xbc7f6831	-0.015588806
15	0x3ca97730	0.020686716
16	0xbc2df726	-0.010618007
17	0x3b33da4e	0.0027443352
18	0xbc365d7b	-0.011130686
19	0xbb96a0c6	-0.0045968024
20	0xbcad5b5b	-0.021161726
21	0x3c1b6516	0.00948455
22	0xbb8e7cc1	-0.004348368
23	0x37f31c44	2.898102e-05
24	0x3c96d795	0.018413344
25	0xbc71f625	-0.014768158
26	0x3c169912	0.009191768
27	0x3c4dd28c	0.012562405
28	0xbb6900e2	-0.0035553505
29	0x3c258877	0.010103337
30	0x3b9402e5	0.0045169466
31	0x3c614709	0.013749846
32	0xbc5948bd	-0.013261971
33	0x3ca34510	0.019930393
34	0xb9c90a4b	-0.00038345376
35	0x3b4c7ed2	0.003120352
36	0xbb0b6f0a	-0.0021275901
37	0x3bc0738c	0.0058731493
38	0xbbbaae4e	-0.0056970483
39	0xbca13164	-0.019676872
40	0x3bf60104	0.0075074453
41	0xbcae6502	-0.021288399
42	0x3a1a5f72	0.0005888856
43	0x3c09752d	0.008389753
44	0xbce04fc0	-0.027381778
45	0xbb0b067b	-0.002121358
46	0x3b8897ea	0.0041685
47	0x3cd849d1	0.026402386
48	0x3b84623c	0.0040400308
49	0x3ce76f2f	0.028251259
50	0xbbbbd71c	-0.00573243
51	0x3c4c3d75	0.012465824
52	0xbcdb3c7d	-0.026762241
53	0x3b70065d	0.0036624887
54	0x3c002091	0.007820264
55	0x3b27a2af	0.0025579145
56	0x3c296946	0.010340041
57	0x3d1a44a9	0.037663136
58	0xbc04f5e7	-0.008115268
59	0x3c7a2f47	0.015270061
60	0x3b1aa01f	0.0023593975
61	0xbd44cc0f	-0.048046168
62	0x3cc60b32	0.02417526
63	0xbd0c6a69	-0.034281168
64	0x3c61b16d	0.013775212
65	0x3c560cef	0.013064607
66	0xbce91908	-0.028454319
67	0xbcd8b1bb	-0.026451936
68	0xbc5c7f82	-0.013458135
69	0xbcd2e619	-0.025744485
70	0xbc17d06e	-0.009266002
71	0x3ce8faa6	0.028439831
72	0x3c770eea	0.015079239
73	0x3cb692d6	0.022286814
74	0xbb15f5ec	-0.0022882177
75	0xbc9aa5fb	-0.018877974
76	0xbb09b53e	-0.002101257
77	0xbc62a585	-0.013833408
78	0xbc7209f9	-0.0147728855
79	0x3d1fe004	0.039031997
80	0xbb26b22d	-0.002543579
81	0x3b500971	0.0031743909
82	0xbba9edd3	-0.0051858216
83	0xbc5243d1	-0.0128335515
84	0x3bb3adc5	0.0054833614
85	0x3ccc033c	0.024903886
86	0xbaa977a2	-0.001292933
87	0x3c7a0d76	0.015261998
88	0x3bebf5cc	0.007200932
89	0x3c60d718	0.013723157
90	0x3c48d211	0.012257115
91	0xbbdd4f0b	-0.0067538074
92	0x3cd0d5c3	0.025492555
93	0xbc293f03	-0.010329965
94	0x3b9e3ee7	0.004829276
95	0x3b9a1139	0.00470176
96	0x3bfa9a90	0.00764782
97	0xbc98cf3f	-0.01865351
98	0x3b49f420	0.0030815676
99	0xbc13f05a	-0.009029472
100	0x3bcf046e	0.0063176667
101	0xbb806810	-0.003918655
102	0xbd3dff90	-0.0463863
103	0xbcce6e76	-0.025199156
104	0x3d236ad7	0.039896812
105	0x3c7c5ba6	0.01540271
106	0xb9c35fa7	-0.00037264565
107	0x3b9d207f	0.0047951336
108	0x3c036284	0.008019093
109	0x3cd1fd37	0.025633438
110	0xbcde6416	-0.027147334
111	0xbb718ea5	-0.0036858704
112	0x3c51f8bc	0.012815651
113	0xbc1c24d2	-0.009530263
114	0x3c86a8e1	0.01643795
115	0xbd1e8e4d	-0.038709927
116	0xbb8e6e07	-0.0043466124
117	0xbb8d9b1a	-0.004321468
118	0x3b10f696	0.0022119633
119	0xbb11a4f8	-0.0022223573
120	0xbbb410d5	-0.0054951706
121	0x3c904955	0.017613092
122	0x3ba65030	0.005075477
123	0xbc1bd875	-0.009512057
124	0x3bc351aa	0.005960663
125	0xbca42515	-0.020037213
126	0x3ca8fed6	0.020629328
127	0x3aa464f9	0.0012542299
128	0xbc679653	-0.014134961
129	0xbbcdff46	-0.0062865345
130	0xb98bd5df	-0.00026671492
131	0x3bfc669f	0.007702663
132	0x3d133152	0.035935707
133	0xbc7ccf4a	-0.015430281
134	0x3ca44b4c	0.020055436
135	0x3bf04df6	0.0073335124
136	0x3c037069	0.008022406
137	0xbc18979a	-0.009313488
138	0x3b1c5ab8	0.0023857784
139	0xbc8837ec	-0.016628228
140	0x3cc67379	0.024224984
141	0xbb0dc0b8	-0.0021629762
142	0x3bc1e332	0.0059169764
143	0x39bee11d	0.00036407346
144	0xbc14a951	-0.009073571
145	0xbc58ddbd	-0.01323646
146	0x3c28d7f2	0.010305392
147	0xbca399fb	-0.019970885
148	0xbd047991	-0.032342497
149	0x3b57fd71	0.003295746
150	0x3b8976a3	0.004195051
151	0xbc3e5588	-0.011617072
152	0x3d4f3295	0.05058535
153	0x3c8beb91	0.0170801
154	0xbb32e028	-0.0027294252
155	0x3c25021a	0.010071302
156	0xbd10347d	-0.035206307
157	0xbce4182a	-0.027843554
158	0x3b411440	0.0029461533
159	0xbbafd329	-0.0053657484
160	0x3c94253e	0.018084165
161	0x3c039099	0.00803008
162	0x3d0e835a	0.034793235
163	0xbc4b8281	-0.012421251
164	0x3c785bec	0.015158635
165	0x3bc860b5	0.006115044
166	0x3c686e32	0.014186429
167	0xbcc61ad8	-0.024182722
168	0xbbaf748e	-0.0053544706
169	0x3b100a6b	0.0021978866
170	0x3c6446ea	0.013932923
171	0x3c4f2657	0.012643418
172	0x3cc3109b	0.023811629
173	0x3bed599a	0.0072433474
174	0x3b0140ba	0.0019722418
175	0x3d1fc77d	0.039008606
176	0x3c1b23b9	0.009468966
177	0x3c9deee5	0.019278953
178	0xbb29ea1d	-0.0025926896
179	0x3c0d4723	0.008622917
180	0x3d4fe221	0.050752763
181	0xb95f0413	-0.00021268455
182	0x3c908dc8	0.017645732
183	0xbac2ad1c	-0.0014852616
184	0xbd4994a9	-0.04921404
185	0x3c39866e	0.011323554
186	0x3c24b98f	0.010054006
187	0xbcca60e3	-0.024704402
188	0x3c7877f6	0.01516532
189	0xbb53f355	-0.0032341082
190	0xb903186d	-0.00012502233
191	0x3c9c20d5	0.019058624
192	0xbc17e167	-0.009270049
193	0xbd0905cf	-0.033452805
194	0xba93ba26	-0.0011270687
195	0x3c929a30	0.017895788
196	0x3c53a3e1	0.01291749
197	0xbc9459cc	-0.018109225
198	0xbc8082fe	-0.015687462
199	0x3b139c13	0.0022523447
200	0x3cbc6206	0.02299596
201	0x3bae6df3	0.0053231656
202	0xbb83a507	-0.0040174755
203	0x3c4f8bb9	0.01266759
204	0xbc2caae8	-0.010538794
205	0xbc5cc3b7	-0.013474396
206	0xbd3ec61b	-0.046575647
207	0xbc84d83a	-0.016216386
208	0xbcd4ea72	-0.025990698
209	0x39be671a	0.0003631644
210	0xbc4f91ea	-0.012669066
211	0xbcb2eb8f	-0.021840839
212	0x3b5371b0	0.0032263808
213	0x3cae7b0d	0.02129891
214	0xbc9e9732	-0.019359205
215	0x3c33a586	0.010964757
216	0x3b8b1f3b	0.0042456663
217	0xbc30aec4	-0.010783855
218	0xbc05056e	-0.00811897
219	0xbb804aa5	-0.0039151483
220	0xbbf72c89	-0.007543151
221	0x3c433022	0.011913331
222	0x3cf14e67	0.02945633
223	0x3b85e5cb	0.0040862313
224	0xbc882653	-0.016619837
225	0x3bc9de35	0.0061605223
226	0xbbd00894	-0.006348679
227	0x3be408aa	0.0069590406
228	0xbb110c7a	-0.002213268
229	0x3ba170dd	0.0049267844
230	0xbc09ed1c	-0.008418348
231	0x3c01a886	0.007913714
232	0xbd442229	-0.04788414
233	0xbc177891	-0.009245054
234	0xbd48a56b	-0.04898588
235	0x3ceb36be	0.028712627
236	0xbba3e061	-0.0050011133
237	0x3ca5d403	0.020242697
238	0x3c9e8ee6	0.019355249
239	0x3c75de75	0.015006651
240	0xbb6986cb	-0.0035633321
241	0x3c586b87	0.01320923
242	0xbc695c2c	-0.014243167
243	0x3b7adb3e	0.0038277651
244	0x3b211f96	0.0024585477
245	0x3b37c443	0.0028040565
246	0x3cf3b545	0.029749522
247	0xbc38f0c8	-0.0112878755
248	0x3c39e30c	0.011345636
249	0xbaf0b102	-0.0018363299
250	0x3b80159c	0.003908826
251	0x3c0fe8ba	0.008783514
252	0x3cbeb94b	0.023281714
253	0x3d3bfd92	0.04589612
254	0x3bc9a057	0.006153147
255	0xba848ea9	-0.0010113317

action_model._continuous_distribution.mu.bias f4 [2]
0	0x3b109bdf	0.0022065563
1	0xbbd1f1ff	-0.006407022

action_model._discrete_distribution.branches.0.weight f4 [1, 128]
0	0xbacbd17b	-0.0015550101
1	0x3bc680dc	0.0060578417
2	0x39fbacf7	0.0004800332
3	0x3b05af82	0.00203988
4	0x3c8226e5	0.015887687
5	0x3b9522cb	0.004551267
6	0xbc920e89	-0.017829197
7	0x3a44ae80	0.0007502809
8	0x3b69841a	0.0035631717
9	0xbad449e7	-0.0016196341
10	0x3b8dae87	0.004323784
11	0x3c6a0eb3	0.014285731
12	0x38fb2a40	0.00011976482
13	0xbb895def	-0.004192106
14	0x3c1e87e0	0.00967595
15	0xbc80788c	-0.015682481
16	0x3acf346f	0.0015808473
17	0x3c2cce49	0.010547229
18	0x3c09c768	0.008409359
19	0xbc5875cb	-0.013211678
20	0xbbafe142	-0.005367429
21	0x3b91f322	0.0044540325
22	0x3bb8e763	0.005642818
23	0x3bfd9b0a	0.0077394294
24	0xbb58ed95	-0.0033100594
25	0xbc803ad7	-0.015653057
26	0xbc527912	-0.012846248
27	0x3b36e96c	0.0027910126
28	0xbc72bb48	-0.014815159
29	0xbba7e5e4	-0.0051238406
30	0x3a6d0eef	0.0009043058
31	0x3acb8518	0.0015527336
32	0xbbe6a435	-0.007038618
33	0x3c15fd84	0.009154681
34	0x3c41e005	0.011833196
35	0x3bbbb99c	0.0057289135
36	0xbbb1a817	-0.005421649
37	0x3b906a03	0.004407169
38	0xbb2c3bdf	-0.0026280803
39	0xbb1dc96b	-0.0024076353
40	0x3bd6f8f8	0.006560441
41	0x3c294a48	0.010332651
42	0xbc172d34	-0.009227086
43	0x3bdf50e2	0.006815062
44	0xba8057cb	-0.0009791789
45	0xbbab463e	-0.0052268794
46	0xbc0e4fa5	-0.008685981
47	0x3a0a6f45	0.00052808627
48	0xbbe79dc5	-0.007068368
49	0xbc37dad0	-0.011221603
50	0x3b7a229b	0.00381676
51	0x3a07d1d1	0.00051811064
52	0x3c42b07e	0.011882899
53	0x3bb54694	0.005532095
54	0x3c4dd94f	0.012564017
55	0xbc2675ce	-0.010159923
56	0x3b96d08f	0.004602499
57	0xbc1fc75e	-0.009752123
58	0xbc0a0ad7	-0.008425436
59	0x3b81dd5c	0.0039631557
60	0x3c3bf21f	0.0114713
61	0x3bec2a5b	0.0072071976
62	0xb96bba15	-0.00022480667
63	0x3abe39bb	0.0014513055
64	0x3abfd9c3	0.0014637042
65	0x3b131943	0.0022445477
66	0xbc06b750	-0.008222416
67	0xb98145cb	-0.00024656797
68	0xbb7ecf98	-0.003888106
69	0x3c169f91	0.009193317
70	0xbb648dc5	-0.003487454
71	0xb95db7db	-0.00021144694
72	0x3b6420cd	0.003480959
73	0x3b0a2738	0.0021080505
74	0x3c07121b	0.008244063
75	0x3af554c8	0.0018717283
76	0xbb43a84d	-0.0029854954
77	0xbb4fccc3	-0.003170774
78	0x3bd6f047	0.006559405
79	0x3b5a367a	0.003329663
80	0x3b9ab2db	0.0047210283
81	0xb90819b7	-0.0001297955
82	0xbc4bd6f6	-0.012441387
83	0x3c02b548	0.007977791
84	0xbbd9f93f	-0.006652027
85	0xbbb09567	-0.005388904
86	0x3b8ac725	0.0042351657
87	0xbc23d74b	-0.01000006
88	0x3a36fd6c	0.0006980512
89	0xbbc8f277	-0.0061324197
90	0x3bcd43ca	0.0062641846
91	0xb85713ed	-5.1278552e-05
92	0x3be49f6b	0.006977012
93	0x3c0fc3f4	0.008774746
94	0xbb7bf0cf	-0.0038443094
95	0xbbf9eeb3	-0.007627332
96	0xbb3e464b	-0.0029033597
97	0xbb1e5702	-0.0024160747
98	0xbbe6e4e7	-0.0070463303
99	0xbc2aaa93	-0.010416645
100	0x3cb639d2	0.022244368
101	0xbaf0425d	-0.0018330325
102	0x3cc4ab1d	0.024007374
103	0xbc9e5acf	-0.01933041
104	0x3c2d1897	0.010564945
105	0x3c2e54d3	0.010640341
106	0x3b01da31	0.001981389
107	0x3c3e271e	0.011606006
108	0x3c88f80b	0.016719839
109	0x3ba47df4	0.0050198976
110	0x390a6a5d	0.00013200329
111	0x3bf9a9a0	0.007619098
112	0xbca51ce0	-0.02015537
113	0x3bc6bc27	0.00606491
114	0xb98440a8	-0.00025225175
115	0x3b853190	0.004064746
116	0xbb39faa6	-0.0028378158
117	0xbb8e5a46	-0.0043442575
118	0xbbbc7cb0	-0.0057521686
119	0xbb001323	-0.0019542656
120	0xbbcf61f3	-0.006328815
121	0xbb489c1b	-0.0030610624
122	0x3c5110aa	0.012760321
123	0x3aec5522	0.0018030743
124	0x3bba584f	0.0056867967
125	0xbc8834ab	-0.016626677
126	0x3b8c8e82	0.004289449
127	0x3aff892a	0.0019495834
