Assets/Result/PlayerAgent_BehaviorCloning/PlayerAgent_0/PlayerAgent_0-45986.onnx (onnx, 80338 bytes, 8 tensors)

network_body._body_endoder.seq_layers.0.weight f4 [128, 10]
-0.4715999 -0.45742786 -0.15432234 0.32355818 -0.5079227 -0.16138 0.0035641126 -0.4155719
-0.32053897 -0.35898447 0.511047 0.29630917 -0.08662521 0.3893759 0.1446906 -0.5092533
-0.5651445 0.19656727 -0.22734503 0.0032327352 -0.049317732 -0.12916765 -0.06851822 0.3076891
-0.7483423 0.16990806 -0.13146596 -0.41903263 0.7506747 0.20367688 -0.10697708 0.6068676
0.10186403 0.115789436 -0.11715954 0.31427148 0.16468021 -0.35933593 -0.786079 -0.3759529
-0.025280893 0.19242032 -0.21056226 -0.109312765 0.025302332 -0.31300586 -0.21249023 -0.20594549
-0.057092156 -0.6234024 0.0883134 0.79952943 0.2721286 -0.089763835 0.19887918 0.09693572
0.4624663 0.12824336 -0.26660493 0.28933802 0.2381464 -0.4678802 0.4508377 -0.31477785
0.62023586 0.097277075 -0.0096942205 -0.096935086 0.31565717 0.85148686 -0.11535375 0.0034632825
0.27619562 0.028625367 -0.34336376 0.21075839 -0.56008905 -0.12439445 1.1380004 -0.27779832
0.47468668 -0.0613869 0.24035163 0.20562285 -0.48265228 0.14512835 0.6489567 0.21609032
-0.4238516 0.037889536 -0.31770858 -0.013265571 -0.3502132 -0.38733223 0.11570761 0.027838022
-0.09801946 -0.23972568 0.0476116 -0.032644294 -0.10416139 0.09604209 -0.22984622 -0.14297494
0.3910132 0.059176818 0.2157383 0.09852567 0.34184685 0.21576248 -0.0072840643 0.0629089
-0.046862964 0.53465325 0.05881521 -0.08333482 -0.089147195 -0.4666731 -0.6145586 -0.3558656
0.15921779 0.38447395 0.057180006 -0.2431209 0.5088104 0.1344921 -0.2141066 0.04301065
0.91941535 -0.5304227 -0.36657402 -0.03735023 0.26299044 -0.12893417 -0.5560938 0.41980025
0.10954777 0.011107992 1.372575 -0.4447278 0.27713042 0.0017926093 0.2257132 -0.21861693
-0.31371957 -0.20207328 -0.2863463 0.2741415 0.3492644 0.4216284 -0.288316 0.6362465
0.0755173 0.14879599 -0.64391387 -0.15370956 0.17210187 0.2619566 -0.5490714 0.4647544
0.09407453 -0.20508952 0.13254422 0.07692561 -0.15329449 0.14934643 0.12648146 -0.24779007
-0.2972653 -0.52273303 0.07071537 0.120949924 0.31853914 -0.6116755 -0.5809076 0.019476056
0.0013528574 -0.22344838 0.4198961 -0.90807694 -0.8098511 -0.1274009 -0.00370032 0.022104017
-0.25018907 0.5712901 -0.1438846 0.50518024 -0.48739132 -0.13842253 -0.16166258 -0.120674185
-0.10912159 -0.12740286 -0.48493692 0.035133116 -0.64781475 0.08612454 -0.111860946 0.5114336
-0.40885633 0.109832376 -0.011098677 0.08772225 0.0008179054 0.5132284 0.5676062 0.39513776
0.29465365 0.26160443 0.19474217 -0.06824615 0.12587307 -0.0024898057 -0.60838574 0.1336112
0.14223544 0.15666579 -0.5389971 -0.21016625 0.4763785 -0.063673966 0.05953675 0.06068833
-0.5494741 0.011072717 0.095638745 0.6441417 -0.34983668 -0.010089569 0.0136095565 -0.1156701
0.2265312 -0.23502949 0.4091963 -0.052062552 0.59442085 -0.064624436 0.22288512 -0.4671101
0.49594182 0.34790125 0.06413643 -0.18007518 0.016526371 -0.21871886 0.15666513 -0.19867337
-0.31709975 -0.3269017 0.5529494 0.09423068 0.17335539 -0.7305954 0.07585474 0.20998044
00000000: 8b75 f1be fc33 eabe ad06 1ebe 6ba9 a53e
00000010: 3907 02bf cc40 25be e393 693b d7c5 d4be
00000020: af1d a4be d0cc b7be fad3 023f d6b5 973e
00000030: 8f68 b1bd 475c c73e c629 143e 6d5e 02bf
00000040: 4fad 10bf ee48 493e 23cd 68be 4cdc 533b
00000050: 6401 4abd 8644 04be 4853 8cbd 6d89 9d3e
00000060: 5c93 3fbf 61fc 2d3e 039f 06be 728b d6be
00000070: 382c 403f ac90 503e cd16 dbbd ad5b 1b3f
00000080: 179e d03d 0323 ed3d 57f1 efbd 31e8 a03e
00000090: eea1 283e e1fa b7be 793c 49bf e67c c0be
000000a0: e019 cfbc d509 453e a29d 57be 5fdf dfbd
000000b0: d646 cf3c 4e42 a0be 0a97 59be 60e3 52be
000000c0: 77d9 69bd 4d97 1fbf a8dd b43d f6ad 4c3f
000000d0: 7154 8b3e 1ad6 b7bd fca6 4b3e 3c86 c63d
000000e0: 62c8 ec3e 3a52 033e 7180 88be 1d24 943e
000000f0: a6dc 733e fe8d efbe 33d4 e63e 902a a1be
00000100: c7c7 1e3f 3439 c73d 82d4 1ebc e785 c6bd
00000110: d19d a13e 0bfb 593f 963e ecbd 3df8 623b
00000120: 8369 8d3e bf7f ea3c 60cd afbe 0cd1 573e
00000130: ff61 0fbf 84c2 febd ffa9 913f 953b 8ebe
00000140: 220a f33e d470 7bbd bd1e 763e cc8e 523e
00000150: 331e f7be 879c 143e 0722 263f c846 5d3e
00000160: 1403 d9be 0f32 1b3d b3aa a2be d657 59bc
00000170: 254f b3be 6950 c6be 1df8 ec3d 900c e43c
00000180: 6dbe c8bd a67a 75be 6204 433d 06b6 05bd
00000190: 9152 d5bd b7b1 c43d cf5c 6bbe 0668 12be
000001a0: e232 c83e 6463 723d 80ea 5c3e d4c7 c93d
000001b0: 8d06 af3e d7f0 5c3e 29af eebb 62d6 803d
000001c0: 61f3 3fbd 09df 083f 38e8 703d 72ab aabd
000001d0: ce92 b6bd c7ef eebe b653 1dbf 0434 b6be
000001e0: fd09 233e c5d9 c43e 9535 6a3d aff4 78be
000001f0: 6641 023f 4cb8 093e c33e 5bbe ef2b 303d
00000200: ce5e 6b3f c8c9 07bf 97af bbbe 8efc 18bd
00000210: afa6 863e 5207 04be 2a5c 0ebf 0ff0 d63e
00000220: 955a e03d 4cfe 353c 8ab0 af3f 5db3 e3be
00000230: 0ae4 8d3e fdf5 ea3a 5c21 673e 1edd 5fbe
00000240: da9f a0be 4cec 4ebe fb9b 92be 465c 8c3e
00000250: c9d2 b23e addf d73e 289e 93be 0de1 223f
00000260: d0a8 9a3d fa5d 183e 8ad7 24bf 0a66 1dbe
00000270: 793b 303e 2d1f 863e f18f 0cbf 4af4 ed3e
00000280: 26aa c03d fd02 52be acb9 073e 2d8b 9d3d
00000290: 3bf9 1cbe 45ee 183e 5b84 013e aebc 7dbe
000002a0: 2833 98be d5d1 05bf 38d3 903d 98b4 f73d
000002b0: 9017 a33e c496 1cbf 5cb6 14bf 408c 9f3c
000002c0: 5d52 b13a a7cf 64be 9ffc d63e bb77 68bf
000002d0: 6752 4fbf 6275 02be 1181 72bb 7c13 b53c
000002e0: c818 80be 1140 123f 7c56 13be 7e53 013f
000002f0: 5b8b f9be a3be 0dbe e08a 25be 0724 f7bd
00000300: 247b dfbd e575 02be a749 f8be bee7 0f3d
00000310: 30d7 25bf 1062 b03d 5a17 e5bd 50ed 023f
00000320: 9e55 d1be ccef e03d 3ad7 35bc b9a7 b33d
00000330: b468 563a f062 033f a44e 113f 7f4f ca3e
00000340: d8dc 963e 04f1 853e 7e6a 473e a3c4 8bbd
00000350: dfe4 003e 022c 23bb 2bbf 1bbf 60d1 083e
00000360: 2ba6 113e ff6c 203e b7fb 09bf d235 57be
00000370: e2e7 f33e 7f67 82bd cfdc 733d 5494 783d
00000380: 56aa 0cbf 576a 353c 3fde c33d 78e6 243f
00000390: cb1d b3be b84e 25bc 9efa 5e3c 72e4 ecbd
000003a0: cbf7 673e 92ab 70be 2d82 d13e 8b3f 55bd
000003b0: f72b 183f d159 84bd ff3b 643e 0e29 efbe
000003c0: 16ec fd3e 1d20 b23e f659 833d a165 38be
000003d0: 5062 873c d6f7 5fbe d36c 203e 0871 4bbe
000003e0: e65a a2be a95f a7be 188e 0d3f 04fc c03d
000003f0: 1384 313e 4d08 3bbf bb59 9b3d 1d05 573e

network_body._body_endoder.seq_layers.0.bias f4 [128]
-0.054692052 0.0016888586 -0.014355805 -0.021118721 -0.039077606 -0.023189794 -0.0015966607 -0.04239663
-0.030390903 0.023308111 0.11733349 0.04620822 -0.02118898 -0.009170426 -0.022434535 -0.011694299
-0.015105513 0.024454648 -0.02606623 0.032209087 0.012825561 -0.047374908 0.032285836 0.0027144856
-0.026570415 -0.017881032 -0.053512022 0.058239043 0.015696391 -0.0013279658 0.016957765 0.0008155771
-0.026949868 0.06752816 -0.059219994 0.058357876 0.11319185 -0.06873052 -0.026355145 0.025889028
0.02688345 0.015254755 0.01582347 0.029849956 -0.040544115 -0.032402247 -0.07745299 0.0018578836
-0.06479842 -0.057287194 -0.04680411 -0.0050791004 -0.057810623 0.060789097 0.043071415 -0.0010919771
0.04390247 0.020233728 -0.046850923 -0.0058211237 -0.021720264 0.019272422 -0.04774112 0.016238827
0.0050800303 0.029920997 -0.06443177 -0.032388903 -0.02855775 -0.0018244444 -0.0693587 -0.011654265
-0.041843746 -0.07688612 -0.010393482 0.049338177 0.013614899 0.10178452 -0.013595202 -0.05889501
-0.031602364 -0.07527166 -0.036104057 0.06264668 0.046378203 -0.035870302 -0.03675966 -0.016506562
-0.017455814 -0.007058131 -0.042519365 -0.06528934 0.0835086 -0.057324763 -0.063768454 -0.010109057
9.487364e-05 0.012080201 0.03340612 0.00089592027 0.029001178 0.017014878 0.004096653 0.034751177
0.03816282 0.025981445 -0.043142658 0.0055503016 -0.06311007 -0.0890537 0.09856893 -0.043759506
-0.005334347 0.0058454466 -0.12352005 -0.09133454 -0.056340523 -0.060991324 -0.009443033 -0.030038094
-0.018790882 -0.015602968 0.005258487 -0.0044295723 -0.0047407653 -0.020407377 -0.0059144064 -0.002675792
00000000: c604 60bd b15c dd3a 9c34 6bbc 2b01 adbc
00000010: d70f 20bd 86f8 bdbc 0b47 d1ba 17a8 2dbd
00000020: 58f6 f8bc a7f0 be3c 8a4c f03d d544 3d3d
00000030: 8394 adbc 8e3f 16bc a1c8 b7bc 7299 3fbc
00000040: 1d7d 77bc 1d55 c83c d988 d5bc aded 033d
00000050: 4d22 523c 310c 42bd 273e 043d 83e5 313b
00000060: 33aa d9bc 3e7b 92bc 6c2f 5bbd 108c 6e3d
00000070: b895 803c 230f aeba 03eb 8a3c 74cc 553a
00000080: f8c5 dcbc 344c 8a3d aa90 72bd ab08 6f3d
00000090: 21d1 e73d 96c2 8cbd bfe6 d7bc 3a15 d43c
000000a0: ae3a dc3c 14ef 793c 39a0 813c e587 f43c
000000b0: 9611 26bd 38b8 04bd ac9f 9ebd 3b84 f33a
000000c0: 09b5 84bd faa5 6abd abb5 3fbd 956e a6bb
000000d0: d5ca 6cbd fdfd 783d a76b 303d ac20 8fba
000000e0: 14d3 333d 34c1 a53c c1e6 3fbd 20bf bebb
000000f0: b2ee b1bc 33e1 9d3c 318c 43bd 4a07 853c
00000100: 6276 a63b e11c f53c cef4 83bd 3aaa 04bd
00000110: f1f1 e9bc 3222 efba ef0b 8ebd 88f1 3ebc
00000120: 5964 2bbd 7876 9dbd 6c49 2abc d416 4a3d
00000130: 0611 5f3c 6774 d03d 69be 5ebc e53b 71bd
00000140: 7b71 01bd 0728 9abd d9e1 13bd e74c 803d
00000150: 12f7 3d3d bdec 12bd 4c91 16bd c538 87bc
00000160: 7fff 8ebc e547 e7bb c928 2ebd 6bb6 85bd
00000170: 8f06 ab3d 5fcd 6abd 0999 82bd 75a0 25bc
00000180: e6f6 c638 09ec 453c dbd4 083d 31dc 6a3a
00000190: e193 ed3c c962 8b3c 373d 863b 4057 0e3d
000001a0: 9e50 1c3d 0ad7 d43c 5bb6 30bd 4edf b53b
000001b0: da3f 81bd c961 b6bd 82de c93d 2b3d 33bd
000001c0: bfcb aebb 298b bf3b 14f8 fcbd 9a0d bbbd
000001d0: 52c5 66bd 0ad2 79bd f3b6 1abc 7312 f6bc
000001e0: 56ef 99bc 97a3 7fbc 634f ac3b f225 91bb
000001f0: 6c58 9bbb 5f2d a7bc a3cd c1bb 575c 2fbb

network_body._body_endoder.seq_layers.2.weight f4 [128, 128]
-0.23201331 -0.035669293 -0.08871382 -0.1121568 -0.09952126 -0.16365416 -0.044665065 0.079301864
-0.008870422 0.14448196 -0.03141828 -0.16373475 0.02183134 0.06986724 0.14255285 0.0049742744
0.2210558 -0.106438614 -0.09362361 -0.16606247 0.17838374 -0.31328595 -0.14848495 -0.000550439
0.0545681 -0.123264894 0.10576387 -0.052973304 0.21382287 0.007879729 -0.13480343 -0.14094636
0.007640941 0.12751745 -0.09977077 -0.008863832 -0.026664978 0.09399794 -0.026406275 0.053526655
0.0014135882 0.17778052 -0.0011196509 -0.049929257 -0.02980956 0.1167498 -0.11626343 -0.12816839
0.08062712 -0.02393538 -0.107802525 0.02550961 -0.012372571 0.000827335 0.08088775 -0.022636158
0.07420033 -0.018384289 0.023969768 0.13356079 -0.19158272 -0.036634818 -0.103669934 0.08579794
0.18498164 -0.09199308 0.078918464 -0.013356713 0.052979425 -0.067153506 -0.17456464 -0.0970649
0.032114167 0.14020096 -0.04375935 0.13361834 -0.00018572046 0.13028328 0.09626169 -0.084652066
-0.115181446 -0.09949452 -0.004200911 0.0098255845 -0.012971696 0.03839093 -0.11237076 -0.0634198
-0.015929205 -0.053720262 -0.14527118 -0.14434475 0.21451537 0.03707283 -0.07082891 0.0010645262
-0.04350815 -0.07925998 -0.06698423 0.011213241 0.009237844 0.10984144 0.015866801 -0.07242854
0.26289952 -0.067888044 -0.03165971 0.008917223 0.023388678 0.06834906 -0.034397963 -0.02892198
0.09019098 0.015597561 0.018311443 -0.07589921 0.07843895 -0.018991014 -0.15389371 -0.078017555
0.12319596 0.0026786707 0.123996526 -0.05013748 -0.053574387 0.03576298 0.13548578 -0.16351008
-0.14724116 0.06601373 0.0110864565 -0.048714858 -0.020574441 -0.043488864 0.052382827 0.03977345
-0.014174318 0.010358593 -0.17740034 0.025677308 -0.19789056 0.0111695 0.10430179 0.110849455
-0.023882251 -0.016998565 -0.013747906 -0.0627774 0.061084103 0.047012363 0.16198169 -0.029250419
-0.123789795 0.0030098553 0.07380562 -0.15436028 0.035105813 -0.109659515 -0.023306854 0.06964146
0.1113071 0.021302795 -0.1459324 0.044248797 0.04647848 0.0872965 -0.04804965 -0.051619526
-0.008388762 -0.073325284 0.17420396 0.00044590334 0.06717488 -0.05334677 -0.13170724 0.045718968
-0.0016438038 -0.0655165 -0.053485584 -0.022917585 0.055181663 -0.19564456 -0.13476217 -0.0390827
-0.04524244 0.044877253 -0.0037997623 -0.016706876 -0.04897001 0.1469461 -0.030241013 0.06327344
-0.051306423 -0.11865296 -0.05156131 0.10003888 -0.07088318 -0.01694448 0.07324475 0.0075791166
0.048101507 -0.14416455 -0.06552475 -0.07771083 -0.049123242 0.029872004 -0.023936208 0.031317618
0.042573337 -0.1385338 -0.1675331 -0.0382158 -0.13588986 -0.037474927 0.028033454 0.10664125
-0.09844203 0.028505366 0.0019679917 -0.06769421 -0.13507135 -0.08156304 0.03214588 -0.16752313
-0.009338538 0.32137853 -0.005372009 -0.10719034 -0.048062056 -0.013524212 -0.07685414 0.023012316
0.12933333 -0.11169401 -0.07393363 -0.117364734 0.05992599 -0.09634658 0.061342213 0.040979933
-0.115869366 -0.08101634 -0.09796801 -0.00859569 -0.014373488 -0.14133833 0.08520018 0.06816549
-0.033177644 -0.12691532 -0.097696364 -0.07599035 -0.08194198 0.00016198674 -0.027852647 0.073133856
00000000: e694 6dbe f719 12bd 97af b5bd 77b2 e5bd
00000010: cdd1 cbbd f594 27be b7f2 36bd 0469 a23d
00000020: 3f55 11bc 14f3 133e 74b0 00bd 15aa 27be
00000030: a3d7 b23c 8e16 8f3d 60f9 113e 3dff a23b
00000040: 745c 623e 7dfc d9bd bcbd bfbd 480c 2abe
00000050: 3aaa 363e 0467 a0be 700c 18be 564b 10ba
00000060: cd82 5f3d 4e72 fcbd ba9a d83d 89fa 58bd
00000070: 62f4 5a3e fb19 013c e909 0abe 3e54 10be
00000080: dc60 fa3b ef93 023e 9e54 ccbd 9b39 11bc
00000090: 8370 dabc fe81 c03d f951 d8bc c43e 5b3d
000000a0: 2648 b93a 190c 363e 40c1 92ba 9f82 4cbd
000000b0: 2e33 f4bc 851a ef3d 851b eebd 933e 03be
000000c0: d51f a53d 2114 c4bc 92c7 dcbd 88f9 d03c
000000d0: 53b6 4abc 83e1 583a 7aa8 a53d 776f b9bc
000000e0: 58f6 973d a69a 96bc 3f5c c43c 29c4 083e
000000f0: 432e 44be 640e 16bd e750 d4bd d5b6 af3d
00000100: d46b 3d3e de66 bcbd 01a0 a13d 1dd6 5abc
00000110: f400 593d c787 89bd 13c1 32be f6c9 c6bd
00000120: 258a 033d d790 0f3e 013d 33bd 3fd3 083e
00000130: f5bd 42b9 fb68 053e d924 c53d 105e adbd
00000140: 40e4 ebbd c8c3 cbbd cca7 89bb 7dfb 203c
00000150: 3d87 54bc cf3f 1d3d a422 e6bd 3de2 81bd
00000160: f77d 82bc c709 5cbd f8c1 14be 1ccf 13be
00000170: eba9 5b3e aed9 173d bf0e 91bd 9287 8b3a
00000180: 9a35 32bd 0e53 a2bd 072f 89bd beb7 373c
00000190: 535a 173c 8df4 e03d 18fb 813c 6a55 94bd
000001a0: c49a 863e e308 8bbd 9dad 01bd 8b19 123c
000001b0: 9d99 bf3c 98fa 8b3d e1e4 0cbd caed ecbc
000001c0: 0cb6 b83d ea8c 7f3c e101 963c 0c71 9bbd
000001d0: 9aa4 a03d 0b93 9bbc 5096 1dbe abc7 9fbd
000001e0: 2a4e fc3d a38c 2f3b e4f1 fd3d f55c 4dbd
000001f0: d170 5bbd 347c 123d c9bc 0a3e 306f 27be
00000200: 63c6 16be 3532 873d f8a3 353c 3b89 47bd
00000210: bb8b a8bc 6121 32bd 608f 563d 7ce9 223d
00000220: 663b 68bc 17b7 293c 6fa8 35be 3859 d23c
00000230: d3a3 4abe 4700 373c 2d9c d53d 0a05 e33d
00000240: b6a4 c3bc 9340 8bbc e63e 61bc 7091 80bd
00000250: 5333 7a3d 0990 403d 87de 253e 939e efbc
00000260: 8185 fdbd fe40 453b 6727 973d 9f10 1ebe
00000270: 1dcb 0f3d 2b95 e0bd 04ee bebc 2fa0 8e3d
00000280: faf4 e33d 3383 ae3c 4e6f 15be 3a3e 353d
00000290: 3860 3e3d 82c8 b23d b6cf 44bd ff6e 53bd
000002a0: 0571 09bc 912b 96bd 8662 323e 22c8 e939
000002b0: fc92 893d 2582 5abd 43de 06be d043 3b3d
000002c0: e774 d7ba 842d 86bd b313 5bbd a9bd bbbc
000002d0: 2b06 623d 0c57 48be 18ff 09be 2e15 20bd
000002e0: 2350 39bd 36d1 373d 6f05 79bb dcdc 88bc
000002f0: c794 48bd 0a79 163e 00bc f7bc 8195 813d
00000300: af26 52bd 5300 f3bd f431 53bd 2fe1 cc3d
00000310: 332b 91bd 26cf 8abc 5801 963d 3d5a f83b
00000320: 1606 453d df9f 13be d731 86bd db26 9fbd
00000330: 7435 49bd 22b6 f43c de15 c4bc e746 003d
00000340: 6161 2e3d cedb 0dbe cc8d 2bbe 2c88 1cbd
00000350: b626 0bbe 4f7f 19bd 6aa6 e53c ba66 da3d
00000360: fa9b c9bd 1684 e93c 6cf9 003b 43a3 8abd
00000370: 2550 0abe 860a a7bd 66ab 033d 2f8b 2bbe
00000380: ab00 19bc ba8b a43e ad07 b0bb 9c86 dbbd
00000390: b8dc 44bd a894 5dbc b465 9dbd 5384 bc3c
000003a0: f56f 043e d4bf e4bd 846a 97bd ec5c f0bd
000003b0: f474 753d 5b51 c5bd f941 7b3d 93da 273d
000003c0: eb4c edbd e5eb a5bd 74a3 c8bd f0d4 0cbc
000003d0: c77e 6bbc ffba 10be 6f7d ae3d 599a 8b3d
000003e0: 48e5 07bd 17f6 01be 0815 c8bd d4a0 9bbd
000003f0: 32d1 a7bd fcda 2939 3c2b e4bc 34c7 953d

network_body._body_endoder.seq_layers.2.bias f4 [128]
0.034387313 -0.046074837 0.020707821 0.016564341 -0.012017884 0.027768983 -0.064632006 -0.018786276
-0.011685492 0.025760569 -0.040353723 -0.022800893 0.02688766 -0.010764208 -0.023495585 -0.021081645
-0.031044243 0.01773057 -0.010262437 -0.024730131 -0.03308762 -0.032658014 -0.046054598 -0.0018531951
-0.02958016 -0.023340106 0.045115013 0.033092476 -0.0119768 -0.0043870355 -0.010673483 -0.020236474
0.061818272 -0.048491273 -0.018486999 -0.08328813 0.0086959265 -0.009911476 -0.0076148603 -0.012618848
0.0036493249 -0.02397677 -0.020471906 -0.041870672 0.008612214 -0.029201426 0.048180908 -0.010242392
-0.04546139 0.009974985 -0.018733356 -0.018149875 0.0021312104 0.02185394 -0.00036837705 -0.044073332
0.032063056 -0.015380442 -0.00010668062 -0.030661818 -0.022053976 -0.04587929 -0.050487876 -0.030766837
-0.03931645 -0.031340737 -0.018161967 0.0025872488 -0.012507152 0.024170248 -0.024811652 -0.025377166
-0.021013454 -0.007734488 -0.046934023 -0.061752893 -0.028419748 0.027196346 -0.02310696 -0.011549531
0.018790372 0.01177223 -0.023402926 -0.00028498468 0.011855903 -0.015096959 -0.082708515 -0.023432815
0.0126192635 -0.066996984 -0.030049955 -0.03686155 -0.025988646 -0.057455618 0.035837777 0.008084781
-0.031888872 -0.006277381 -0.038155325 0.024593893 -0.024466988 -0.017183404 -0.02742608 -3.8391618e-06
-0.01849388 -0.07144352 -0.032026134 0.010930352 0.00041885182 -0.019204915 -0.030509654 0.04143862
-0.010115088 -0.015454429 -0.021107387 -0.008452664 -0.01381081 -0.051712856 0.010896985 0.02035937
0.023435399 -0.033333454 -0.020420112 -0.031857636 -0.024514941 -0.018651385 -0.029924968 -0.023664592
00000000: b6d9 0c3d f8b8 3cbd 73a3 a93c f1b1 873c
00000010: a9e6 44bc c77b e33c c95d 84bd ade5 99bc
00000020: 8174 3fbc d407 d33c f249 25bd f0c8 babc
00000030: 8343 dc3c 5c5c 30bc d079 c0bc 6ab3 acbc
00000040: 7f50 febc b33f 913c c823 28bc d896 cabc
00000050: e286 07bd 69c4 05bd bfa3 3cbd e9e6 f2ba
00000060: 1752 f2bc c033 bfbc 85ca 383d fa8b 073d
00000070: 573a 44bc 1fc1 8fbb d5df 2ebc f6c6 a5bc
00000080: 2835 7d3d c99e 46bd 0c72 97bc f892 aabd
00000090: 5c79 0e3c be63 22bc 1486 f9bb 49bf 4ebc
000000a0: 8329 6f3b ee6a c4bc b3b4 a7bc 9580 2bbd
000000b0: 3e1a 0d3c d437 efbc 5859 453d b5cf 27bc
000000c0: b935 3abd 1f6e 233c b276 99bc 0caf 94bc
000000d0: c7ab 0b3b 0907 b33c bb22 c1b9 3d86 34bd
000000e0: 8d54 033d 40fe 7bbc b9b9 dfb8 7e2e fbbc
000000f0: 8aaa b4bc eceb 3bbd 60cc 4ebd bc0a fcbc
00000100: 490a 21bd 255f 00bd 68c8 94bc d58e 293b
00000110: ccea 4cbc af00 c63c ce41 cbbc c6e3 cfbc
00000120: 6824 acbc 9771 fdbb e43d 40bd 9af0 7cbd
00000130: 88d0 e8bc dfca de3c cf4a bdbc 3e3a 3dbc
00000140: 44ee 993c 50e0 403c 7eb7 bfbc ff69 95b9
00000150: 433f 423c 3c59 77bc 1563 a9bd 2df6 bfbc
00000160: 07c1 4e3c b735 89bd 532b f6bc 23fc 16bd
00000170: 24e6 d4bc 9556 6bbd a2ca 123d 0776 043c
00000180: e89d 02bd 7db2 cdbb c248 1cbd 2279 c93c
00000190: fe6e c8bc 36c4 8cbc a9ac e0bc 26d2 80b6
000001a0: 7a80 97bc fb50 92bd d62d 03bd 3815 333c
000001b0: 5799 db39 a053 9dbc 62ef f9bc 8bbb 293d
000001c0: c1b9 25bc 9334 7dbc 66e9 acbc 0b7d 0abc
000001d0: bc46 62bc dcd0 53bd 4589 323c b2c8 a63c
000001e0: 98fb bf3c a988 08bd 1448 a7bc 277d 02bd
000001f0: 8fd3 c8bc caca 98bc 3525 f5bc 3fdc c1bc

action_model._continuous_distribution.log_sigma f4 [1, 2]
-0.5277285 -0.54626656
00000000: 3719 07bf 20d8 0bbf

action_model._continuous_distribution.mu.weight f4 [2, 128]
0.031949326 0.010749811 -0.045027524 -0.017105166 0.00032366504 -0.027816704 0.0020194983 0.035811782
-0.011917995 0.032719135 0.007972924 0.017086374 0.046698637 -0.028188027 0.0017645515 -0.0033900598
0.011851395 -0.005613782 0.039789677 -0.008489809 -0.0023857574 -0.015995588 0.009701596 -0.02155365
-0.021255985 0.0021970929 0.05103308 0.046134055 0.006423425 0.0060940175 -0.023042845 -0.0029956491
-0.015370992 -0.009497304 -0.021958819 0.052307393 0.03243891 -0.0058702487 0.024314094 0.012651707
0.017005634 0.058603007 0.016438909 0.0005982383 -0.0077641634 0.009571711 -0.049645096 0.00086619944
0.00036747925 -0.028757105 0.03491804 -0.0054640733 0.06257006 -0.013032677 -0.0062577506 0.016569197
-0.014469455 0.035701487 -0.049946185 0.0018125464 4.4310127e-05 0.03181321 -0.009624157 -0.0114251245
0.0011943091 0.014377179 0.034689073 0.0009115332 -0.023200069 -0.0093885595 -0.013211325 -0.014639283
-0.002410097 -0.013433548 0.066584945 -0.0034540724 0.013001656 -0.026281293 -0.017234964 0.0337989
-0.04072327 0.023337137 0.025407609 -0.010931217 0.045427434 0.004859615 0.07091851 0.028831044
-0.026116164 -0.00028557202 0.06422469 0.018360855 -0.01224605 0.02904059 -0.042027123 -0.019699937
-0.014937323 -0.014337945 0.013376266 -0.0053538573 0.017628333 -0.0054836622 -0.061854728 -0.025356838
0.042321716 0.0010492752 0.014912501 0.005654917 0.002400065 -0.021427734 0.0008395259 -0.03720421
0.0054553347 0.017374167 0.0092004165 -0.061087612 0.007159355 0.0042788493 0.03432011 0.022093656
-0.03282954 0.022657946 0.018936519 0.038813382 0.02683302 0.019424018 0.0023809609 -0.03844735
0.01093955 -0.02931642 0.04997606 -0.022260899 0.0582677 -0.025861673 -0.005406383 0.018745322
0.039002214 -0.018672286 0.004796044 -0.001989195 -0.019594552 -0.010778144 0.0054377494 -0.026915258
0.0047742906 0.025278853 0.026037902 0.014981275 -3.4776874e-06 -0.0042874315 -0.002275059 0.05310749
-0.02810874 0.033890117 -0.011748058 0.0046260753 0.01708255 -0.019756326 -0.0024432745 -9.909994e-05
0.004633626 -0.0032353401 -0.0016313228 0.05102068 -0.024250513 -0.01858807 0.024948034 0.025952915
0.038792234 0.05086946 0.0030251874 0.012786986 0.01837555 0.011394215 -0.017774815 0.019098613
-0.0006721789 -0.0016039514 -0.0064209662 -0.013104662 0.017732676 -0.032305174 -0.056336537 0.0072661624
0.027010607 -0.021976518 -0.0014281815 0.00050645886 0.0060809837 -0.001507667 0.004165744 0.0056229113
0.016073758 -0.012107918 0.035454426 0.03909426 -0.026127512 0.021836877 0.0070682345 -0.005481416
0.015733872 0.018083714 -0.0027904676 0.0044538896 0.010770013 0.034947447 0.022989098 -0.025929136
0.0054029096 -0.027987484 0.07043663 -0.046843555 -0.031075237 -0.01405041 0.0456879 0.013307376
0.027242437 0.0024282625 -0.02801602 0.019261623 0.0011601634 0.044175863 0.0066688624 -0.012864923
-0.0365888 0.02507006 -0.0040583774 0.0069019734 -0.009516653 0.040434595 0.04572964 0.052440647
0.028967809 -0.0897858 0.011282889 -0.028849643 -0.015095757 0.004197124 -0.0070242356 0.027553719
0.025346037 0.015967442 0.011242095 0.017175674 -0.0019365761 0.010312126 0.018831452 -0.06257873
-0.10695566 -0.007776202 -0.025896797 0.053712334 0.022968184 -0.03407176 -0.0029092357 -0.037091475
00000000: 4cdd 023d fa1f 303c c86e 38bd 2220 8cbc
00000010: 96b1 a939 dbdf e3bc 8f59 043b 60af 123d
00000020: b243 43bc 8004 063d dea0 023c b9f8 8b3c
00000030: 1247 3f3d 94ea e6bc 8648 e73a c42b 5ebb
00000040: 5a2c 423c d1f3 b7bb 80fa 223d d718 0bbc
00000050: 5e5a 1cbb 2e09 83bc 71f3 1e3c 4891 b0bc
00000060: 0821 aebc 1afd 0f3b 1008 513d 10f7 3c3d
00000070: 987b d23b 53b0 c73b 59c4 bcbc a752 44bb
00000080: 9dd6 7bbc 959a 1bbc fbe2 b3bc 4740 563d
00000090: aade 043d 375b c0bb 5a2e c73c 1b49 4f3c
000000a0: 664f 8b3c b509 703d e4aa 863c 18d3 1c3a
000000b0: 866a febb aad2 1c3c a858 4bbd a911 633a
000000c0: 3baa c039 0594 ebbc 3806 0f3d f80b b3bb
000000d0: bb24 803d 0287 55bc d10d cdbb 20bc 873c
000000e0: 4b11 6dbc b93b 123d 5f94 4cbd f792 ed3a
000000f0: a3d9 3938 924e 023d a4ae 1dbc 7230 3bbc
00000100: 5d8a 9c3a 428e 6b3c 2116 0e3d f5f3 6e3a
00000110: 120e bebc 79d2 19bc 5074 58bc 9ad9 6fbc
00000120: b8f2 1dbb 6218 5cbc b05d 883d b85d 62bb
00000130: e604 553c de4b d7bc 5730 8dbc b770 0a3d
00000140: 72cd 26bd 862d bf3c 9e23 d03c d918 33bc
00000150: 1e12 3a3d 683d 9f3b b93d 913d 152f ec3c
00000160: 91f1 d5bc d4b8 95b9 3c88 833d 8169 963c
00000170: a8a3 48bc 88e6 ed3c a224 2cbd c361 a1bc
00000180: acbb 74bc b3e9 6abc 2028 5b3c 696f afbb
00000190: 4b69 903c 4bb0 b3bb 625b 7dbd 25b9 cfbc
000001a0: 8959 2d3d d587 893a 9053 743c e24c b93b
000001b0: 694a 1d3b 3789 afbc a113 5c3a 7163 18bd
000001c0: aac2 b23b 4554 8e3c 58bd 163c 0137 7abd
000001d0: 0699 ea3b 9735 8c3b 3e93 0c3d c1fd b43c
000001e0: 4578 06bd 289d b93c c220 9b3c c8fa 1e3d
000001f0: ecd0 db3c 1e1f 9f3c e509 1c3b f87a 1dbd
00000200: cc3b 333c fd28 f0bc b2b3 4c3d 7d5c b6bc
00000210: 1daa 6e3d dcdb d3bc 0728 b1bb ca8f 993c
00000220: c9c0 1f3d 9ff6 98bc 2228 9d3b 275d 02bb
00000230: c184 a0bc d096 30bc 262f b23b 637d dcbc
00000240: a771 9c3b 9915 cf3c 704d d53c 0674 753c
00000250: 3762 69b6 957d 8cbb 2819 15bb 3d87 593d
00000260: 4d44 e6bc 5dd0 0a3d ed7a 40bc 5596 973b
00000270: b4f0 8b3c 05d8 a1bc 581f 20bb e0d3 cfb8
00000280: acd5 973b 0008 54bb 1cd2 d5ba 10fb 503d
00000290: 03a9 c6bc 0246 98bc d25f cc3c 359b d43c
000002a0: 9be4 1e3d 7f5c 503d 3942 463b 8280 513c
000002b0: 5288 963c cdae 3a3c 7d9c 91bc b274 9c3c
000002c0: 2a35 30ba ae3b d2ba f866 d2bb f0b4 56bc
000002d0: 1e44 913c 6e52 04bd 24c1 66bd fd18 ee3b
000002e0: 5945 dd3c 1908 b4bc d231 bbba e1c3 043a
000002f0: fd42 c73b e99c c5ba cb80 883b 6640 b83b
00000300: 1dad 833c 4a60 46bc a938 113d 4e21 203d
00000310: 5d09 d6bc 40e3 b23c a69c e73b 739d b3bb
00000320: 52e4 803c 4c24 943c 47e0 36bb eff1 913b
00000330: b574 303c 0e25 0f3d a253 bc3c 5769 d4bc
00000340: e40a b13b 0246 e5bc 1441 903d 07df 3fbd
00000350: 7f91 febc b133 66bc 3c23 3b3d 2e07 5a3c
00000360: 882b df3c 7c23 1f3b da81 e5bc 8dca 9d3c
00000370: a010 983a c0f1 343d 7986 da3b 66c7 52bc
00000380: 23de 15bd ba5f cd3c 23fc 84bb f329 e23b
00000390: bceb 1bbc bf9e 253d 014f 3b3d 01cc 563d
000003a0: e64d ed3c 9ee1 b7bd dedb 383c 1656 ecbc
000003b0: 3254 77bc 0788 893b 8f2b e6bb 56b8 e13c
000003c0: 7ea2 cf3c 27ce 823c c430 383c 00b4 8c3c
000003d0: b6d4 fdba 31f4 283c 6b44 9a3c 4729 80bd
000003e0: 920b dbbd 83cf febb 8525 d4bc 7701 5c3d
000003f0: c627 bc3c d48e 0bbd e0a8 3ebb 3bed 17bd

action_model._continuous_distribution.mu.bias f4 [2]
-0.012839264 -0.0136596365
00000000: c75b 52bc abcc 5fbc

action_model._discrete_distribution.branches.0.weight f4 [1, 128]
0.014712176 -0.017608453 0.0021525517 -0.007225435 -0.008825871 -0.004477258 0.006933374 0.00593635
-0.0051898584 0.008866819 -0.018876629 0.004356626 0.0031626348 0.01230183 -0.0013413639 0.0030472088
-0.0051269033 0.008303 -0.00011802371 0.002633832 -0.01315157 -0.012038563 0.0070455186 -0.0027596068
0.006898628 0.0062518404 0.004589635 -0.014756736 0.0014450245 0.00037329525 -0.0032439895 -0.008428696
-0.00209581 0.0046834564 0.004422302 -0.0040243855 -0.011112157 -0.007859875 -0.0019894815 -0.003784569
-0.0010784107 -0.005529454 0.00816319 0.00879681 -0.0052359984 0.0071577863 -0.007138996 -0.016461892
0.0030507154 -0.009714508 -0.00018747094 -0.01534102 0.0065032276 0.0064752446 -0.009673811 -0.003415867
-0.007078323 0.006008969 -0.0020777448 -0.008327979 0.019301472 0.008269526 0.02086678 -0.0045103887
0.007380114 0.0042063696 -0.0011676176 -0.009220953 -0.002778747 0.00798096 0.0017320339 -0.0033494688
-0.003237394 0.0042330227 0.0015747078 -0.009352563 -0.00976128 -0.010857775 -0.0037418266 0.0019758574
0.0011059822 0.011170815 0.0053608376 0.0051760264 -0.009963837 0.013504535 -0.008915182 0.003986403
0.011099977 0.01722388 0.0138851805 0.0034585744 0.00023451932 -0.008743732 0.007855731 -0.00019256693
0.0057448964 0.009218502 0.0026511322 0.0152069675 -0.0012020043 0.007065542 -0.009614484 0.0060190014
0.008907354 -0.012154967 0.00552689 -0.00904381 -0.0021995672 0.0016761087 0.006774913 5.9728565e-05
-0.0071211318 -0.0037070538 0.0042535495 0.014653355 -0.013571135 -0.00058239745 -0.0062898374 -0.015937401
-0.0013811387 -0.008614338 0.015849462 0.0010777782 -0.00065827736 -0.0039780173 0.008717875 0.0077286414
00000000: 570b 713c 9a3f 90bc d311 0d3b 58c3 ecbb
00000010: 639a 10bc f6b5 92bb 5b31 e33b b785 c23b
00000020: b00f aabb 2246 113c 29a3 9abc 07c2 8e3b
00000030: 3544 4f3b 9d8d 493c b4d0 afba aeb3 473b
00000040: 95ff a7bb 4e09 083c 7f83 f7b8 5e9c 2c3b
00000050: af79 57bc 653d 45bc 18de e63b 85da 34bb
00000060: e30d e23b 3ddc cc3b a664 963b 3dc6 71bc
00000070: fa66 bd3a d7b6 c339 1d99 54bb 8318 0abc
00000080: db59 09bb ae77 993b f5e8 903b fede 83bb
00000090: c40f 36bc b5c6 00bc f661 02bb 8806 78bb
000000a0: 7559 8dba 6c30 b5bb e7be 053c 7f20 103c
000000b0: bd92 abbb dd8b ea3b 3dee e9bb 17db 86bc
000000c0: 83ee 473b 9a29 1fbc d993 44b9 e758 7bbc
000000d0: 0719 d53b 4a2e d43b e77e 1ebc bddc 5fbb
000000e0: 47f1 e7bb e3e6 c43b c62a 08bb 1372 08bc
000000f0: 1f1e 9e3c e87c 073c cff0 aa3c e2cb 93bb
00000100: e2d4 f13b 96d5 893b bf0a 99ba 7b13 17bc
00000110: a31b 36bb 93c2 023c 6a05 e33a c382 5bbb
00000120: 752a 54bb 2bb5 8a3b 6d66 ce3a 7e3b 19bc
00000130: c7ed 1fbc cfe4 31bc 6f39 75bb 637d 013b
00000140: 9bf6 903a cb05 373c f7a9 af3b a89b a93b
00000150: 5d3f 23bc 2042 5d3c fc10 12bc 5fa0 823b
00000160: aedc 353c 1819 8d3c ab7e 633c 40a9 623b
00000170: 4de9 7539 df41 0fbc 53b5 003c cbeb 49b9
00000180: af3f bc3b 3309 173c 9ebe 2d3b a526 793c
00000190: 928c 9dba 1086 e73b 1286 1dbc 0b3b c53b
000001a0: 27f0 113c a025 47bc ea1a b53b 7d2c 14bc
000001b0: 9d26 10bb e0b0 db3a 1700 de3b 0f85 7a38
000001c0: 6258 e9bb 0bf2 72bb 5c61 8b3b a014 703c
000001d0: 7759 5ebc 08ac 18ba fb1a cebb 278f 82bc
000001e0: 5307 b5ba 2723 0dbc bbd6 813c 3c44 8d3a
000001f0: 3f90 2cba 075a 82bb 6bd5 0e3c 8b40 fd3b
