Assets/Result/PlayerAgent_BehaviorCloning/PlayerAgent_0.onnx (onnx, 78861 bytes, 7 tensors)

network_body._body_endoder.seq_layers.0.weight f4 [128, 8]
000000 af 67 2e 3e c8 79 40 3d 9f a9 68 3e 14 cb 79 bd
       0.1703174 0.04699114 0.22720955 -0.060984686
000010 97 38 ee bd 66 20 e8 bc da 80 be 3d 91 a8 22 bf
       -0.116318874 -0.028335761 0.0930192 -0.6353846
000020 63 52 44 be 7e 02 19 3e 3e 82 0c bf 3d 6e 4b be
       -0.19172053 0.14942357 -0.54886234 -0.19866271
000030 b4 bd 6c be 3f 92 91 bf 34 0d 3a 3e 89 b1 e3 3e
       -0.23119241 -1.1372756 0.18169099 0.44471386
000040 b9 a1 50 be bd 51 b1 3d df 04 a3 be c6 65 f5 3e
       -0.20374192 0.086581685 -0.31839654 0.4792921
000050 60 e2 01 bf 5f 29 7a be d3 d7 a8 3d e3 2f e6 3e
       -0.50736046 -0.24429844 0.0824429 0.4495841
000060 39 06 ae 3d 2b 11 f0 3e 43 bd ee bd eb c4 35 bd
       0.08497281 0.46888098 -0.116571926 -0.04437725
000070 24 43 ad 3d 80 87 e7 be 83 47 4d bd 7b 54 15 be
       0.08460072 -0.45220566 -0.050117027 -0.14583008
000080 58 f9 08 be 13 ce fd bd 99 27 93 3e 16 95 4d 3e
       -0.13376367 -0.12392821 0.28741148 0.20076403
000090 e1 d4 4b 3c bb 71 e1 3e bb bf 10 bf fa fe 84 be
       0.012440891 0.44032082 -0.5654256 -0.25975782
0000a0 40 d5 0f bf ca 25 91 3e 9d bf 6c 3d cf ce 2c 3e
       -0.5618477 0.28349143 0.057799924 0.16875766
0000b0 ea b8 52 3f b1 72 0d 3e b3 ae a8 be 58 09 9d be
       0.82313406 0.13813283 -0.32945785 -0.3067119
0000c0 c4 17 89 3d c5 42 e7 be eb 9e 0e 3e b7 2a a1 bd
       0.06693986 -0.4516813 0.1392781 -0.07869475
0000d0 72 52 96 3c 00 7a 53 bd a7 bd a8 be 74 f0 58 be
       0.01834986 -0.05163002 -0.32957193 -0.21185476
0000e0 f3 d1 76 bd 21 ae b7 3e 0b 8f 53 be ae 92 c4 3d
       -0.060258817 0.35875037 -0.20660035 0.095982894
0000f0 33 69 50 3e de 12 1c bf a2 f0 aa 3e 77 25 b9 be
       0.2035263 -0.6096629 0.33386713 -0.36161396
000100 fa 1a be be 37 ce bb bc fe 08 8a 3d 88 40 ce be
       -0.37129956 -0.02292548 0.067399964 -0.40283608
000110 c5 fc 18 3d a7 5f 64 bd e9 2e 16 bf 7d 08 04 3e
       0.037350435 -0.055755284 -0.5866533 0.12893863
000120 d3 22 27 3f ba 54 2f be 41 30 17 3c f0 86 58 be
       0.6528751 -0.17122164 0.009227813 -0.21145225
000130 44 d1 a8 3e ad dc 13 3f 65 66 b3 bd 4a 1b b5 3d
       0.32972157 0.577586 -0.087597646 0.088430956
000140 5f 95 d0 3e f8 ed 94 be 2e 4d b3 3d e3 f5 19 bf
       0.4073896 -0.29087806 0.08754955 -0.6014082
000150 c6 c9 cf be 4f b3 50 3d 6c 9e ec 3e b4 09 03 bf
       -0.40583628 0.050952252 0.46214616 -0.5118668
000160 a1 90 33 bf 1d df 45 bf 19 c9 2d 3f 87 5a a4 3d
       -0.7014256 -0.7729357 0.67884976 0.08025079
000170 98 b7 9f bf c0 1b 27 3e 0f 3e 1e be 8f d6 d1 3d
       -1.2477903 0.1631918 -0.15453361 0.10246002
000180 63 aa a6 be db e4 52 3e 39 19 09 3d 0b 6e 06 3d
       -0.3255187 0.20595114 0.03347132 0.03281979
000190 31 e5 e8 be fc 21 a5 bc 31 9f 1b 3e 35 98 94 3d
       -0.4548736 -0.020157807 0.15197445 0.07255594
0001a0 7f 00 05 bf cd 37 59 bd d2 22 5e be aa 24 78 bd
       -0.5195388 -0.05303173 -0.2169297 -0.06058184
0001b0 29 c4 ae 3e 34 3d dd bd 79 c1 4d bd 7e 58 0e 3d
       0.34134033 -0.10802689 -0.050233338 0.03475236
0001c0 2d 71 29 3e b3 6e 21 3e 86 c2 45 be 64 f5 b4 3d
       0.1654708 0.15764885 -0.19312486 0.08835867
0001d0 a2 50 f5 3e 92 1d d8 bd d9 74 74 bd 86 7c 16 3f
       0.4791308 -0.10552515 -0.059681747 0.5878376
0001e0 81 e3 0b 3d de ac 74 be f6 36 33 3f 44 ef 0a 3e
       0.03415251 -0.23894069 0.7000574 0.13567835
0001f0 e6 fb ff bd a3 00 2b 3e d0 22 c2 bd 04 0a b1 3e
       -0.12499218 0.16699462 -0.09479296 0.34577954
000200 83 23 02 be b4 1d 1c bf d7 04 39 3e 19 5e eb 3e
       -0.12708859 -0.60982823 0.18068253 0.45970228
000210 5a 1d 02 3e cc a4 9d 3e e8 30 93 be 1b c7 dd 3c
       0.12706509 0.30789793 -0.2874825 0.02707248
000220 74 10 30 bf ad f4 15 bf c0 87 8a 3e 83 9f ca be
       -0.68775105 -0.5857647 0.27056694 -0.39574823
000230 ad 01 93 bf cf e2 f2 3d 1a b5 cc 3e b7 2b 41 3b
       -1.1484886 0.118596666 0.3998192 0.002947552
000240 56 10 3d 3e 47 a2 8e 3e 22 a7 63 bf 7f 38 b3 be
       0.18463263 0.27858183 -0.889269 -0.3500404
000250 cb 07 a1 be 21 0a 55 be 3a 62 59 be fb 66 55 be
       -0.31451258 -0.20804645 -0.21228877 -0.20840065
000260 18 fc 4a bf 09 f5 83 be dc 2f 2e 3e fd f6 c0 be
       -0.79290915 -0.25772884 0.17010444 -0.37688437
000270 5a 7c 00 bf 14 34 c9 3d 62 27 27 3e e0 57 ca be
       -0.50189745 0.09824386 0.16323617 -0.39520168
000280 2b e1 4d be 3d 14 db 3d 54 68 a1 be 87 fd 91 3c
       -0.20105426 0.106972195 -0.3152491 0.017821087
000290 90 02 8f be be 4c f6 3d ae 68 be 3d ee 86 93 3e
       -0.27931643 0.12026356 0.0929731 0.2881388
0002a0 0d c7 df 3c 10 cb 2b be 61 03 83 be b1 79 ff be
       0.027316594 -0.16776681 -0.25588515 -0.4989753
0002b0 8f 49 3f bf 94 8c e1 ba de a7 11 bf 3c 55 38 bd
       -0.74721617 -0.0017208033 -0.5689677 -0.04500316
0002c0 6b 27 86 bf 8d 40 79 bd ab 03 24 bf 07 3b 4a bd
       -1.048078 -0.060852576 -0.64068097 -0.0493727
0002d0 a8 95 35 bd 8f b2 a0 be 8b 8c 12 3e a0 1d 24 3e
       -0.044332176 -0.3138623 0.14311425 0.16026926
0002e0 48 c7 44 3e bf 48 88 3e 05 c6 69 3d bf 3a d4 3e
       0.19216645 0.26618 0.05707361 0.4145107
0002f0 9f 95 8e 3e 6e d5 13 3e cc fd a9 be 30 ab 6b be
       0.27848527 0.14436886 -0.33201444 -0.23014522
000300 d1 2e 13 bf ba 12 77 3e 18 59 ae be 6c 79 8f bd
       -0.5749331 0.24128237 -0.34052348 -0.07005581
000310 63 75 2d 3e b5 04 14 3d d9 be 88 be a0 af f1 bd
       0.1693931 0.0361373 -0.26708105 -0.11801076
000320 f7 44 1e 3f f4 a1 33 3d 9a c9 74 be 8f 89 1c bd
       0.6182398 0.043855622 -0.2390503 -0.038217124
000330 b9 fc 07 3f 28 e1 15 3f 12 7d 0b 3f 31 ef 2d bf
       0.5312 0.58546686 0.5448772 -0.679431
000340 b4 9a 8e 3d ac 54 b9 3d 7e 2e 19 be 37 c5 aa be
       0.06963101 0.09049353 -0.14959142 -0.33353588
000350 19 af 4e 3e ca 9b 76 3e 95 d8 8b 3c cf 69 53 3e
       0.20183982 0.24082866 0.017071048 0.20645832
000360 1a 66 27 3f f3 42 53 3e b5 61 1b bf 61 f0 67 3e
       0.6539017 0.20631008 -0.60695964 0.22650291
000370 6e 88 1c be 6e 74 34 bd 3e e9 bc be 44 21 21 be
       -0.15286419 -0.04405635 -0.368967 -0.15735346
000380 e3 31 a9 3e 30 3b 4f 3e f1 da 9b bf 75 eb c0 3d
       0.33045873 0.20237422 -1.2176191 0.0941991
000390 94 c0 88 3e 2a 71 4b bd 86 bd 04 3f 97 e2 1a 3e
       0.26709425 -0.04966847 0.5185169 0.151255
0003a0 b4 25 6e 3e 86 85 1c be 02 bc 0f bd 3d 9a cf be
       0.2325657 -0.1528531 -0.035091408 -0.40547362
0003b0 ce ea ab bd 60 5e 7e 3e ac 98 8b bb e9 9a 58 3e
       -0.08394395 0.24840689 -0.0042601433 0.21152844
0003c0 28 8e 0e bf c9 3c 69 3e a3 c1 1d 3e 1c 52 1d bf
       -0.55685663 0.22777094 0.15405898 -0.61453414
0003d0 50 11 16 bf 76 7f 19 3e fd 92 6d be db 35 4b bd
       -0.58620167 0.14990029 -0.23200603 -0.049611907
0003e0 d9 e1 33 be 01 67 c1 be 68 a0 a5 be 66 a7 e1 3c
       -0.17566623 -0.37773898 -0.32348943 0.027545642
0003f0 59 ee 0c bf 68 1b 11 be 97 8b 27 bf 70 af 57 bf
       -0.5505119 -0.14170611 -0.6544737 -0.8425207

network_body._body_endoder.seq_layers.0.bias f4 [128]
000000 00 00 00 00 00 00 00 00 00 00 00 00 00 00 00 00
       0.0 0.0 0.0 0.0
000010 00 00 00 00 00 00 00 00 00 00 00 00 00 00 00 00
       0.0 0.0 0.0 0.0
000020 00 00 00 00 00 00 00 00 00 00 00 00 00 00 00 00
       0.0 0.0 0.0 0.0
000030 00 00 00 00 00 00 00 00 00 00 00 00 00 00 00 00
       0.0 0.0 0.0 0.0
000040 00 00 00 00 00 00 00 00 00 00 00 00 00 00 00 00
       0.0 0.0 0.0 0.0
000050 00 00 00 00 00 00 00 00 00 00 00 00 00 00 00 00
       0.0 0.0 0.0 0.0
000060 00 00 00 00 00 00 00 00 00 00 00 00 00 00 00 00
       0.0 0.0 0.0 0.0
000070 00 00 00 00 00 00 00 00 00 00 00 00 00 00 00 00
       0.0 0.0 0.0 0.0
000080 00 00 00 00 00 00 00 00 00 00 00 00 00 00 00 00
       0.0 0.0 0.0 0.0
000090 00 00 00 00 00 00 00 00 00 00 00 00 00 00 00 00
       0.0 0.0 0.0 0.0
0000a0 00 00 00 00 00 00 00 00 00 00 00 00 00 00 00 00
       0.0 0.0 0.0 0.0
0000b0 00 00 00 00 00 00 00 00 00 00 00 00 00 00 00 00
       0.0 0.0 0.0 0.0
0000c0 00 00 00 00 00 00 00 00 00 00 00 00 00 00 00 00
       0.0 0.0 0.0 0.0
0000d0 00 00 00 00 00 00 00 00 00 00 00 00 00 00 00 00
       0.0 0.0 0.0 0.0
0000e0 00 00 00 00 00 00 00 00 00 00 00 00 00 00 00 00
       0.0 0.0 0.0 0.0
0000f0 00 00 00 00 00 00 00 00 00 00 00 00 00 00 00 00
       0.0 0.0 0.0 0.0
000100 00 00 00 00 00 00 00 00 00 00 00 00 00 00 00 00
       0.0 0.0 0.0 0.0
000110 00 00 00 00 00 00 00 00 00 00 00 00 00 00 00 00
       0.0 0.0 0.0 0.0
000120 00 00 00 00 00 00 00 00 00 00 00 00 00 00 00 00
       0.0 0.0 0.0 0.0
000130 00 00 00 00 00 00 00 00 00 00 00 00 00 00 00 00
       0.0 0.0 0.0 0.0
000140 00 00 00 00 00 00 00 00 00 00 00 00 00 00 00 00
       0.0 0.0 0.0 0.0
000150 00 00 00 00 00 00 00 00 00 00 00 00 00 00 00 00
       0.0 0.0 0.0 0.0
000160 00 00 00 00 00 00 00 00 00 00 00 00 00 00 00 00
       0.0 0.0 0.0 0.0
000170 00 00 00 00 00 00 00 00 00 00 00 00 00 00 00 00
       0.0 0.0 0.0 0.0
000180 00 00 00 00 00 00 00 00 00 00 00 00 00 00 00 00
       0.0 0.0 0.0 0.0
000190 00 00 00 00 00 00 00 00 00 00 00 00 00 00 00 00
       0.0 0.0 0.0 0.0
0001a0 00 00 00 00 00 00 00 00 00 00 00 00 00 00 00 00
       0.0 0.0 0.0 0.0
0001b0 00 00 00 00 00 00 00 00 00 00 00 00 00 00 00 00
       0.0 0.0 0.0 0.0
0001c0 00 00 00 00 00 00 00 00 00 00 00 00 00 00 00 00
       0.0 0.0 0.0 0.0
0001d0 00 00 00 00 00 00 00 00 00 00 00 00 00 00 00 00
       0.0 0.0 0.0 0.0
0001e0 00 00 00 00 00 00 00 00 00 00 00 00 00 00 00 00
       0.0 0.0 0.0 0.0
0001f0 00 00 00 00 00 00 00 00 00 00 00 00 00 00 00 00
       0.0 0.0 0.0 0.0

network_body._body_endoder.seq_layers.2.weight f4 [128, 128]
000000 c9 50 21 3e c3 4d 3f bd 99 1f 0a 3e 9b d3 b6 3d
       0.15753473 -0.04670502 0.13488616 0.08927079
000010 01 19 a8 bc cf 7e a0 3e 4c 62 be 3d 17 74 bc bb
       -0.020519735 0.31346747 0.092960924 -0.0057511437
000020 0e 2c 08 3d 2e c6 62 3c bf fa 93 bd 9a 25 7c 3d
       0.03324514 0.013841195 -0.072255604 0.061559297
000030 0f 16 3a 3d 77 d5 4f be 85 e0 91 3d e1 fb 0f bd
       0.045431193 -0.20296274 0.07122902 -0.03515232
000040 69 30 f5 3d 0c 49 0f 3d 66 ae 14 bd fe f3 8e bd
       0.11972124 0.034981772 -0.03629913 -0.069801316
000050 1d fd fb bc 91 fa 2f 3d ea 29 d7 3d c6 2b 1b be
       -0.030760342 0.042963568 0.10506041 -0.15153417
000060 5d b0 53 bb 3e a9 d3 3c c1 a7 6a 3e 6a 26 ee bc
       -0.0032301166 0.025837537 0.22915556 -0.029071052
000070 17 aa 7c bd e8 4b 51 3d 8a a1 46 bd 68 f8 a8 3b
       -0.061685648 0.05109778 -0.0484939 0.0051565655
000080 98 dd 72 be 9b b0 0a 3e f7 75 b5 3c 55 86 21 be
       -0.23717344 0.13543932 0.022150977 -0.157739
000090 eb e5 41 3d 44 d5 3f be 9d bb ca 3c 27 79 75 bb
       0.047338407 -0.18733698 0.024747664 -0.0037456246
0000a0 eb b6 ab 3d 5d 02 01 3d 55 df d7 3d eb 98 d2 bc
       0.08384498 0.031496394 0.10540644 -0.025707683
0000b0 03 02 96 3d bd b0 e7 bd b6 83 12 3e 54 a9 04 be
       0.073246025 -0.11313007 0.14308056 -0.12955219
0000c0 04 6e 21 bd 51 ee 24 3e 34 81 ae bd 3e ba 42 be
       -0.03941156 0.16106535 -0.08520737 -0.19016358
0000d0 36 4c 9f bd 12 b4 24 3e 5c 85 c0 bd c5 86 a9 bc
       -0.07778208 0.16084316 -0.09400436 -0.020694146
0000e0 86 3d 61 3c f5 73 68 bc 7f b2 92 3d 68 de 49 bc
       0.0137475785 -0.014187803 0.07162952 -0.012321092
0000f0 a1 42 f6 bd 74 6b b3 3d b5 f3 36 3c 6c 42 90 bd
       -0.12024427 0.087607294 0.011166503 -0.07043919
000100 61 9a 6d bd dd cb ab 3d 8f 01 aa 3d c5 c6 49 3d
       -0.058008555 0.08388493 0.083010785 0.049261827
000110 87 21 3e 3d 91 cf e8 3d c9 8e 36 3e 27 ff c4 bd
       0.046418693 0.11367715 0.17827906 -0.09618979
000120 b8 4e a6 bc d3 e5 16 3d 96 a1 00 be 26 76 89 bd
       -0.020301208 0.03684027 -0.1256164 -0.06711988
000130 e6 50 30 be 9b 61 93 3c 5d c9 04 be 59 e8 26 3d
       -0.1721836 0.017990878 -0.12967439 0.040748928
000140 a6 13 f5 3d 99 22 84 3d fb 30 59 bc 21 90 e6 bd
       0.11966638 0.064519115 -0.013256307 -0.11257959
000150 7b d6 82 bd ff ef e3 bc c3 66 42 bd cb fd 00 be
       -0.06388565 -0.0278244 -0.047461282 -0.12596814
000160 7b cb 8f bd b8 6a 11 bd 63 e8 f9 3d 82 70 71 bd
       -0.07021233 -0.035502166 0.122025274 -0.058945186
000170 ca eb d5 bd 68 03 79 bd b0 bc 51 3e 2e fd a7 3c
       -0.10445364 -0.060794264 0.20482135 0.020506468
000180 ec 06 48 bd 21 f1 50 3e 69 bc bb 3d 4b ba 14 bc
       -0.048834726 0.20404483 0.09166796 -0.009077619
000190 44 4b c2 3c 60 43 77 3d 2c ef b3 3c 1a 54 d0 bc
       0.02371753 0.06036699 0.021964632 -0.025430728
0001a0 1d ea dd 3d f2 39 d6 3d dc 7e ef 3b 73 01 f5 bc
       0.10835669 0.10460271 0.007308824 -0.029907918
0001b0 b0 d6 04 bd 94 79 8d 3d 37 5c d9 bd 28 ee b0 bd
       -0.032431304 0.06907955 -0.10613292 -0.08639175
0001c0 43 2b 36 3e 30 b6 9e bc bd a8 ba 3d e2 e2 fa bc
       0.1778994 -0.019373983 0.091142155 -0.030625764
0001d0 ab 46 97 bc 8a 0f 1e 3e a1 51 d5 bc 9d b5 40 3d
       -0.018466314 0.15435615 -0.0260399 0.0470482
0001e0 07 55 aa 3b b2 6c 60 bd 88 0e 44 3d 63 23 b2 3d
       0.0051981243 -0.05479116 0.04786542 0.08698156
0001f0 e3 54 11 be c5 92 94 bd 26 0a 4b 3d 35 99 d9 3c
       -0.14192538 -0.072545566 0.049570225 0.026562313
000200 5c 52 55 bc 6d 67 0e bd 6a af 8e 3c 32 5f f4 bd
       -0.013020124 -0.034766603 0.017417628 -0.119322196
000210 57 af aa bd 7e 71 fb 3c ba 98 d7 3c 19 61 03 be
       -0.08334225 0.030693766 0.026317943 -0.12830009
000220 85 6b d2 bd 8c f0 70 3d 71 ef 6b bd c8 6d 8b bc
       -0.10274414 0.058823153 -0.057601396 -0.017020121
000230 a3 fc 0f 3e fa 90 48 be 21 46 c3 3d 11 83 96 bd
       0.14061217 -0.19586554 0.095348604 -0.07349218
000240 51 1d 04 bd 6a 98 d8 bc 57 8c b7 3c a0 f5 ff bd
       -0.03225452 -0.026439864 0.022405786 -0.12498021
000250 d0 62 f6 3c 21 3c a9 3c 82 ba 2e bc ff 4d 02 be
       0.030076414 0.020658555 -0.010664584 -0.12725066
000260 a4 cf 8e bc d4 75 16 bd e5 ac d0 bd 87 41 17 3e
       -0.017432995 -0.036733463 -0.10189227 0.1477109
000270 d2 21 83 3d f7 0e 93 3d eb 05 84 3d 82 1c 7a bc
       0.06402935 0.07180589 0.06446441 -0.015265586
000280 15 22 be bc 3e 7f bc 3d 32 49 af 3d db c8 98 3c
       -0.023209611 0.09203957 0.08558883 0.018650463
000290 fa af df bd 78 f1 99 3d dc 83 82 3d 24 5f 85 3c
       -0.10922237 0.0751676 0.063728064 0.016280718
0002a0 85 ac 54 3c 7f 5b 3d be e2 ae 49 be 65 d0 c4 3c
       0.012980585 -0.18491934 -0.19695619 0.024025152
0002b0 fe 75 88 bd 0b 1f 1f 3e d0 ec e7 bd a7 a4 2e bd
       -0.0666313 0.15539186 -0.11324465 -0.042637493
0002c0 16 df 85 3d 8b b2 99 3c 08 6e 13 3e f8 ba bc 3c
       0.06536691 0.018761894 0.14397442 0.023038372
0002d0 0e 11 8c 3d 55 c4 92 bd 08 89 91 3d f4 09 0a 3e
       0.068391904 -0.071663536 0.07106215 0.1348036
0002e0 e5 35 36 3e d9 6d 32 be ac b3 72 bd 45 af ea bd
       0.17793997 -0.17424716 -0.05925338 -0.11459211
0002f0 7a c2 36 bd 9d f9 f6 bc 22 c2 9a 3c eb 9e b5 bc
       -0.04461906 -0.030148322 0.018891398 -0.022170505
000300 32 9b a6 3c f1 10 d4 bd bb 1c d9 3d 55 06 00 3d
       0.020337675 -0.10354794 0.10601183 0.03125604
000310 8e ad d9 bd 0f cd fc bd 42 ee 10 be 04 2b bf 3d
       -0.10628806 -0.12343799 -0.14153388 0.093343765
000320 57 6f 48 bd 2f 50 8f 3d 88 d9 9e bd ce 23 11 be
       -0.048934307 0.06997716 -0.077563345 -0.14173815
000330 88 d9 e8 bc 6f ec 74 bd b2 2e dd 3d a4 15 39 3d
       -0.02842404 -0.059795793 0.10799922 0.045186654
000340 87 67 ac bd f8 cd f5 bd 8f b1 b1 3d 26 78 40 3d
       -0.08418184 -0.12002176 0.08676445 0.046989582
000350 29 d1 ce 3c 53 68 71 3e f6 0e 4c be a0 46 7a 3d
       0.02524622 0.23574953 -0.19927582 0.06110251
000360 73 b0 83 3d f4 b2 66 3c 64 29 c4 bd 96 e2 43 bc
       0.064301394 0.014080752 -0.09578207 -0.011955878
000370 77 0f ef 3d 5f 6d 67 3d 33 7f bc bd a5 e2 46 3e
       0.116728716 0.05650079 -0.09203949 0.19422396
000380 5c 6b db bd bf ca e6 bd 5e 17 c8 3d 4d c7 c2 3c
       -0.107138366 -0.112691395 0.09770082 0.023776675
000390 7c dd 00 be e8 4a dc 3d 38 40 26 3e fc 89 26 be
       -0.1258449 0.10756475 0.16235435 -0.16263574
0003a0 6b 64 c5 3b a4 2c 47 bd 60 e3 39 3b 28 71 f0 3c
       0.0060239336 -0.048626557 0.0028364286 0.029350832
0003b0 ba b0 f3 3d 3b 36 c3 bb e0 a5 dc 3d 8a f3 ff 3d
       0.11898942 -0.0059573925 0.10773826 0.12497623
0003c0 e1 b4 41 be c1 bd e6 bc 88 9f 85 bd 5f d5 ae 3d
       -0.18916656 -0.028166654 -0.06524569 0.08536791
0003d0 e3 71 ad bd c8 bb 78 3d d1 58 fc bd 51 48 ff 3c
       -0.08468988 0.060725957 -0.12321628 0.031162413
0003e0 a9 ce 98 3d e1 4a 16 bd 15 4f 1e be 6c 7e 26 bd
       0.07461292 -0.036692504 -0.15459855 -0.04064791
0003f0 b2 c6 9f 3d fc df 81 3d e2 05 9b 3d d2 b7 e4 3c
       0.0780157 0.0634155 0.075694814 0.027919684

action_model._continuous_distribution.log_sigma f4 [1, 2]
000000 00 00 00 00 00 00 00 00
       0.0 0.0

action_model._continuous_distribution.mu.weight f4 [2, 128]
000000 34 3e a9 3c 5f 24 07 bc 78 07 89 3c 21 73 83 bc
       0.020659544 -0.008248418 0.016727194 -0.016046109
000010 72 5c a8 3c 28 cc e6 3a 25 69 a2 3c 87 2d 53 3c
       0.020551894 0.0017608451 0.019825527 0.0128892725
000020 36 0a 02 3a d8 5d 6c bc 38 f8 60 3d 25 fa 13 bc
       0.0004960628 -0.014426671 0.05492422 -0.009031807
000030 18 b6 b8 bb a2 fd 69 bc 1f 10 0f 3c af ed 8d bc
       -0.0056369416 -0.014281662 0.008731871 -0.01732525
000040 5f ad c0 ba dd e1 7a 3c ad 8d 6d 3c c3 26 85 bc
       -0.0014700106 0.015312639 0.01449911 -0.016253835
000050 b6 ae 3e bd be 5b 90 3c 88 e2 e6 3b a4 74 a2 bc
       -0.046553336 0.017621871 0.0070460476 -0.01983101
000060 73 26 a2 3b eb f2 60 bc a2 4c 9b 3c 3b 4c 85 3b
       0.004948431 -0.013729791 0.01895744 0.0040679253
000070 da 87 e5 3c 8f 3b 21 bd 40 cb ad 3c cf 2b 11 bd
       0.02801888 -0.03936344 0.021215081 -0.03544217
000080 97 80 2c bd fb 0d 7a bc 65 a7 e8 bc 05 e0 ee 3a
       -0.04211482 -0.015262122 -0.028400132 0.0018224722
000090 d7 73 e7 3c 73 02 4f bb 2b f7 b0 3c c7 c5 81 3c
       0.028253479 -0.0031587153 0.021602234 0.015841378
0000a0 27 5e 08 3c e2 e4 be bb 0f b5 db bb b9 4d 18 3a
       0.008323229 -0.005825625 -0.0067049335 0.00058099214
0000b0 a6 0e a2 bc 8b 02 d1 ba da 55 b6 bb 30 e3 a0 3c
       -0.019782376 -0.0015946192 -0.0055644335 0.019639581
0000c0 52 ce f4 3b 07 ce 02 bd 75 b5 de bc f0 5c 9f 3b
       0.0074708844 -0.031934764 -0.027186135 0.004863374
0000d0 b7 b4 50 bc 3f 8f 93 3c b5 2f e4 bc 1f 59 c8 bb
       -0.012738398 0.018012641 -0.02785478 -0.0061141397
0000e0 4d dc 0c 3c 34 6b 34 bc 3c 5e 9c 3b 12 e6 73 bb
       0.008597446 -0.011011887 0.004771976 -0.003721599
0000f0 d4 79 23 bc d2 b0 c7 bc d2 1b e4 3b 08 1c e3 bc
       -0.009977777 -0.024376307 0.0069613243 -0.027723327
000100 ff e8 fe bc 45 d6 7a bb 2f 6f 8f 3c ea 74 33 3b
       -0.03111696 -0.0038274687 0.017509071 0.0027382919
000110 38 f7 59 bc f5 e6 7a bb 76 5a 20 3d 80 8c 9d bc
       -0.01330357 -0.0038284634 0.03914877 -0.019232035
000120 6e 74 a5 3c fa 24 ea 38 9d 64 6a 3c 7f 0e 65 3c
       0.02019712 0.00011164877 0.014306215 0.013980507
000130 4a 82 d4 bb 18 04 66 bc d0 be 7a 3c cb e8 1f bc
       -0.006485258 -0.014039062 0.015304282 -0.009760092
000140 3d 71 7d bc 5b 51 6e 3c 9d 80 d3 3c 88 13 e5 3a
       -0.015468893 0.014545764 0.025818164 0.0017477134
000150 49 ec 88 3c 68 41 44 ba 44 17 8f 3a e7 9b 80 bc
       0.016714232 -0.0007486553 0.0010916968 -0.01569934
000160 9f 94 bc bc 35 1c e6 3c 76 fd 97 bc 12 bb 44 3c
       -0.023020087 0.028089622 -0.018553477 0.012007492
000170 ec 33 c5 3a 2a d1 d1 bc 4a 95 6f bb 4d 5c c2 bb
       0.0015045381 -0.025612433 -0.003655749 -0.0059314133
000180 43 58 dc 3b 9f fc 8c bc 73 51 09 3d 6b 95 a1 3b
       0.006724389 -0.017210303 0.03352494 0.004931142
000190 bc fa 80 3c f3 28 b8 3c 36 23 3f bc dc a8 03 3d
       0.01574456 0.022480464 -0.01166611 0.03214346
0001a0 0b 46 9d bc 33 0d a0 bb a8 21 9c 3a 33 5a 95 3c
       -0.019198438 -0.004884386 0.0011911886 0.018231487
0001b0 ea 57 fc 3c 6b 61 44 bd 5e 5f 14 3d 93 55 66 bd
       0.03080364 -0.047944468 0.03622376 -0.056233954
0001c0 16 35 25 3b 1f 22 1a 3c aa cb 26 3c 4a 8a 51 3b
       0.0025208644 0.009407549 0.010180393 0.0031973296
0001d0 07 2a 5c 3c 5c 28 82 3c 37 c6 bc 3b ea e9 88 b9
       0.0134377545 0.015888385 0.0057609337 -0.0002611422
0001e0 d7 f0 28 3d 2b df 8b 3c 01 11 a2 bb c3 6b 2f 3c
       0.041245308 0.017074188 -0.0049458747 0.010706845
0001f0 1b c7 1b 3d 83 52 74 3c 66 58 1b bd a1 56 ab bc
       0.03803168 0.01491225 -0.0379261 -0.020915331
000200 c1 31 82 bc aa d9 ec bc 82 33 eb 3c 0d 31 4c bc
       -0.015892865 -0.028912384 0.028711084 -0.0124628665
000210 b0 8f 95 bb 1f 30 8e 3d 6a 0d aa 3c a1 93 a2 3c
       -0.004564248 0.06942772 0.02075835 0.019845786
000220 93 fd 66 3c bf 08 da 3a d8 0d de 3b e8 03 1f 3c
       0.014098543 0.0016634687 0.0067765526 0.009705521
000230 a5 e2 a0 3b 05 c8 b4 38 58 68 98 3c 1f 7c 09 3c
       0.0049098306 8.6203254e-05 0.018604442 0.008391409
000240 f2 d3 86 bc 11 d2 05 bc 10 b8 06 bc 57 2c 06 bd
       -0.016458485 -0.0081677595 -0.008222595 -0.03275713
000250 04 03 27 3c 00 95 0c 3a 30 ae 88 3c 53 ed 8f 3c
       0.01019359 0.0005362779 0.016684622 0.01756922
000260 90 27 16 3c 57 de 19 3b 33 5b 87 3c 8b 2a d3 bc
       0.009164706 0.0023478472 0.01652298 -0.025777122
000270 dd 12 77 3a 30 d4 dd 3c eb 59 9d 3c b4 aa bb ba
       0.0009425113 0.027078718 0.019207915 -0.0014317841
000280 3f f0 06 bd cd 2e aa 3c 6a 1a 65 3c 08 a3 7d 3b
       -0.03294396 0.02077427 0.013983348 0.003870191
000290 c0 92 9c 3b b2 57 f0 3b 38 da 17 3a c7 6d 03 bc
       0.004778236 0.007334673 0.000579271 -0.008021778
0002a0 db 74 3b bb b3 14 e5 bc 47 21 50 3c fe ad 11 bd
       -0.0028603587 -0.027963972 0.012703246 -0.035566323
0002b0 86 9b 2b 3c 60 b2 73 bc 23 e6 86 3c 8e 8c 90 bb
       0.010474091 -0.014874071 0.01646716 -0.0044112867
0002c0 b5 b2 20 3c a7 30 68 3b 60 94 e0 bc 59 1a aa 3c
       0.009808232 0.003542939 -0.0274145 0.020764517
0002d0 ae e1 0a 3c 6b 94 1e bd 7b ad 77 bc f4 b5 a9 bc
       0.008476658 -0.03871576 -0.015117045 -0.020716645
0002e0 68 30 e4 ba 0d c4 77 3b d8 5f a3 3c f7 9d a7 3c
       -0.0017409446 0.0037806064 0.019943163 0.020461066
0002f0 43 59 57 3c 6f b6 da 3b 48 e9 4f 3c 57 78 b7 bc
       0.01314384 0.00667458 0.012689896 -0.02239625
000300 eb bc d3 3c e8 b9 52 bc c2 45 0b bc 23 f7 1b 3d
       0.025846919 -0.012861706 -0.008500518 0.038077485
000310 04 fc 47 bb 01 5c 34 bc a3 a4 dc 3b 03 10 c7 3c
       -0.0030515203 -0.011008264 0.0067334934 0.024299627
000320 1b c9 5d 3b 7e 5f 99 ba bd fa 9d ba d1 da 41 3c
       0.0033841792 -0.0011701433 -0.0012052875 0.011831955
000330 c8 43 5e 3b 4d 41 2f bc df 46 8b 3c 83 4f 1e bc
       0.0033914912 -0.010696721 0.017001567 -0.009662512
000340 be a2 ae 3c 10 27 86 bb 94 90 32 bb 70 45 89 bb
       0.021317836 -0.004094012 -0.002724682 -0.004189186
000350 6a 82 e3 bb d3 e3 c5 bb 83 eb 50 bc 37 c5 bf bc
       -0.006943037 -0.0060391217 -0.012751463 -0.023409469
000360 05 4e 59 3c ab 40 12 3d 47 24 e0 39 14 be a5 3c
       0.01326323 0.035706203 0.00042751638 0.020232238
000370 56 4e ba 3b db 7d d2 3c 73 2b 33 bb 2a a2 fa bb
       0.005685608 0.025694778 -0.002733913 -0.007648726
000380 5f 3c c0 3c 5f 51 ad bc ab 85 9a bc 93 0b 95 bc
       0.023466287 -0.021156965 -0.018862566 -0.018193996
000390 b8 68 ad 3c 99 2f 81 bc 53 cf 2f bb 5a 18 5b bc
       0.021168098 -0.015769767 -0.0026826456 -0.013372505
0003a0 2a a0 4f 3a f4 f3 af bc 60 dd 39 3c 59 88 03 3c
       0.00079202896 -0.02147863 0.011344284 0.008028113
0003b0 af d1 f1 bb 09 9e a0 bc c9 0c 00 bd 13 44 09 3c
       -0.0073797326 -0.019606607 -0.031262193 0.008378047
0003c0 c5 81 ed 3c cd b0 d1 3c 72 b6 5e 3c a1 81 0a bd
       0.028992543 0.025597 0.013593303 -0.03381503
0003d0 33 dd 4b 3c 92 2b c7 3c 83 d5 9c bc 80 a9 df 3b
       0.012442875 0.024312768 -0.01914478 0.006825626
0003e0 07 78 93 3b 53 76 0e 3c 6b 50 96 3c c3 81 ed b9
       0.0045003924 0.008695203 0.018348893 -0.00045300843
0003f0 af ff a3 bb b2 11 4e bc 91 74 a5 bc 18 57 48 3c
       -0.005004845 -0.012577461 -0.020197185 0.012227796

action_model._continuous_distribution.mu.bias f4 [2]
000000 00 00 00 00 00 00 00 00
       0.0 0.0

action_model._discrete_distribution.branches.0.weight f4 [1, 128]
000000 8d 70 d0 bb 32 d0 1e 3a df d9 29 3b fb f6 b0 3a
       -0.0063610733 0.0006058245 0.0025917215 0.001350134
000010 27 db 46 3c 09 37 b5 ba 5b 87 04 3a 59 59 00 3c
       0.012137211 -0.0013825606 0.000505557 0.007833802
000020 d5 90 f8 39 83 08 94 3c bc cd 91 3b 57 6b d3 3a
       0.00047410154 0.018070465 0.0044495743 0.0016130012
000030 c6 ee 2a 3b 16 89 80 bb c3 fb 6a bc f7 65 56 bc
       0.0026082261 -0.003922592 -0.014342251 -0.013085834
000040 20 e5 55 bb 0b 5d a1 3b 73 4b d5 3b 57 be 03 bc
       -0.003263779 0.0049244217 0.0065092384 -0.008040986
000050 49 16 b6 3b c9 c3 31 3c fc 06 ae bc da 00 a1 3a
       0.005556856 0.0108499015 -0.021243565 0.0012283579
000060 3d 73 04 3c 73 32 6f bc 53 11 16 3b 03 fe ef 3a
       0.008084116 -0.01459943 0.002289851 0.0018309954
000070 f9 df 18 bc 85 b9 1a 3c 64 5b 2d 3b 51 41 b4 3c
       -0.009330743 0.009443645 0.0026452178 0.022003802
000080 7b 99 a9 ba 7b b3 b0 bb c3 ad a9 3b d5 e4 35 3c
       -0.0012939418 -0.0053924895 0.0051781847 0.011101921
000090 1a 42 f5 ba c3 17 29 bc 7a 4c 34 bb 5b 7f a6 bb
       -0.0018711716 -0.010320607 -0.0027511404 -0.0050811
0000a0 5e d3 2b 3b 97 26 28 bc d6 7b c5 b8 fb d7 1f bc
       0.0026218514 -0.010263107 -9.416758e-05 -0.009756084
0000b0 d0 70 05 bb e7 91 6c 3b ca bf 47 3b 1a 65 d5 3b
       -0.002036143 0.0036097707 0.0030479305 0.0065122964
0000c0 63 1b 85 3b 4b 5e 36 3c ef 41 80 bc 8b 72 6a 3a
       0.0040621026 0.01113088 -0.01565644 0.000894346
0000d0 da d8 58 3b 3d 5a 68 3c 1c c4 30 3c f0 ca 08 3c
       0.0033088238 0.014181671 0.010788944 0.008349165
0000e0 55 f4 73 3c 5a fe 82 3b e2 11 57 3b 7b 8a b5 3b
       0.014889796 0.003997606 0.0032817055 0.00554019
0000f0 11 9e 88 bb 31 50 1d 3c cc 1f 03 3c 49 5a b3 bb
       -0.0041692336 0.009601639 0.008003186 -0.0054734093
000100 eb 89 1d bc e6 c3 87 3b 73 32 92 bb 15 7b 61 3c
       -0.009615402 0.004143226 -0.0044615804 0.013762255
000110 fe cc b3 3b 6b 5e 90 bb a6 12 0f 3b ed ef e1 38
       0.0054870835 -0.0044057867 0.0021831184 0.00010773526
000120 77 4b a7 bc e3 dd 30 3c a9 66 94 3b e7 e9 61 bc
       -0.020421727 0.010795089 0.0045288396 -0.013788677
000130 5b bf 8a 3b db a7 01 3c 7b 5d b6 3b d5 02 3a 3b
       0.004234237 0.007913555 0.005565343 0.0028383036
000140 2f 30 44 3b 0d 0c 42 3b fb dc 48 3c 56 82 3e bc
       0.0029935946 0.0029609234 0.012259717 -0.011627754
000150 97 7d 8b 3b f0 23 02 3b 4e 72 45 3c 5b 8c 66 3a
       0.004256915 0.0019857846 0.012051178 0.00087947183
000160 f5 0d a9 b9 22 e0 e1 3a f3 40 c8 bc b3 ff 8f bb
       -0.0003224459 0.0017232934 -0.024445033 -0.0043944954
000170 7b e2 8f bc 90 9f 34 3c 9a e0 e5 bb ed 90 b4 3b
       -0.017564049 0.011024371 -0.0070153 0.0055104406
000180 38 f3 5e 3b 19 54 46 bc 89 a5 39 bb af 82 b2 3b
       0.0034019481 -0.012105011 -0.0028327426 0.0054477076
000190 57 e5 ec 39 bf d8 a6 3b ba 1a 60 38 4c 1a a7 3b
       0.000451843 0.005091756 5.3430653e-05 0.0050995704
0001a0 ad 33 aa 3c 89 c2 0e bc 1a 67 0f 3c 7a 3c cd bb
       0.020776594 -0.008713373 0.008752609 -0.006263313
0001b0 59 9a ad 3b fb 38 f0 3a ca b1 1c 3c 45 bf 22 bc
       0.0052979407 0.0018327528 0.009563873 -0.0099332975
0001c0 71 88 39 bc 51 4d 02 bc 46 eb 11 3c 5a 3c 18 bc
       -0.011324034 -0.007953004 0.008906191 -0.009291733
0001d0 52 fb 78 3b 7a 13 9b 3c 55 62 aa 3b 53 c8 fa 3a
       0.0037991595 0.018930186 0.0051997104 0.0019133188
0001e0 6f ae 3f 3c 23 65 40 3c 3b a6 1f 3a d0 3e 0a 3c
       0.011699303 0.011742863 0.0006090139 0.008437827
0001f0 38 42 df b8 6b 74 b5 bb 0a 5e 67 bc 9c 06 1e 3c
       -0.00010645803 -0.0055375597 -0.014121542 0.0096451305
